node {
  name: "global_step/Initializer/zeros"
  op: "Const"
  attr {
    key: "_class"
    value {
      list {
        s: "loc:@global_step"
      }
    }
  }
  attr {
    key: "_output_shapes"
    value {
      list {
        shape {
        }
      }
    }
  }
  attr {
    key: "dtype"
    value {
      type: DT_INT64
    }
  }
  attr {
    key: "value"
    value {
      tensor {
        dtype: DT_INT64
        tensor_shape {
        }
        int64_val: 0
      }
    }
  }
}
node {
  name: "global_step"
  op: "VariableV2"
  attr {
    key: "_class"
    value {
      list {
        s: "loc:@global_step"
      }
    }
  }
  attr {
    key: "_output_shapes"
    value {
      list {
        shape {
        }
      }
    }
  }
  attr {
    key: "container"
    value {
      s: ""
    }
  }
  attr {
    key: "dtype"
    value {
      type: DT_INT64
    }
  }
  attr {
    key: "shape"
    value {
      shape {
      }
    }
  }
  attr {
    key: "shared_name"
    value {
      s: ""
    }
  }
}
node {
  name: "global_step/Assign"
  op: "Assign"
  input: "global_step"
  input: "global_step/Initializer/zeros"
  attr {
    key: "T"
    value {
      type: DT_INT64
    }
  }
  attr {
    key: "_class"
    value {
      list {
        s: "loc:@global_step"
      }
    }
  }
  attr {
    key: "_output_shapes"
    value {
      list {
        shape {
        }
      }
    }
  }
  attr {
    key: "use_locking"
    value {
      b: true
    }
  }
  attr {
    key: "validate_shape"
    value {
      b: true
    }
  }
}
node {
  name: "global_step/read"
  op: "Identity"
  input: "global_step"
  attr {
    key: "T"
    value {
      type: DT_INT64
    }
  }
  attr {
    key: "_class"
    value {
      list {
        s: "loc:@global_step"
      }
    }
  }
  attr {
    key: "_output_shapes"
    value {
      list {
        shape {
        }
      }
    }
  }
}
node {
  name: "global_step/IsVariableInitialized"
  op: "IsVariableInitialized"
  input: "global_step"
  attr {
    key: "_class"
    value {
      list {
        s: "loc:@global_step"
      }
    }
  }
  attr {
    key: "_output_shapes"
    value {
      list {
        shape {
        }
      }
    }
  }
  attr {
    key: "dtype"
    value {
      type: DT_INT64
    }
  }
}
node {
  name: "global_step/cond/Switch"
  op: "Switch"
  input: "global_step/IsVariableInitialized"
  input: "global_step/IsVariableInitialized"
  attr {
    key: "T"
    value {
      type: DT_BOOL
    }
  }
  attr {
    key: "_output_shapes"
    value {
      list {
        shape {
        }
        shape {
        }
      }
    }
  }
}
node {
  name: "global_step/cond/switch_t"
  op: "Identity"
  input: "global_step/cond/Switch:1"
  attr {
    key: "T"
    value {
      type: DT_BOOL
    }
  }
  attr {
    key: "_output_shapes"
    value {
      list {
        shape {
        }
      }
    }
  }
}
node {
  name: "global_step/cond/switch_f"
  op: "Identity"
  input: "global_step/cond/Switch"
  attr {
    key: "T"
    value {
      type: DT_BOOL
    }
  }
  attr {
    key: "_output_shapes"
    value {
      list {
        shape {
        }
      }
    }
  }
}
node {
  name: "global_step/cond/pred_id"
  op: "Identity"
  input: "global_step/IsVariableInitialized"
  attr {
    key: "T"
    value {
      type: DT_BOOL
    }
  }
  attr {
    key: "_output_shapes"
    value {
      list {
        shape {
        }
      }
    }
  }
}
node {
  name: "global_step/cond/read"
  op: "Identity"
  input: "global_step/cond/read/Switch:1"
  attr {
    key: "T"
    value {
      type: DT_INT64
    }
  }
  attr {
    key: "_output_shapes"
    value {
      list {
        shape {
        }
      }
    }
  }
}
node {
  name: "global_step/cond/read/Switch"
  op: "RefSwitch"
  input: "global_step"
  input: "global_step/cond/pred_id"
  attr {
    key: "T"
    value {
      type: DT_INT64
    }
  }
  attr {
    key: "_class"
    value {
      list {
        s: "loc:@global_step"
      }
    }
  }
  attr {
    key: "_output_shapes"
    value {
      list {
        shape {
        }
        shape {
        }
      }
    }
  }
}
node {
  name: "global_step/cond/Switch_1"
  op: "Switch"
  input: "global_step/Initializer/zeros"
  input: "global_step/cond/pred_id"
  attr {
    key: "T"
    value {
      type: DT_INT64
    }
  }
  attr {
    key: "_class"
    value {
      list {
        s: "loc:@global_step"
      }
    }
  }
  attr {
    key: "_output_shapes"
    value {
      list {
        shape {
        }
        shape {
        }
      }
    }
  }
}
node {
  name: "global_step/cond/Merge"
  op: "Merge"
  input: "global_step/cond/Switch_1"
  input: "global_step/cond/read"
  attr {
    key: "N"
    value {
      i: 2
    }
  }
  attr {
    key: "T"
    value {
      type: DT_INT64
    }
  }
  attr {
    key: "_output_shapes"
    value {
      list {
        shape {
        }
        shape {
        }
      }
    }
  }
}
node {
  name: "global_step/add/y"
  op: "Const"
  attr {
    key: "_output_shapes"
    value {
      list {
        shape {
        }
      }
    }
  }
  attr {
    key: "dtype"
    value {
      type: DT_INT64
    }
  }
  attr {
    key: "value"
    value {
      tensor {
        dtype: DT_INT64
        tensor_shape {
        }
        int64_val: 0
      }
    }
  }
}
node {
  name: "global_step/add"
  op: "Add"
  input: "global_step/cond/Merge"
  input: "global_step/add/y"
  attr {
    key: "T"
    value {
      type: DT_INT64
    }
  }
  attr {
    key: "_output_shapes"
    value {
      list {
        shape {
        }
      }
    }
  }
}
node {
  name: "Const"
  op: "Const"
  device: "/device:CPU:0"
  attr {
    key: "_output_shapes"
    value {
      list {
        shape {
          dim {
            size: 594
          }
        }
      }
    }
  }
  attr {
    key: "dtype"
    value {
      type: DT_STRING
    }
  }
  attr {
    key: "value"
    value {
      tensor {
        dtype: DT_STRING
        tensor_shape {
          dim {
            size: 594
          }
        }
        string_val: "./imgdownload/I/I73OYO_c1ff8ed1-7f0a-46e6-89f7-a07341eae215.jpg"
        string_val: "./imgdownload/I/ULXI9N_4d71f1d3-11c7-434c-ae46-00f7ab3baa8a.jpg"
        string_val: "./imgdownload/I/K9I6Z5_d1728487-8561-4d2a-83b1-6fe91ba9ecc9.jpg"
        string_val: "./imgdownload/I/IO58NY_86720dc7-546e-4510-bcdb-7a118f3a3d82.jpg"
        string_val: "./imgdownload/I/GWUI6A_caefabc0-ca46-4fa5-9621-9f51896c8e61.jpg"
        string_val: "./imgdownload/I/456TI8_fa9b1926-a0f3-4109-956b-59585f1db96d.jpg"
        string_val: "./imgdownload/I/6J5IWH_8fd7e14d-2d34-48e6-9fdc-2d88b61cc685.jpg"
        string_val: "./imgdownload/I/II6B37_ca32f21c-9ed5-406f-97b4-efc94b46db55.jpg"
        string_val: "./imgdownload/I/P653I4_2041912d-a95a-4db7-b87e-ec8254623af4.jpg"
        string_val: "./imgdownload/I/KICRBJ_5ff16cbc-c4e0-4b1b-9385-f9fbc369455b.jpg"
        string_val: "./imgdownload/I/V5M5DI_63486e72-86d3-4dd8-a7d6-b3dd3a8dbe57.jpg"
        string_val: "./imgdownload/I/I78QUS_ee7de496-1617-480f-9aeb-cd3967713df2.jpg"
        string_val: "./imgdownload/I/II6B37_7dc3eda3-b8bd-4a0f-be11-1f29ba19bbbb.jpg"
        string_val: "./imgdownload/I/7BSIO9_43a22b48-948c-4cff-8ac6-a9c9d3c123bd.jpg"
        string_val: "./imgdownload/I/BFJI77_9ebc3c0f-77f4-4fa1-8a60-fc4344d9e179.jpg"
        string_val: "./imgdownload/I/XIRJ39_fe4c1837-4493-4ccb-8b1c-09ed287bcb7d.jpg"
        string_val: "./imgdownload/I/BQE5OI_784f8c27-43b8-4788-a640-9be3dbc1ebf4.jpg"
        string_val: "./imgdownload/L/8O6L86_5f1a9ab8-3c15-4d16-9e4e-95d3f4cc3af6.jpg"
        string_val: "./imgdownload/L/LF4R39_7fb7b698-1921-4099-9ac0-59c26fc1a1f1.jpg"
        string_val: "./imgdownload/L/396X8L_78701fee-5f30-4a32-8dbe-62c4b10a9b53.jpg"
        string_val: "./imgdownload/L/EU5LJT_1eecc96b-ce62-4050-a4bc-db241659efe5.jpg"
        string_val: "./imgdownload/L/5DZ8LF_fc5ef84f-87ba-498a-8263-5891a37db7ab.jpg"
        string_val: "./imgdownload/L/ULXI9N_6f93dca2-78fc-4c87-bf71-0239eb566674.jpg"
        string_val: "./imgdownload/L/TDLCOL_7260f7ef-baaf-4962-983a-3fd0ec754f5c.jpg"
        string_val: "./imgdownload/L/454L57_c108b0bd-6dca-4b21-8a2c-d1c6da6302b5.jpg"
        string_val: "./imgdownload/L/L5589A_b70ff48f-0ec5-438a-b400-d334633ef088.jpg"
        string_val: "./imgdownload/L/4XWL68_fc285b22-79fb-4bc2-b4f8-9cc4e2bfa0e7.jpg"
        string_val: "./imgdownload/L/L7NN6R_573a06e5-ed9c-474d-809a-b16f2bc5dfb8.jpg"
        string_val: "./imgdownload/L/6TTJL3_a98e660f-463d-4be8-900c-cc8275221aa0.jpg"
        string_val: "./imgdownload/L/TDLCOL_bb2dc0f5-27bc-47ea-bb46-fc8d475629f7.jpg"
        string_val: "./imgdownload/L/7L7858_8bc0f6e2-8166-40dd-8e15-ca29a3368de5.jpg"
        string_val: "./imgdownload/7/8H56V7_9db864f3-4a8a-40c0-ad70-d5994c057b21.jpg"
        string_val: "./imgdownload/7/II6B37_29b8114f-40e2-4e43-bab1-bde8b75c116a.jpg"
        string_val: "./imgdownload/7/BFJI77_8a6b557a-91bc-4ffe-9df5-2f263764e1d9.jpg"
        string_val: "./imgdownload/7/3QZB7O_1f04a72b-62b4-4db8-a9f7-6b372023dd77.jpg"
        string_val: "./imgdownload/7/EEM7Q4_e865842a-0979-4752-ba2b-5c7d2ea35ee7.jpg"
        string_val: "./imgdownload/7/RB9Y7V_97868301-d53d-43db-bddd-60748e59ab48.jpg"
        string_val: "./imgdownload/7/387445_18e3c24c-c500-42a0-9469-23c74017209a.jpg"
        string_val: "./imgdownload/7/BFJI77_66297a47-6f0c-4fb6-8f1e-8ebf54a43477.jpg"
        string_val: "./imgdownload/7/Y78N53_10de397f-5cb4-4d90-b745-c9250edb996e.jpg"
        string_val: "./imgdownload/7/454L57_0a80d623-fb8f-4b94-9a58-6f1760a4eb54.jpg"
        string_val: "./imgdownload/7/H7Q458_0a088ff7-c6e0-41d2-a480-9bc24c5dfdd3.jpg"
        string_val: "./imgdownload/7/78F7CD_da73ebaf-ed3a-470e-91d1-710325f39363.jpg"
        string_val: "./imgdownload/7/7569KW_507566a9-02d0-402b-b5c4-cb19a346f330.jpg"
        string_val: "./imgdownload/7/7UOQ7Z_d6922500-1da7-4ef7-892e-e25b48f1940e.jpg"
        string_val: "./imgdownload/7/78F7CD_3c123163-f6a3-48c8-9c47-2f688c1a82f4.jpg"
        string_val: "./imgdownload/7/L7NN6R_750b51ff-e7c6-43af-871e-b451531cfb24.jpg"
        string_val: "./imgdownload/7/5645W7_a1cd65c7-f614-4258-889b-f85ee6f41049.jpg"
        string_val: "./imgdownload/7/7L7858_096e4d6f-3e15-4a5b-88ab-fefd87f6f8ea.jpg"
        string_val: "./imgdownload/7/EBJA74_d777647c-0bda-4306-b4f3-1839a2d4d6bf.jpg"
        string_val: "./imgdownload/7/U8J76V_429204c1-fa9c-405b-b154-d10a31ffa596.jpg"
        string_val: "./imgdownload/7/34G567_572d89fe-8df4-4d88-9a82-1b5ad4e4ae84.jpg"
        string_val: "./imgdownload/7/S947GC_e2279d3f-583f-4856-b2c5-a0427d9a90ae.jpg"
        string_val: "./imgdownload/7/9795Z5_332a636b-cced-4061-a10b-03336baf3053.jpg"
        string_val: "./imgdownload/7/I73OYO_a72fd1d4-d530-430e-a325-1756300fe62f.jpg"
        string_val: "./imgdownload/7/7QH6K4_61cdf05f-0563-4c22-8df4-4b514161c84f.jpg"
        string_val: "./imgdownload/7/Y9R7W7_abbfd9b2-f5c8-4332-8dcb-92ea2cf081ea.jpg"
        string_val: "./imgdownload/7/7UOQ7Z_4b4c1b6e-ef87-4f7b-aa2d-64800333282e.jpg"
        string_val: "./imgdownload/7/Y9R7W7_69b86f66-5a80-4c51-a106-99fc28186aee.jpg"
        string_val: "./imgdownload/7/75T7H3_54d76873-95bc-451a-9b5b-33100b9001d6.jpg"
        string_val: "./imgdownload/7/DXV7O3_7499f1c9-1198-43d9-b701-ed0f5940b120.jpg"
        string_val: "./imgdownload/7/8H7334_5e8924b0-7da4-4c49-93fe-677f55296276.jpg"
        string_val: "./imgdownload/7/T94574_a5e61379-805b-44e2-bd58-0a9f65e53599.jpg"
        string_val: "./imgdownload/7/937D8N_5a66524a-b877-4d16-aa58-35721d3c9300.jpg"
        string_val: "./imgdownload/7/X8BF79_78ed69f5-6ad3-4d4e-9047-4781bd33b836.jpg"
        string_val: "./imgdownload/7/7BSIO9_989e36bb-ce70-4ed9-8a5c-9184b7c913e8.jpg"
        string_val: "./imgdownload/7/7U7YT7_b35e7148-5022-48a3-bd8c-2a0378bf7044.jpg"
        string_val: "./imgdownload/7/I78QUS_7365a737-90bd-474e-bb73-61c3d40553b0.jpg"
        string_val: "./imgdownload/7/7U7YT7_1151198d-28d3-49fe-aca3-5fcd395e2c3b.jpg"
        string_val: "./imgdownload/7/3V7W5Y_fef5cd6d-dc6e-4223-af69-07096d2f8c3e.jpg"
        string_val: "./imgdownload/7/8E974H_247e5493-d103-400e-be3a-4a07912ac40f.jpg"
        string_val: "./imgdownload/7/75T7H3_1eeb2207-9074-49f8-87d2-6a2242318a7a.jpg"
        string_val: "./imgdownload/7/7L7858_a263c614-1d87-4e14-a7f3-233a3cdc39c6.jpg"
        string_val: "./imgdownload/7/7ZD5EM_bce07b61-0580-45b8-867e-8ac634716971.jpg"
        string_val: "./imgdownload/7/9W4H73_66a79562-a6ce-4f30-847d-9bf97df15c17.jpg"
        string_val: "./imgdownload/7/YN7A6A_fe470a52-a85b-4627-9865-3d8ef200a8f4.jpg"
        string_val: "./imgdownload/7/7U7YT7_4ba8dbc4-b6df-467e-90ea-e7d65e12fca9.jpg"
        string_val: "./imgdownload/7/O7Q58B_8f4ddc39-d02d-468a-b449-9fe4eff95161.jpg"
        string_val: "./imgdownload/B/X8BF79_bcb77f79-09bb-44c9-b5a3-b7eacfe92b34.jpg"
        string_val: "./imgdownload/B/BQE5OI_be6bf4c0-0ef5-4b73-bbc2-f26dbef07d54.jpg"
        string_val: "./imgdownload/B/O7Q58B_3252f89d-07f3-4e74-9c8e-424f698be0c1.jpg"
        string_val: "./imgdownload/B/EBJA74_9badea66-bf35-4731-8992-69c01f71fc1d.jpg"
        string_val: "./imgdownload/B/4J3RBA_6ceccb3c-2807-4546-8dcc-d326dc83eefd.jpg"
        string_val: "./imgdownload/B/3QZB7O_f0adf17f-7819-42c0-9721-fb571c0a39d6.jpg"
        string_val: "./imgdownload/B/O5H4B3_514af393-0a85-41bf-9f55-e231f2c5d0ea.jpg"
        string_val: "./imgdownload/B/7BSIO9_044fc755-4138-4e63-be3d-aee870270ae6.jpg"
        string_val: "./imgdownload/B/II6B37_213d9b4d-b524-4bb4-9e13-4b00b0951b4e.jpg"
        string_val: "./imgdownload/B/BFJI77_39cd9ab5-45f3-474a-8636-0feba11aa4a9.jpg"
        string_val: "./imgdownload/B/4B66C5_6cbda59e-8e5f-47e5-98c9-1e2e21376d3e.jpg"
        string_val: "./imgdownload/B/KICRBJ_f52c369d-4a23-403d-a54e-a301c7788016.jpg"
        string_val: "./imgdownload/B/RB9Y7V_af43bffc-6114-4d78-91b2-c101bd005bab.jpg"
        string_val: "./imgdownload/B/53B6O5_02615e97-700f-40fe-bdc5-36940886e771.jpg"
        string_val: "./imgdownload/9/9795Z5_c205f3ce-3833-47c9-a7e5-379d61e6abee.jpg"
        string_val: "./imgdownload/9/G4ZK93_33fc72c8-4cc9-48b0-8489-be7e651be2c4.jpg"
        string_val: "./imgdownload/9/K9I6Z5_b4eb6f52-d1bc-4495-9265-e9251529f1d9.jpg"
        string_val: "./imgdownload/9/396X8L_8f41fdbf-4e8e-4e7c-8754-c529175385c7.jpg"
        string_val: "./imgdownload/9/L5589A_9ab53805-ccd7-44e9-9703-9be009ba4eba.jpg"
        string_val: "./imgdownload/9/T94574_f9750348-dc47-4573-a880-e27c16f11470.jpg"
        string_val: "./imgdownload/9/9795Z5_ac1c9d3b-b6f8-4acd-89a8-9efac1cb296c.jpg"
        string_val: "./imgdownload/9/9H8Y8A_891a21da-314f-411d-9aa7-a11d0b15a05b.jpg"
        string_val: "./imgdownload/9/9W4H73_1f13a1c4-059f-437c-b26b-6be88d0ef8c1.jpg"
        string_val: "./imgdownload/9/9UH99K_a7cdb99d-5dae-4778-9935-6a01141d7794.jpg"
        string_val: "./imgdownload/9/99XTP9_63d2115a-80aa-4d65-b2cb-49eddd35e68e.jpg"
        string_val: "./imgdownload/9/XIRJ39_131f7170-dd0b-4456-8deb-79e7518bb457.jpg"
        string_val: "./imgdownload/9/9RSS8P_b4476057-44f8-4e1d-be78-2ecdc12bd816.jpg"
        string_val: "./imgdownload/9/MW95OP_edb300c5-7fee-45bb-92f5-c559fb119549.jpg"
        string_val: "./imgdownload/9/5HJ9M4_d10a020d-48a7-4c5c-bfcf-4264c46ba788.jpg"
        string_val: "./imgdownload/9/ULXI9N_ff3f18d5-5ba5-42f6-84c6-1dc395cff472.jpg"
        string_val: "./imgdownload/9/7569KW_cd299ed1-0d8f-4a6b-82ad-a5cff3e88a4d.jpg"
        string_val: "./imgdownload/9/9UH99K_543dd95d-7292-4bae-8719-aac734fad2b3.jpg"
        string_val: "./imgdownload/9/7BSIO9_70258c92-569a-4cc6-900f-cf977c257bee.jpg"
        string_val: "./imgdownload/9/N865H9_b29280ab-6d5b-466e-88db-3d64182c668d.jpg"
        string_val: "./imgdownload/9/9486NC_54a3728a-3ab5-44fc-9c25-5261ff7ad0b6.jpg"
        string_val: "./imgdownload/9/MOM9A3_03f014f3-2d41-4e0f-89dd-ef3a571bb4b2.jpg"
        string_val: "./imgdownload/9/S947GC_80f8497c-5676-4fb1-8c12-5d53ab4cc31b.jpg"
        string_val: "./imgdownload/9/99XTP9_d205cf04-b052-4de8-ae4d-481305bc22e7.jpg"
        string_val: "./imgdownload/9/9U6W3X_2b82a454-f1c8-4bee-a717-f1f0e4f69928.jpg"
        string_val: "./imgdownload/9/P9F554_5c9e1c33-c935-4c6e-986a-c2b86c4649bd.jpg"
        string_val: "./imgdownload/9/998DQW_d1de1b7c-2d58-4b6e-9431-9a4955427f52.jpg"
        string_val: "./imgdownload/9/LF4R39_a142b7bc-be4e-4270-a43f-2d5e40d9c69a.jpg"
        string_val: "./imgdownload/9/998DQW_8044578e-268d-4c85-a081-e5477a8f7035.jpg"
        string_val: "./imgdownload/9/99XTP9_239fce85-e53c-4245-b665-2356ff34b1cd.jpg"
        string_val: "./imgdownload/9/RB9Y7V_2474cff0-9033-4352-a5a9-69561fe4318f.jpg"
        string_val: "./imgdownload/9/8E974H_3ab6ee48-d595-4294-9761-8bcb34199f80.jpg"
        string_val: "./imgdownload/9/49P69J_69fa4149-f482-4f53-b7fb-07f30b97ddc7.jpg"
        string_val: "./imgdownload/9/49P69J_03d67f0a-0dd1-4449-aec6-c52f05fd172f.jpg"
        string_val: "./imgdownload/9/937D8N_abeff86c-ef6a-4fb3-9c94-6c241a86dfe6.jpg"
        string_val: "./imgdownload/9/Y9R7W7_45664c77-33e4-4999-96a3-1866972f025c.jpg"
        string_val: "./imgdownload/9/43U689_d2b80ceb-eda1-4be5-8d02-275c0d5755c6.jpg"
        string_val: "./imgdownload/9/X8BF79_625f2b6c-d080-4800-8c4a-1c378f76ab28.jpg"
        string_val: "./imgdownload/9/ZA9RSF_1c75d579-4031-4c24-a3b5-1095013bd66e.jpg"
        string_val: "./imgdownload/9/9UH99K_cb3cc7a2-f75c-48e6-9285-b95693ab4baf.jpg"
        string_val: "./imgdownload/V/U8J76V_423615cb-35cd-4fc1-8541-bf3cf7490a54.jpg"
        string_val: "./imgdownload/V/YZMVSF_0df04dee-29e0-4526-88dc-0cc9c6569cdc.jpg"
        string_val: "./imgdownload/V/C8V3ZD_0fc3a48d-8182-4533-874e-9488559d4a74.jpg"
        string_val: "./imgdownload/V/HVUCZ8_cdd2f257-c977-4edc-bf30-6fbb726ab630.jpg"
        string_val: "./imgdownload/V/3V7W5Y_b3d95a10-9ec0-4a5d-991a-07f185d2254a.jpg"
        string_val: "./imgdownload/V/RB9Y7V_4f36ef89-2cb0-4fd9-add3-f0bc3559031e.jpg"
        string_val: "./imgdownload/V/5ZDCZV_d2c29b50-fb4d-4551-ab46-b5a59ceec340.jpg"
        string_val: "./imgdownload/V/DXV7O3_ae1eb982-7cf9-4cea-afd4-62dc22740c3c.jpg"
        string_val: "./imgdownload/V/V5M5DI_15cd7c41-30a5-4015-9f91-647a882fdbed.jpg"
        string_val: "./imgdownload/V/8H56V7_1fa6e7e8-b712-44af-96af-459f604017f0.jpg"
        string_val: "./imgdownload/Y/YN7A6A_36839760-7262-4960-a121-6c15d1f0f3d4.jpg"
        string_val: "./imgdownload/Y/3V7W5Y_b1ef70d1-e6da-4755-a773-b7bf3b7313c7.jpg"
        string_val: "./imgdownload/Y/IO58NY_80900981-f26e-4efa-bc1f-691a22101f18.jpg"
        string_val: "./imgdownload/Y/SFY558_e68aa747-b4ab-486a-a175-14ef65ae31b1.jpg"
        string_val: "./imgdownload/Y/9H8Y8A_bc4debbb-5c56-4b78-b737-acc201bf39f5.jpg"
        string_val: "./imgdownload/Y/YZMVSF_c64349c8-651f-4bcb-98c8-165d9f3910c5.jpg"
        string_val: "./imgdownload/Y/Y78N53_4f568c67-f957-410a-9685-267e9814c95e.jpg"
        string_val: "./imgdownload/Y/7U7YT7_272eb0eb-36aa-482a-bf5a-e3ce4c9355fa.jpg"
        string_val: "./imgdownload/Y/RB9Y7V_3bdb996c-a28c-4417-98b1-95c85af034a1.jpg"
        string_val: "./imgdownload/Y/Y9R7W7_605514c0-5a3d-4702-ae84-7f9af211c5b3.jpg"
        string_val: "./imgdownload/Y/I73OYO_9e182343-3a95-47cf-b56e-70797268b605.jpg"
        string_val: "./imgdownload/S/ZA9RSF_5072b85c-d6b5-4952-9034-c73f687570c0.jpg"
        string_val: "./imgdownload/S/9RSS8P_8dc6ca8c-f069-4ccb-850e-d379ce4b8962.jpg"
        string_val: "./imgdownload/S/SFY558_6f430397-cc29-493e-92fb-160606600a7c.jpg"
        string_val: "./imgdownload/S/M8HW8S_106a75d9-1e70-45de-a664-c93b8c6d6d5f.jpg"
        string_val: "./imgdownload/S/7BSIO9_9ced7e20-058e-4641-a2c2-5d1498bce0a9.jpg"
        string_val: "./imgdownload/S/J3CNES_d17497cf-7117-47ff-9156-61e97d8aa68b.jpg"
        string_val: "./imgdownload/S/YZMVSF_51d2703c-495c-4a5c-96c5-191e9a0f4578.jpg"
        string_val: "./imgdownload/S/9RSS8P_a9da6af0-4356-4209-866d-c8d3e0ebb6db.jpg"
        string_val: "./imgdownload/S/84S8KG_f7bd5944-ac2b-4128-b8b9-39097e6ea57d.jpg"
        string_val: "./imgdownload/S/S947GC_f3f5f9da-4953-4d39-b87a-a7eec576cbbc.jpg"
        string_val: "./imgdownload/S/I78QUS_48e3c01b-772f-484a-bd94-e1099b419b39.jpg"
        string_val: "./imgdownload/8/83UA38_7279098a-5de1-40ad-b02a-207bd059796d.jpg"
        string_val: "./imgdownload/8/8HUA58_922f4cc0-1c9a-4087-992e-67e521cc4eca.jpg"
        string_val: "./imgdownload/8/4K4854_c34a99a5-7e92-4fab-8a3a-ac2fbefb2589.jpg"
        string_val: "./imgdownload/8/387445_c6b51140-587d-4e43-9b7a-9fb3dc46748c.jpg"
        string_val: "./imgdownload/8/8O6L86_5db1cb41-4aa8-474f-9ce2-b2b628434a27.jpg"
        string_val: "./imgdownload/8/9486NC_5591ea09-8d7c-4111-967b-6113eb39e73f.jpg"
        string_val: "./imgdownload/8/8HUA58_5eb11a99-9b44-4dec-9023-1889bbee8d84.jpg"
        string_val: "./imgdownload/8/5DZ8LF_6d6b9b5a-c94d-49d4-817c-a763b2878604.jpg"
        string_val: "./imgdownload/8/396X8L_b58aa693-e0d2-4be2-937b-3f37be50c2e0.jpg"
        string_val: "./imgdownload/8/9RSS8P_a3602a44-7b82-43c0-a3bf-265f3f015b89.jpg"
        string_val: "./imgdownload/8/9H8Y8A_6deb8f17-ab4a-4f17-aeb3-536936cd9df3.jpg"
        string_val: "./imgdownload/8/8H56V7_582d3cf2-e2c5-4b48-b074-9b4476c13bcc.jpg"
        string_val: "./imgdownload/8/4XWL68_f1070e7d-63d7-4923-919c-eb653166840c.jpg"
        string_val: "./imgdownload/8/83UA38_d57cd3b1-e233-48ce-bf02-601f38d5c868.jpg"
        string_val: "./imgdownload/8/X8BF79_c4a92b57-57ef-47c5-8380-292efa98a278.jpg"
        string_val: "./imgdownload/8/84S8KG_8145a293-75d5-422f-a483-514c08fa2b34.jpg"
        string_val: "./imgdownload/8/7L7858_45ed55cb-9f31-4dea-8de4-b21b7b3e807b.jpg"
        string_val: "./imgdownload/8/9H8Y8A_dfd1b983-8dfe-4a24-bf98-5a91e99ce290.jpg"
        string_val: "./imgdownload/8/H7Q458_a6264af7-bdeb-4392-be68-9c957cdfe653.jpg"
        string_val: "./imgdownload/8/U8J76V_7101735b-0d92-4963-98b0-6554bc411d04.jpg"
        string_val: "./imgdownload/8/SFY558_1f6f60cb-03a5-4ed3-9622-d70ff27f09c5.jpg"
        string_val: "./imgdownload/8/I78QUS_59f8112f-ffc0-4a2b-9613-55deabe2573d.jpg"
        string_val: "./imgdownload/8/78F7CD_02f500ef-ffea-4956-be02-a0b8252bb39d.jpg"
        string_val: "./imgdownload/8/M8HW8S_8ca1b839-342d-42ec-b0ce-b903ee66c900.jpg"
        string_val: "./imgdownload/8/7L7858_0e38fbee-18dd-456a-8864-60666c94561f.jpg"
        string_val: "./imgdownload/8/M8HW8S_b88d56c5-6a80-4823-85d2-57e8d398a1a0.jpg"
        string_val: "./imgdownload/8/N865H9_4a558be2-545c-48d0-810b-409197122238.jpg"
        string_val: "./imgdownload/8/O7Q58B_43284771-77c4-4018-a933-ddae481778dc.jpg"
        string_val: "./imgdownload/8/8O6L86_f099b531-d50e-4c16-be2d-cd0463f26657.jpg"
        string_val: "./imgdownload/8/937D8N_c50eaf96-94a1-4a09-86ef-a96377fed98d.jpg"
        string_val: "./imgdownload/8/Q64JZ8_546e522c-1e62-41d8-a4b7-23d5bc1acf71.jpg"
        string_val: "./imgdownload/8/D58D5N_ea2048ce-561f-4d96-bf0f-034a04c2d991.jpg"
        string_val: "./imgdownload/8/IO58NY_c9f8e5af-bf2d-4eb8-a06d-f7146b1c9ad2.jpg"
        string_val: "./imgdownload/8/998DQW_79229fb7-f613-4b86-a751-66ce48a0e27d.jpg"
        string_val: "./imgdownload/8/Y78N53_a5b6a016-3ec4-4b1e-8837-e4fdcd458768.jpg"
        string_val: "./imgdownload/8/456TI8_8d49fb73-3832-47ca-92eb-218af38d64ef.jpg"
        string_val: "./imgdownload/8/43U689_75d733c9-6261-4289-8071-395cb0af52c1.jpg"
        string_val: "./imgdownload/8/84S8KG_563b595f-2965-4bfa-ac3d-bb41d3ac3368.jpg"
        string_val: "./imgdownload/8/HVUCZ8_c0d5a73c-23c1-4f23-bc47-03a1b9f7eb2a.jpg"
        string_val: "./imgdownload/8/8E974H_2816bb04-818f-4d53-a65d-ff0a57056f73.jpg"
        string_val: "./imgdownload/8/8H7334_d5ad7229-a448-4e43-9099-015e500b4483.jpg"
        string_val: "./imgdownload/8/L5589A_5d38de65-f4e6-4512-8303-0a6239a3e6e1.jpg"
        string_val: "./imgdownload/8/C8V3ZD_5e3dda4d-b1cf-49c4-b9ea-a3c3bc283ca6.jpg"
        string_val: "./imgdownload/U/7UOQ7Z_2c9cd859-bc9d-4b36-891f-4bf0f2ce4443.jpg"
        string_val: "./imgdownload/U/8HUA58_b8e135d1-d823-402a-bf1d-5e6711d111a8.jpg"
        string_val: "./imgdownload/U/43U689_71c40831-4856-49f0-9be6-640516dd2f11.jpg"
        string_val: "./imgdownload/U/9UH99K_4f7352f7-14e5-4cdb-a3bb-8ad812fe2f0d.jpg"
        string_val: "./imgdownload/U/9U6W3X_d752334a-ab26-41f1-b8c3-40e57a5bbba5.jpg"
        string_val: "./imgdownload/U/I78QUS_196ed4c9-1d68-4312-940f-367dd73b03ba.jpg"
        string_val: "./imgdownload/U/U8J76V_ee688f18-9e9a-4b32-b870-138c53f53e5f.jpg"
        string_val: "./imgdownload/U/83UA38_1f1d9616-c3d0-4572-8abf-8eb8a6310dc2.jpg"
        string_val: "./imgdownload/U/GWUI6A_a68d537a-8503-47fe-9297-a107b5ac904d.jpg"
        string_val: "./imgdownload/U/EU5LJT_6676da27-4181-4a29-9d69-ce9fff26a8c9.jpg"
        string_val: "./imgdownload/U/ULXI9N_fb830017-5143-4f42-a9de-4d8f8bba076f.jpg"
        string_val: "./imgdownload/U/7U7YT7_f5b9f0fe-ecd6-4da1-927b-cbde0dcf427b.jpg"
        string_val: "./imgdownload/U/UCCZKD_1645afd1-4e59-45f4-84fe-0904bc252a91.jpg"
        string_val: "./imgdownload/U/HVUCZ8_56281147-07e2-468f-8c68-7bfdd8858c3c.jpg"
        string_val: "./imgdownload/C/J3CNES_c44752c1-54e0-44a0-8560-5ae30e41fb1a.jpg"
        string_val: "./imgdownload/C/S947GC_1ce5291c-b8d7-4b31-a2b6-23b285cf8bf2.jpg"
        string_val: "./imgdownload/C/4B66C5_c618ea56-c3f7-45d7-8fe2-f717369a824a.jpg"
        string_val: "./imgdownload/C/UCCZKD_0be4ed6a-5d10-47e9-809e-10698855ee52.jpg"
        string_val: "./imgdownload/C/TDLCOL_e3850cf7-92d5-475e-9d64-a2a74320f769.jpg"
        string_val: "./imgdownload/C/QTPCF4_560da13b-2f02-44b9-8d8b-e190b177d083.jpg"
        string_val: "./imgdownload/C/HVUCZ8_31d7f142-2bf3-4436-810d-810b9287e192.jpg"
        string_val: "./imgdownload/C/78F7CD_cf5e8165-8123-4b78-a97a-3cec85011068.jpg"
        string_val: "./imgdownload/C/5ZDCZV_0c415be8-0eb8-478e-8a82-ed8a2ab19950.jpg"
        string_val: "./imgdownload/C/KICRBJ_7b0f38ea-bb08-4545-823b-0472bdc84734.jpg"
        string_val: "./imgdownload/C/5XCXHO_1f33a6f6-b039-423c-b46d-3ab7c7595c1d.jpg"
        string_val: "./imgdownload/C/UCCZKD_665949a1-2a67-47b7-83de-c32d9e200907.jpg"
        string_val: "./imgdownload/C/C8V3ZD_75306381-f95f-4ae5-bdbb-6321e90b06e7.jpg"
        string_val: "./imgdownload/C/9486NC_263e69e3-3a0b-42b3-9acb-a030ee68a5d9.jpg"
        string_val: "./imgdownload/6/53B6O5_fe4aacbc-3494-44b3-9b76-c36009378f73.jpg"
        string_val: "./imgdownload/6/8H56V7_53f3a77e-b269-40be-a1f6-6d8c479bc932.jpg"
        string_val: "./imgdownload/6/7QH6K4_e0236492-6111-4c2b-b95e-db98d6406eda.jpg"
        string_val: "./imgdownload/6/4B66C5_116e1ff3-5f03-494c-9dba-6f8d383f6398.jpg"
        string_val: "./imgdownload/6/6J5IWH_284fa785-ecec-4672-851a-69ac8b3a8c99.jpg"
        string_val: "./imgdownload/6/P653I4_0758fdae-1761-4593-ac8a-da44fd24cc02.jpg"
        string_val: "./imgdownload/6/II6B37_f52c2edf-55fa-4021-a537-b11214f1a1b9.jpg"
        string_val: "./imgdownload/6/456TI8_0ec498fa-9b92-4ffe-8535-8f4121d65be0.jpg"
        string_val: "./imgdownload/6/N865H9_425b6138-c158-44e4-ae98-d8d240f985a9.jpg"
        string_val: "./imgdownload/6/9U6W3X_42218805-b820-4b99-abf6-7f27249614d8.jpg"
        string_val: "./imgdownload/6/7569KW_221b808a-8002-4478-bd93-356180b3a472.jpg"
        string_val: "./imgdownload/6/6TTJL3_ea83f9b6-438c-4bf9-a644-20b94b101131.jpg"
        string_val: "./imgdownload/6/5645W7_5e914b75-f564-4e26-a8d1-e901ba2e463d.jpg"
        string_val: "./imgdownload/6/8O6L86_d0fe1697-36e6-4db0-931b-1a25658e91c4.jpg"
        string_val: "./imgdownload/6/GWUI6A_bfa7c21c-4156-4764-a521-4904cf94254f.jpg"
        string_val: "./imgdownload/6/4XWL68_56c8ba0e-a068-48a0-b90a-1990382f46b7.jpg"
        string_val: "./imgdownload/6/9486NC_f4933102-fd35-4f7c-8cfd-acf6adabecae.jpg"
        string_val: "./imgdownload/6/49P69J_90bfc720-9d02-468c-b170-12546b1b1e4e.jpg"
        string_val: "./imgdownload/6/Q64JZ8_21f17810-0826-429a-8487-6885ce93a6cd.jpg"
        string_val: "./imgdownload/6/YN7A6A_a66a8e48-665d-4765-8ff9-788c320434c3.jpg"
        string_val: "./imgdownload/6/K9I6Z5_15737106-2638-40f9-aa6f-fcdd953f54a3.jpg"
        string_val: "./imgdownload/6/U8J76V_dc0b8261-d477-4e6a-bea4-11bffcc59c22.jpg"
        string_val: "./imgdownload/6/454366_e05b0ecb-3605-4d2e-a88e-899ed82f8a4e.jpg"
        string_val: "./imgdownload/6/34G567_af9bc153-44b8-4545-bc37-d1062d35bbf6.jpg"
        string_val: "./imgdownload/6/8O6L86_292b6f28-572d-4842-b09d-d380fe2c72d7.jpg"
        string_val: "./imgdownload/6/L7NN6R_affbc6bc-d47f-4a62-bb39-dd77dc9882c6.jpg"
        string_val: "./imgdownload/6/396X8L_9ee1168e-9f0b-4f37-a107-7db721de858e.jpg"
        string_val: "./imgdownload/6/43U689_2074c7ad-caa7-43d1-a4cc-caa09d382c82.jpg"
        string_val: "./imgdownload/6/454366_5a23701d-8685-461b-a620-59ecc1276eb0.jpg"
        string_val: "./imgdownload/6/4B66C5_fa1acffd-c70c-4cac-8a47-a80333b33dd5.jpg"
        string_val: "./imgdownload/K/84S8KG_e3ce77fb-edc7-46e9-bb5d-deeb114410b9.jpg"
        string_val: "./imgdownload/K/7QH6K4_e5d20360-37d7-4053-92c0-d860ea933695.jpg"
        string_val: "./imgdownload/K/7569KW_30caf471-0c6b-42fd-94a4-9bcc5cf6203b.jpg"
        string_val: "./imgdownload/K/G4ZK93_8df1efe9-2ca0-4a43-bc72-5a06f9280a92.jpg"
        string_val: "./imgdownload/K/KICRBJ_4698a1b8-4afc-435c-a516-008b7e3a6fa7.jpg"
        string_val: "./imgdownload/K/4K4854_f6ac7f3f-79e7-42b1-98ee-89c29c9f1587.jpg"
        string_val: "./imgdownload/K/UCCZKD_01c76a8e-8a1e-40c9-8993-1492a4fef544.jpg"
        string_val: "./imgdownload/K/K9I6Z5_6cad20b0-1ea0-43b5-a684-1633bd37f2af.jpg"
        string_val: "./imgdownload/K/9UH99K_603388c1-6ba7-43ed-81ea-24fa11dc4421.jpg"
        string_val: "./imgdownload/F/QTPCF4_f9d07ddc-2c90-4106-b4c9-9c5cfa052a81.jpg"
        string_val: "./imgdownload/F/P9F554_3986f179-9ece-49bb-9952-05af7300cb5f.jpg"
        string_val: "./imgdownload/F/YZMVSF_3d8c4a7b-8970-4720-b1dc-f29d4d700379.jpg"
        string_val: "./imgdownload/F/X8BF79_3a8f4e16-28a8-4a85-973b-5188e8e34e6e.jpg"
        string_val: "./imgdownload/F/ZA9RSF_5b8c6db8-54a6-4ecf-8726-01125f0e48da.jpg"
        string_val: "./imgdownload/F/SFY558_2644d274-3e21-49b9-b81d-2edcabb52182.jpg"
        string_val: "./imgdownload/F/BFJI77_4c6510b4-3a6e-42e7-8484-0622570474c4.jpg"
        string_val: "./imgdownload/F/LF4R39_41ecee1e-57f5-464b-a6a5-12832e6acbc4.jpg"
        string_val: "./imgdownload/F/78F7CD_55b0db5c-ff27-42d2-b01b-b4ef21a9a568.jpg"
        string_val: "./imgdownload/F/5DZ8LF_848b2464-c0fd-48db-aa74-52eb44978c00.jpg"
        string_val: "./imgdownload/3/937D8N_629f3abd-d899-4b71-9324-d3448d3e2eec.jpg"
        string_val: "./imgdownload/3/43U689_6308682d-99ce-48de-a5e0-2ffdc50a6079.jpg"
        string_val: "./imgdownload/3/G4ZK93_e54d433e-8d8a-4cac-980a-dbb818027e65.jpg"
        string_val: "./imgdownload/3/4J3RBA_801f9600-2d1c-4c3f-8596-4c7bde2e9189.jpg"
        string_val: "./imgdownload/3/LF4R39_37642ab2-f3b1-46e3-9da3-e640f232e494.jpg"
        string_val: "./imgdownload/3/75T7H3_0fef8792-6084-487e-b04f-c7d27ebe4ecc.jpg"
        string_val: "./imgdownload/3/9U6W3X_4f55813a-6a0e-47c2-9f50-679bb95abe62.jpg"
        string_val: "./imgdownload/3/454366_a27f5916-7926-464f-86f8-361c16e4cd28.jpg"
        string_val: "./imgdownload/3/I73OYO_cd456ab6-6a81-4174-9483-0d76a116c280.jpg"
        string_val: "./imgdownload/3/387445_d6988ae2-ed39-4d63-8c5f-413b08cd2e8c.jpg"
        string_val: "./imgdownload/3/ZZ5R43_ff1a1e10-60c4-4bec-9bf4-dd1e78718fc1.jpg"
        string_val: "./imgdownload/3/34G567_8c56113e-98e6-4c95-b6b0-8a020ef4adef.jpg"
        string_val: "./imgdownload/3/XIRJ39_5281c774-4026-4396-bcb3-7847541a914e.jpg"
        string_val: "./imgdownload/3/6TTJL3_8ed037a2-d4e4-4220-97d2-25773519412b.jpg"
        string_val: "./imgdownload/3/DXV7O3_c0d8eed6-b56a-42c8-8f4f-8bf203d213bb.jpg"
        string_val: "./imgdownload/3/Y78N53_117ee868-6da4-4ef9-ac8b-d2e93594fa8b.jpg"
        string_val: "./imgdownload/3/O5H4B3_693b82da-c35c-4310-8138-bfa3b3b6c3f2.jpg"
        string_val: "./imgdownload/3/J3CNES_64664466-3bdb-4ebf-9c56-fbe59ed55cf4.jpg"
        string_val: "./imgdownload/3/8H7334_60d6b6b6-8174-47ed-96b9-959443e5aa70.jpg"
        string_val: "./imgdownload/3/C8V3ZD_62f16070-ebba-491f-9f41-8481e727f4c7.jpg"
        string_val: "./imgdownload/3/MOM9A3_1ec53727-abe4-4013-bf3d-33c18af89f5b.jpg"
        string_val: "./imgdownload/3/8H7334_ed29667d-3b8e-4f4e-8de9-fbe0e7d25bb8.jpg"
        string_val: "./imgdownload/3/53B6O5_0ac8b955-cda9-487e-9727-63562bee7eee.jpg"
        string_val: "./imgdownload/3/II6B37_9198581b-a680-4b0a-a285-a2ab98d53f30.jpg"
        string_val: "./imgdownload/3/P653I4_3a93f295-fe6b-41cf-96bf-4d474e135294.jpg"
        string_val: "./imgdownload/3/3V7W5Y_7272741f-3a8e-4aac-8fc6-c97fe58ffce3.jpg"
        string_val: "./imgdownload/3/396X8L_98cb6788-842b-4584-81a0-08d6aa65ad30.jpg"
        string_val: "./imgdownload/3/83UA38_ed728f95-b4c5-4ab5-b663-3bc7c50fefcc.jpg"
        string_val: "./imgdownload/3/34GGO5_64a7b083-6b08-4fee-b7cd-19b990d7c814.jpg"
        string_val: "./imgdownload/3/9W4H73_544f6e1a-fa53-49bb-9d31-ceff72513ade.jpg"
        string_val: "./imgdownload/3/3QZB7O_7b76fa8a-79e8-4351-9994-8c6624dd2052.jpg"
        string_val: "./imgdownload/3/83UA38_74620660-dc54-438a-a3d9-93f3e9e0f988.jpg"
        string_val: "./imgdownload/W/4XWL68_0a59ec8c-2d76-4eba-a41c-1719ec391fe4.jpg"
        string_val: "./imgdownload/W/5645W7_e9cff1f1-73e0-4041-be94-17195502e076.jpg"
        string_val: "./imgdownload/W/GWUI6A_79f4c8c3-36c5-4240-a6f2-31e42194442a.jpg"
        string_val: "./imgdownload/W/7569KW_03a88741-2048-4ddd-98cc-e955218e10e3.jpg"
        string_val: "./imgdownload/W/3V7W5Y_350fc9ca-6378-4c12-9b26-4c439a7fa41a.jpg"
        string_val: "./imgdownload/W/6J5IWH_cecb0d69-9466-463f-ae17-c72ace0c8c5b.jpg"
        string_val: "./imgdownload/W/Y9R7W7_cb55f11b-fe26-49d5-afc3-65c600983c66.jpg"
        string_val: "./imgdownload/W/998DQW_02ea8385-9b8f-4ea0-a74e-2a750081c95f.jpg"
        string_val: "./imgdownload/W/9W4H73_2567c6a7-91ff-4ac6-9440-de17967f8304.jpg"
        string_val: "./imgdownload/W/9U6W3X_68293eb6-488a-4fd3-b917-9de7be4877ad.jpg"
        string_val: "./imgdownload/W/M8HW8S_72644cbc-30bc-4ea8-b220-370016e402f8.jpg"
        string_val: "./imgdownload/W/MW95OP_05b48d97-2299-4f31-a20e-9b94dbc465e8.jpg"
        string_val: "./imgdownload/E/EU5LJT_b7558435-55e2-48df-ae49-444b60607435.jpg"
        string_val: "./imgdownload/E/EEM7Q4_574a4cf8-7a2d-4bfc-8a8c-f2a060bfaeab.jpg"
        string_val: "./imgdownload/E/EEM7Q4_b808f59f-4d12-4f62-848f-891334e1238e.jpg"
        string_val: "./imgdownload/E/8E974H_34c980c3-3d9e-4c1c-ad8b-482b5aa9c247.jpg"
        string_val: "./imgdownload/E/J3CNES_f0f362ad-2357-4750-b742-7022da2bb827.jpg"
        string_val: "./imgdownload/E/BQE5OI_8ae1e6b8-3132-451b-904a-88ffa44e544c.jpg"
        string_val: "./imgdownload/E/EBJA74_b79e7166-3f17-45fc-8f50-d212e81f606a.jpg"
        string_val: "./imgdownload/E/7ZD5EM_0647ff7e-a2db-482d-b452-c3aec99895e3.jpg"
        string_val: "./imgdownload/X/X8BF79_1db1a246-ef17-494c-a931-9158b7080765.jpg"
        string_val: "./imgdownload/X/5XCXHO_61c91f9f-9139-4941-8f8b-3b774d31c67b.jpg"
        string_val: "./imgdownload/X/99XTP9_4403fb40-beb0-49be-a852-95f059ceef60.jpg"
        string_val: "./imgdownload/X/DXV7O3_474d2a0c-84b7-4503-a484-8651412a9bbc.jpg"
        string_val: "./imgdownload/X/4XWL68_74e45b1b-c3f6-41cc-951f-558800682c6c.jpg"
        string_val: "./imgdownload/X/396X8L_c2b24433-43fa-4324-b5af-3ee4a067c016.jpg"
        string_val: "./imgdownload/X/ULXI9N_0971f7ab-bbfc-4e8c-bd59-11afe7603342.jpg"
        string_val: "./imgdownload/X/9U6W3X_030c620c-9eff-4562-9ebb-962f7a319768.jpg"
        string_val: "./imgdownload/X/5XCXHO_e9914af5-ed54-4033-b7d8-76f7cd92f6be.jpg"
        string_val: "./imgdownload/X/XIRJ39_78546a77-bf15-46f9-b532-074b7f94284e.jpg"
        string_val: "./imgdownload/Z/ZZ5R43_338d730d-602d-4712-83b1-f226dd8b7098.jpg"
        string_val: "./imgdownload/Z/3QZB7O_a36b76a6-9533-49fb-bed4-73fcd61418f5.jpg"
        string_val: "./imgdownload/Z/HVUCZ8_29c19ae5-54ae-4d7a-bdbd-5a9c9fed589c.jpg"
        string_val: "./imgdownload/Z/5ZDCZV_21d990ad-0e67-4002-bf5a-9b0a3e58edb3.jpg"
        string_val: "./imgdownload/Z/ZA9RSF_5438facf-dc7a-4006-809f-648f342fa721.jpg"
        string_val: "./imgdownload/Z/Q64JZ8_4d6c296b-2146-4812-a38c-228ca10e0c40.jpg"
        string_val: "./imgdownload/Z/YZMVSF_e2525e76-2eb7-441a-bc30-6cbe80feeec3.jpg"
        string_val: "./imgdownload/Z/9795Z5_c08115fe-740d-4585-9f28-cff06a185c9e.jpg"
        string_val: "./imgdownload/Z/UCCZKD_60525838-53ce-4015-a6a2-ff989fecbc0c.jpg"
        string_val: "./imgdownload/Z/7UOQ7Z_31ca8839-662c-478e-a046-e672c2c74666.jpg"
        string_val: "./imgdownload/Z/7ZD5EM_1d6ff2ba-e3b2-4bc8-b540-2454daa441f9.jpg"
        string_val: "./imgdownload/Z/G4ZK93_2f8f9bb7-4429-476b-9be5-1ab848333dba.jpg"
        string_val: "./imgdownload/Z/5DZ8LF_795bab5f-e595-4a36-9ce3-c6a738e92f1d.jpg"
        string_val: "./imgdownload/Z/ZZ5R43_d78a2350-8dff-46bc-aaf0-56a22533fd10.jpg"
        string_val: "./imgdownload/Z/C8V3ZD_64095075-1136-4dab-b4a0-d9592a320c14.jpg"
        string_val: "./imgdownload/Z/K9I6Z5_d1732468-1ce4-4373-be9e-c628c4fa42c2.jpg"
        string_val: "./imgdownload/Z/5ZDCZV_822959a3-20e3-4c5f-82e8-abf5c96465e8.jpg"
        string_val: "./imgdownload/T/6TTJL3_714878d1-7f3f-4345-98a9-90661324bd6c.jpg"
        string_val: "./imgdownload/T/QTPCF4_7c34ba21-880a-492c-aaba-ef8eb870202c.jpg"
        string_val: "./imgdownload/T/TDLCOL_f982e302-a0f6-45b5-a802-545bb911ad5a.jpg"
        string_val: "./imgdownload/T/7U7YT7_558cb40c-2a83-48c5-991f-2e6f5fb29126.jpg"
        string_val: "./imgdownload/T/456TI8_6b9e4626-9aae-410b-9a5f-d9abaa0e16f1.jpg"
        string_val: "./imgdownload/T/75T7H3_2e040e4e-d39d-43b7-9a9c-d0e366bf3819.jpg"
        string_val: "./imgdownload/T/99XTP9_0e7962b0-daf9-4630-8a62-7c8653cb457c.jpg"
        string_val: "./imgdownload/T/T94574_f8941c1b-aa22-4eb3-a40a-f5f8f3db5c94.jpg"
        string_val: "./imgdownload/T/EU5LJT_9e49319f-d8b3-427d-a473-55a03f91741e.jpg"
        string_val: "./imgdownload/T/6TTJL3_991614b5-aa98-40d0-b4d7-f52d7c3e5c21.jpg"
        string_val: "./imgdownload/G/GWUI6A_4554a1e7-eb2e-406e-a9ba-2323615a8d16.jpg"
        string_val: "./imgdownload/G/G4ZK93_50a9686a-8312-4d28-a0b8-c0c61ab30041.jpg"
        string_val: "./imgdownload/G/84S8KG_1e9ef059-c13b-4dc1-8647-b67c0d34cd96.jpg"
        string_val: "./imgdownload/G/34GGO5_09661c20-c37e-464b-8bf7-91228f0c623b.jpg"
        string_val: "./imgdownload/G/34GGO5_ca5096d1-5b1f-4b84-a42a-c4636a31566f.jpg"
        string_val: "./imgdownload/G/34G567_50a47747-cb06-47ce-8801-c30553d1b819.jpg"
        string_val: "./imgdownload/G/S947GC_fe9b4668-5982-4191-9533-2d48a96653a7.jpg"
        string_val: "./imgdownload/A/8HUA58_2521418c-70f1-488e-a1a9-8648df224514.jpg"
        string_val: "./imgdownload/A/YN7A6A_dc946fdb-7ee8-44d7-b148-7d214c78807b.jpg"
        string_val: "./imgdownload/A/YN7A6A_8ea05731-6f9d-430c-b07e-99484823e083.jpg"
        string_val: "./imgdownload/A/MOM9A3_61d6b227-4ae1-4dc4-baae-d0457b77f245.jpg"
        string_val: "./imgdownload/A/ZA9RSF_df79dbf1-b486-4d2d-a257-978e4ae332c8.jpg"
        string_val: "./imgdownload/A/GWUI6A_fd123153-ac7f-42fb-916d-80530a3dedd3.jpg"
        string_val: "./imgdownload/A/9H8Y8A_b509276d-da3a-41aa-8ba4-fa525f1a6b0a.jpg"
        string_val: "./imgdownload/A/EBJA74_bced530d-cc34-4b55-8692-0ca80dcbea4b.jpg"
        string_val: "./imgdownload/A/83UA38_6fb507b8-1fe8-42c4-a6eb-9abed4e3ce34.jpg"
        string_val: "./imgdownload/A/4J3RBA_79463529-19eb-4d8c-8d14-ce5e3bd4fcf6.jpg"
        string_val: "./imgdownload/A/L5589A_a765995f-242d-4b5c-8cd4-ecc6fcf0fb12.jpg"
        string_val: "./imgdownload/Q/EEM7Q4_7adb4c41-bcaf-4d90-bb6e-03e71a84f603.jpg"
        string_val: "./imgdownload/Q/H7Q458_e33670be-f001-49a5-a0f2-e64ebda62d85.jpg"
        string_val: "./imgdownload/Q/Q64JZ8_03c44850-873c-4ac8-aeea-6b1c9eb71db6.jpg"
        string_val: "./imgdownload/Q/O7Q58B_c6a33abb-73e5-4d64-ad59-e5043df8afc8.jpg"
        string_val: "./imgdownload/Q/BQE5OI_1d52a017-79f5-466a-b343-8222b4595c59.jpg"
        string_val: "./imgdownload/Q/ON5DJQ_37887a5a-82aa-49a3-a10d-d42b4d0f99a5.jpg"
        string_val: "./imgdownload/Q/7UOQ7Z_21e7314b-c57e-4703-a37c-c08629416399.jpg"
        string_val: "./imgdownload/Q/QTPCF4_aadbb0a3-5689-49b1-93e3-bcb42941fced.jpg"
        string_val: "./imgdownload/Q/998DQW_b7af3de6-1393-42f0-8bc0-04504c221ba2.jpg"
        string_val: "./imgdownload/Q/7QH6K4_447a8817-aa2c-47f7-8467-daab424552c6.jpg"
        string_val: "./imgdownload/Q/3QZB7O_d129bb3d-bbb7-495a-8f08-60aea26c1d5a.jpg"
        string_val: "./imgdownload/Q/I78QUS_e63ea80c-1bed-4b2f-a314-b2c7bd66604e.jpg"
        string_val: "./imgdownload/H/5HJ9M4_e83a3cb0-352c-4aa2-855f-965b9aa76ad3.jpg"
        string_val: "./imgdownload/H/M8HW8S_f60b6c81-b8b5-4666-93d6-b32992f16a3b.jpg"
        string_val: "./imgdownload/H/N865H9_1fc3f12b-180a-48dc-865f-f3621fb4277a.jpg"
        string_val: "./imgdownload/H/H7Q458_32489dfe-88ea-4815-8db2-4dfc2048a377.jpg"
        string_val: "./imgdownload/H/9W4H73_a9da4640-f26e-4c49-99b0-3d8247538220.jpg"
        string_val: "./imgdownload/H/HVUCZ8_7da482d0-9d77-4257-92e4-c07531fe1b4c.jpg"
        string_val: "./imgdownload/H/6J5IWH_65936880-409f-42fb-90a0-00ebfacd34d4.jpg"
        string_val: "./imgdownload/H/75T7H3_d111efd5-6d7e-4b45-bbd5-24e73012aa8c.jpg"
        string_val: "./imgdownload/H/9H8Y8A_d82a6fbe-3ec4-4970-ab13-92f64242aac2.jpg"
        string_val: "./imgdownload/H/5XCXHO_ba0b0fa3-3554-46c3-bc9c-60852671336f.jpg"
        string_val: "./imgdownload/H/8H7334_94dafef6-a29e-41c0-b570-313851e95bbc.jpg"
        string_val: "./imgdownload/H/8E974H_4850095c-1495-400c-8706-ca4f934ab1ea.jpg"
        string_val: "./imgdownload/H/O5H4B3_354dfa3b-67a0-4424-9e52-16691d2462fc.jpg"
        string_val: "./imgdownload/H/8HUA58_3d4d082f-f83a-4f22-b919-ecba95802c52.jpg"
        string_val: "./imgdownload/H/8H56V7_e5ffedbf-5dd7-4cc0-b10d-1ac1e7625abb.jpg"
        string_val: "./imgdownload/H/7QH6K4_04deec5e-bea3-4265-b645-cb2c8aa5c308.jpg"
        string_val: "./imgdownload/H/9UH99K_fdace834-4d2d-48db-bb3d-0329901dbaf0.jpg"
        string_val: "./imgdownload/P/99XTP9_ffd49ec9-a158-4d78-b4cb-24d939038ff6.jpg"
        string_val: "./imgdownload/P/49P69J_c64d39b6-405e-4e62-a01e-5abb2dfd9004.jpg"
        string_val: "./imgdownload/P/P9F554_369ea5b6-a808-419d-86d0-d85b6a545efb.jpg"
        string_val: "./imgdownload/P/QTPCF4_e71c9b10-ef12-4b54-890c-f6f48d027710.jpg"
        string_val: "./imgdownload/P/9RSS8P_156f4e09-e0cd-45a0-aa26-662a807aec79.jpg"
        string_val: "./imgdownload/P/P653I4_a67cc7bc-ba11-482c-9c06-d95155b217a6.jpg"
        string_val: "./imgdownload/P/MW95OP_74b07b23-a0ec-4cd0-97c2-5fbdd79871af.jpg"
        string_val: "./imgdownload/R/9RSS8P_afa75adb-9c71-4e2a-b948-014dda23e5ca.jpg"
        string_val: "./imgdownload/R/XIRJ39_b589a81b-86db-4f77-bf27-61ab9cef8a11.jpg"
        string_val: "./imgdownload/R/RB9Y7V_782177f1-599a-441b-aeea-5a9274692feb.jpg"
        string_val: "./imgdownload/R/LF4R39_cd607219-2e0f-4753-a1bf-1684ddc2a62f.jpg"
        string_val: "./imgdownload/R/4J3RBA_64380519-d2d3-4062-bfb1-042fd773746d.jpg"
        string_val: "./imgdownload/R/Y9R7W7_80e409fc-70b3-48eb-b6d4-dc6130b9e59b.jpg"
        string_val: "./imgdownload/R/KICRBJ_c4e4ac0d-93ec-41ff-b5d9-ae1ee74f222c.jpg"
        string_val: "./imgdownload/R/ZZ5R43_6232c5fb-b950-4890-abc0-0a4afba4d69f.jpg"
        string_val: "./imgdownload/R/ZA9RSF_ebef7934-66bf-417f-98b9-a8e8919771ac.jpg"
        string_val: "./imgdownload/R/L7NN6R_9d7eaa2b-0d50-432d-b41e-7a2de13d4325.jpg"
        string_val: "./imgdownload/4/ZZ5R43_31686ae5-1284-4998-9131-d895002d3c43.jpg"
        string_val: "./imgdownload/4/G4ZK93_e46e7b90-57ba-45bc-92c8-34dd1983b09a.jpg"
        string_val: "./imgdownload/4/4K4854_01c02709-6eea-4147-a60d-3bfc1900b939.jpg"
        string_val: "./imgdownload/4/34GGO5_bd8d886d-33f9-434f-80d4-92488afdd7a6.jpg"
        string_val: "./imgdownload/4/454366_98139cdd-0a08-48a4-8e54-2c42b7187af8.jpg"
        string_val: "./imgdownload/4/P9F554_ff33fe06-fc7e-4d1a-a3e3-1b8c2a8aeebd.jpg"
        string_val: "./imgdownload/4/8H7334_3a3835bb-f3a9-4103-bd3f-57e3e56bacb4.jpg"
        string_val: "./imgdownload/4/454366_340fce61-418b-4217-8e9e-a8edcd51d7ff.jpg"
        string_val: "./imgdownload/4/4XWL68_0715fa60-917f-4f53-8789-285104018dad.jpg"
        string_val: "./imgdownload/4/34G567_824992dd-90af-470d-be22-0eefe1f80a47.jpg"
        string_val: "./imgdownload/4/4K4854_35c4dbf4-5086-4553-94e3-e9c54b0f4244.jpg"
        string_val: "./imgdownload/4/4B66C5_e5cd8fa1-2bdd-49e9-a01e-4b458d069ca4.jpg"
        string_val: "./imgdownload/4/T94574_2730e2cd-6088-4bcd-be0f-7e800cca33e1.jpg"
        string_val: "./imgdownload/4/43U689_87b11923-bdcb-4d0c-b5e7-4537a48129c3.jpg"
        string_val: "./imgdownload/4/387445_87ca47f1-c25d-4cce-b025-f572c5fe02fa.jpg"
        string_val: "./imgdownload/4/4J3RBA_67ee96b1-6e1d-4af9-b089-ab95ad1684ad.jpg"
        string_val: "./imgdownload/4/4K4854_71ecd3c1-139c-412e-9e01-cf5b2a755c05.jpg"
        string_val: "./imgdownload/4/454L57_f4b150ad-af4a-400b-abc2-731ef0041e25.jpg"
        string_val: "./imgdownload/4/Q64JZ8_b9569d3a-b45e-4a4e-be60-54df9a9fd455.jpg"
        string_val: "./imgdownload/4/456TI8_c0b392d8-7392-41b8-82dc-a867e116278b.jpg"
        string_val: "./imgdownload/4/P653I4_7d0b874b-0946-47b4-810a-7a4973760087.jpg"
        string_val: "./imgdownload/4/5HJ9M4_ddffff2e-c82b-4c91-965f-915718cc8110.jpg"
        string_val: "./imgdownload/4/QTPCF4_a7a00670-a238-4c59-8ee9-9d9d1f6db58b.jpg"
        string_val: "./imgdownload/4/49P69J_2a101ec8-53d2-4807-a4b9-f657ee3464a2.jpg"
        string_val: "./imgdownload/4/EBJA74_0635d285-308c-49fd-8f15-67944dc2d8c6.jpg"
        string_val: "./imgdownload/4/LF4R39_25663287-c39b-4c4d-9763-415cf5e2b4fa.jpg"
        string_val: "./imgdownload/4/H7Q458_fcc9e051-1199-485c-8d93-74e9d277601b.jpg"
        string_val: "./imgdownload/4/8E974H_aad73958-deec-4c8a-98a7-c1b0cf41fd70.jpg"
        string_val: "./imgdownload/4/S947GC_da5e33ad-e974-4dc0-8b94-1a8f0cfd7dba.jpg"
        string_val: "./imgdownload/4/5645W7_7994e91d-2bc2-4137-9420-dceb8f0e44bb.jpg"
        string_val: "./imgdownload/4/84S8KG_a32944fd-5511-4713-ad4d-42307f8ba2df.jpg"
        string_val: "./imgdownload/4/O5H4B3_315ef957-c3c7-4a06-970b-9b7c53b73876.jpg"
        string_val: "./imgdownload/4/EEM7Q4_7fb81a12-95f8-4b1e-b14b-de61e3a10cb0.jpg"
        string_val: "./imgdownload/4/9W4H73_79bf2ae2-495b-428c-8bff-33910a377e19.jpg"
        string_val: "./imgdownload/4/7QH6K4_8d35590a-595a-4a7a-b525-2ddeb377f646.jpg"
        string_val: "./imgdownload/4/T94574_19faf4c3-8b0d-4e3d-9a58-cf66e68a1678.jpg"
        string_val: "./imgdownload/4/9486NC_cec07571-5e7d-46f1-8491-5eb2cad4112f.jpg"
        string_val: "./imgdownload/4/387445_560e0092-5d4a-4eed-8a06-cf9f3000a32b.jpg"
        string_val: "./imgdownload/4/454L57_9105e14b-1366-4740-b659-80dbaf7778e7.jpg"
        string_val: "./imgdownload/J/U8J76V_6cdce1cf-a158-40a6-b31e-02439dc5f35f.jpg"
        string_val: "./imgdownload/J/EU5LJT_c3f71d8f-9ea9-4073-98a0-efb873b325c8.jpg"
        string_val: "./imgdownload/J/XIRJ39_af42d3a0-e6e1-4fab-a55d-6fdd2688546b.jpg"
        string_val: "./imgdownload/J/6J5IWH_28ef00ca-4b43-4c17-b680-5ab1061b5c02.jpg"
        string_val: "./imgdownload/J/ON5DJQ_6632c039-e98a-47d2-8296-7950e19c7ffe.jpg"
        string_val: "./imgdownload/J/Q64JZ8_3c745209-09f2-434b-ba36-9ccf325df15a.jpg"
        string_val: "./imgdownload/J/KICRBJ_19819a93-916a-45b1-ae37-881f22a4d228.jpg"
        string_val: "./imgdownload/J/49P69J_08890ce6-5289-4bde-904d-7f663d461f75.jpg"
        string_val: "./imgdownload/J/BFJI77_2353cd2a-03fb-4656-9a6d-c922b6b70940.jpg"
        string_val: "./imgdownload/J/6TTJL3_4c4be943-2a65-4b43-be40-6fb53c147721.jpg"
        string_val: "./imgdownload/J/EBJA74_e687d44d-2eff-4042-92bc-cedfb09cb79b.jpg"
        string_val: "./imgdownload/J/J3CNES_f6299204-b64c-4b29-ab80-ee8c0740a2a1.jpg"
        string_val: "./imgdownload/J/5HJ9M4_d5cbcfc9-0156-422f-a448-399bf330735e.jpg"
        string_val: "./imgdownload/J/4J3RBA_a1c0dd05-1263-45a7-8545-a5a13d4a6716.jpg"
        string_val: "./imgdownload/M/MOM9A3_e01e72f4-b3b6-4622-bb10-8cfde8f7b6c2.jpg"
        string_val: "./imgdownload/M/7ZD5EM_e35aed27-877b-4208-8666-1eec9caa346f.jpg"
        string_val: "./imgdownload/M/YZMVSF_55d27bf0-1405-49f9-9c12-dbd8a75d1cda.jpg"
        string_val: "./imgdownload/M/MW95OP_f7b34452-f201-41ba-b176-c4e8122606f0.jpg"
        string_val: "./imgdownload/M/V5M5DI_e055f092-c796-492a-8920-27133303b4ea.jpg"
        string_val: "./imgdownload/M/M8HW8S_68025fdd-2350-4e1b-b374-634964466002.jpg"
        string_val: "./imgdownload/M/5HJ9M4_5f4a0f06-8ff4-4579-bf75-3c898946fef0.jpg"
        string_val: "./imgdownload/M/EEM7Q4_adc7aa0c-6ca0-4609-8840-51c1cc1d12b5.jpg"
        string_val: "./imgdownload/M/MOM9A3_c8ccf56b-be47-49db-a8c4-5cfd9a19c7c2.jpg"
        string_val: "./imgdownload/O/MW95OP_face2138-7b36-4ed6-b41e-76e69b8da500.jpg"
        string_val: "./imgdownload/O/O5H4B3_6c86b918-c6b1-40e9-aaac-2baecdae111d.jpg"
        string_val: "./imgdownload/O/I73OYO_e3d89b73-9147-4c96-b889-69dc22334a06.jpg"
        string_val: "./imgdownload/O/7UOQ7Z_75dbf32c-63ed-4788-bd1e-d7af7c728059.jpg"
        string_val: "./imgdownload/O/34GGO5_6ed57c39-c09a-4176-bc3b-43ec23ef1ab9.jpg"
        string_val: "./imgdownload/O/I73OYO_7c4013de-95af-4788-8d99-9723f27c1d68.jpg"
        string_val: "./imgdownload/O/TDLCOL_7be46570-8d44-4d1b-a0af-6b74b4ad3003.jpg"
        string_val: "./imgdownload/O/O7Q58B_78461bc3-8597-4f0f-9896-b21a52a6be40.jpg"
        string_val: "./imgdownload/O/BQE5OI_0606b395-3281-4e85-bfb2-87b600114e92.jpg"
        string_val: "./imgdownload/O/MOM9A3_11586a2c-b2b7-4d96-92e6-a0cf358c509d.jpg"
        string_val: "./imgdownload/O/IO58NY_c36a10fd-90d0-4e45-97cd-ce0476cdc5cc.jpg"
        string_val: "./imgdownload/O/DXV7O3_80d78b6b-6c92-4552-b6d2-3a33ca6e002f.jpg"
        string_val: "./imgdownload/O/ON5DJQ_c5473d89-462e-4e8e-a1c4-456293811cfe.jpg"
        string_val: "./imgdownload/O/53B6O5_1eb0d52e-8e10-4bb7-85e3-47ba8c499a12.jpg"
        string_val: "./imgdownload/O/7BSIO9_1b3f3c85-8820-41c4-b4c6-1cb5707f5856.jpg"
        string_val: "./imgdownload/O/8O6L86_646bfe42-8298-49d1-a3b0-d4ca11e6363c.jpg"
        string_val: "./imgdownload/O/3QZB7O_bb341651-275a-4a1f-8a8f-1232e3c70be9.jpg"
        string_val: "./imgdownload/O/5XCXHO_e6364d32-d5c3-45ec-9347-efeaaa6af3bf.jpg"
        string_val: "./imgdownload/5/34G567_769807fe-52eb-47a4-b5c8-556c93bafbaa.jpg"
        string_val: "./imgdownload/5/5645W7_b185083e-abd0-4fb9-836f-90f26907002f.jpg"
        string_val: "./imgdownload/5/5XCXHO_ad1a657a-4a24-4109-8fbe-13fec40c14f7.jpg"
        string_val: "./imgdownload/5/8H56V7_0f4b1b2c-f07f-46c1-b12a-1a12f981e6c9.jpg"
        string_val: "./imgdownload/5/53B6O5_9d010f44-3f57-4978-bfd1-486ff969a49c.jpg"
        string_val: "./imgdownload/5/IO58NY_303da53c-d70c-4820-84fe-cc0470490e84.jpg"
        string_val: "./imgdownload/5/T94574_bdc49a6a-e110-4e76-92c7-7ffd634b20df.jpg"
        string_val: "./imgdownload/5/O7Q58B_d8e0937e-4d06-416e-be0e-da8bc186f1ba.jpg"
        string_val: "./imgdownload/5/75T7H3_cf0b019f-606d-4a4b-bc81-84c62e8442c0.jpg"
        string_val: "./imgdownload/5/34GGO5_0459c7d1-9f57-47f7-84d5-5ae5337f7fe5.jpg"
        string_val: "./imgdownload/5/4K4854_8e1939fe-0921-45f7-b033-20256d5caec0.jpg"
        string_val: "./imgdownload/5/O5H4B3_2947d974-a383-4003-ba3d-f0b980758d8f.jpg"
        string_val: "./imgdownload/5/8HUA58_4dff0523-43d1-468b-b87e-59d3eabe4aad.jpg"
        string_val: "./imgdownload/5/5ZDCZV_a5a13d05-5532-4ec5-99cf-af9ff1862f65.jpg"
        string_val: "./imgdownload/5/EU5LJT_0ee76c98-c730-4e19-bcef-de312905f7c4.jpg"
        string_val: "./imgdownload/5/454366_f5fe6ebc-3f68-4404-97db-d6e78ebc0862.jpg"
        string_val: "./imgdownload/5/P653I4_d8bd53a8-2057-465a-b1cc-a94cb860bdda.jpg"
        string_val: "./imgdownload/5/5DZ8LF_289caaa0-1571-4343-b75f-c7f0333a5a75.jpg"
        string_val: "./imgdownload/5/9795Z5_90002878-5317-49fd-bf95-87e2655b7f42.jpg"
        string_val: "./imgdownload/5/L5589A_2adb203e-240b-498b-ac9d-1fb914e57867.jpg"
        string_val: "./imgdownload/5/L5589A_f97c7064-2868-40e3-b743-75293c567d9d.jpg"
        string_val: "./imgdownload/5/D58D5N_4a082d85-9b05-4177-99ff-a7bb6e9c67bc.jpg"
        string_val: "./imgdownload/5/ZZ5R43_dd84b0a1-e2f1-4800-8803-9274301b29f5.jpg"
        string_val: "./imgdownload/5/387445_cd90c75b-b354-4bac-a76d-cbec29731d18.jpg"
        string_val: "./imgdownload/5/Y78N53_aa04b713-217f-4b28-b5bc-10d3cfb9b8aa.jpg"
        string_val: "./imgdownload/5/K9I6Z5_553c00a0-ef08-4c89-bb69-27223c19bb01.jpg"
        string_val: "./imgdownload/5/5HJ9M4_a8e6209c-c9e3-464d-9dbc-32d34483e098.jpg"
        string_val: "./imgdownload/5/MW95OP_dd376898-77cd-45c0-8fa3-d7ab08d32346.jpg"
        string_val: "./imgdownload/5/V5M5DI_7d590389-e370-4473-a889-d7c93f54ab51.jpg"
        string_val: "./imgdownload/5/456TI8_cc4366cd-ca05-4749-8997-9bc362f3e27c.jpg"
        string_val: "./imgdownload/5/3V7W5Y_c1724f92-68ef-42f3-9e71-509ec2235044.jpg"
        string_val: "./imgdownload/5/P9F554_7f007e46-2335-473b-95eb-4eba81bbf437.jpg"
        string_val: "./imgdownload/5/454L57_fab3c742-48c1-4043-bbc4-63a30083d816.jpg"
        string_val: "./imgdownload/5/V5M5DI_6ee003a0-542d-471b-8095-b51913a52e23.jpg"
        string_val: "./imgdownload/5/BQE5OI_34e6a748-ea0f-4a53-ac1f-6296137d8f33.jpg"
        string_val: "./imgdownload/5/ON5DJQ_8472de31-45c0-412b-8d7c-8009505110a7.jpg"
        string_val: "./imgdownload/5/SFY558_44b63555-2523-49a1-88b3-affbed82e68c.jpg"
        string_val: "./imgdownload/5/7569KW_6c22f9d0-8bcc-4391-aceb-9cb832ba0e3d.jpg"
        string_val: "./imgdownload/5/7ZD5EM_aa6ccc70-7bbf-41c6-9ceb-93b42d0b121f.jpg"
        string_val: "./imgdownload/5/6J5IWH_b21b90e3-ad17-48b9-86ff-afa0489edba4.jpg"
        string_val: "./imgdownload/5/5645W7_3d948248-ca5a-4eed-ba29-3de522a9e839.jpg"
        string_val: "./imgdownload/5/454L57_c09a142b-865b-4bdd-a6db-508b7f0c1cf8.jpg"
        string_val: "./imgdownload/5/53B6O5_2585bc8b-a20a-42e2-8d63-63c2bc224bd4.jpg"
        string_val: "./imgdownload/5/7L7858_137b2841-0cc4-4be6-848b-b975c0544d7d.jpg"
        string_val: "./imgdownload/5/D58D5N_a4c269aa-3095-473f-b639-e2321422a802.jpg"
        string_val: "./imgdownload/5/SFY558_9075ba2f-df2b-4080-aa50-9a60ca83010f.jpg"
        string_val: "./imgdownload/5/N865H9_cb7fdb0d-b56a-4edd-8120-29fb59f88625.jpg"
        string_val: "./imgdownload/5/H7Q458_076f48c9-f206-442a-a67d-e9a14f7fb849.jpg"
        string_val: "./imgdownload/5/9795Z5_29b41384-0fe6-4930-889a-83303968ec4a.jpg"
        string_val: "./imgdownload/5/P9F554_9596ab1c-8cff-4cb4-a14f-1688f52f9a9c.jpg"
        string_val: "./imgdownload/5/4B66C5_93b1ac3f-983f-4057-8393-b4b2e4ede23e.jpg"
        string_val: "./imgdownload/D/C8V3ZD_2653cae2-f7f8-41e2-a733-18dfee8f5d1b.jpg"
        string_val: "./imgdownload/D/5ZDCZV_4cdf9a85-d0b3-4545-9af3-38cec4c2d5a4.jpg"
        string_val: "./imgdownload/D/78F7CD_a99a48d6-c5b6-4b42-8293-6ae7dd27367c.jpg"
        string_val: "./imgdownload/D/5DZ8LF_d6087789-47eb-4abe-b547-479365fd679d.jpg"
        string_val: "./imgdownload/D/ON5DJQ_273f592d-0639-4c74-a692-e9d760e0b9f6.jpg"
        string_val: "./imgdownload/D/D58D5N_c375f7d4-00ca-498d-8377-25563b302402.jpg"
        string_val: "./imgdownload/D/7ZD5EM_e8c997fb-8a15-4f3d-9be0-71b0a1e88b17.jpg"
        string_val: "./imgdownload/D/D58D5N_2bdcf292-a2ca-4b37-ae1e-efca86a775b9.jpg"
        string_val: "./imgdownload/D/998DQW_70ec4c50-8f28-4577-b9b2-46d650afee9e.jpg"
        string_val: "./imgdownload/D/V5M5DI_0e838e6c-84c5-44f0-aa2a-800658201254.jpg"
        string_val: "./imgdownload/D/937D8N_9011cea4-7780-477c-ad3e-853e959a256e.jpg"
        string_val: "./imgdownload/D/TDLCOL_5f7c1ab8-adfd-444e-a217-7bede13b5a4e.jpg"
        string_val: "./imgdownload/D/DXV7O3_19ae5fab-5c08-46c8-aa39-7e6c7af229e6.jpg"
        string_val: "./imgdownload/D/UCCZKD_cb1ba1b8-c679-4984-8dae-380f3d69a842.jpg"
        string_val: "./imgdownload/N/9486NC_d13b6932-caf1-4c59-95ad-b9a2747c12e6.jpg"
        string_val: "./imgdownload/N/L7NN6R_4f3d699c-6d5a-4871-8389-710f36ecee0e.jpg"
        string_val: "./imgdownload/N/L7NN6R_a0da024a-e1eb-40ee-893a-9a646b5a4e18.jpg"
        string_val: "./imgdownload/N/ON5DJQ_64f8d0af-298a-4480-8a64-6f71eea91699.jpg"
        string_val: "./imgdownload/N/YN7A6A_b07196ea-9d15-4edb-a643-4aeed69bb47b.jpg"
        string_val: "./imgdownload/N/D58D5N_d431335f-fdf4-4e5b-94e4-96f7d061ac81.jpg"
        string_val: "./imgdownload/N/N865H9_fe28737d-c652-4eea-87c1-5b34cd8ca793.jpg"
        string_val: "./imgdownload/N/ULXI9N_9cdbd9b7-bd63-4173-a8fe-5b1ce2d7c634.jpg"
        string_val: "./imgdownload/N/Y78N53_debf0722-3e4c-41df-93aa-369f4be635fc.jpg"
        string_val: "./imgdownload/N/937D8N_e58b6e74-60a9-4d40-8442-9eedf1f41d88.jpg"
        string_val: "./imgdownload/N/IO58NY_252623ed-bcff-42fc-95cb-5eac6d3dc198.jpg"
        string_val: "./imgdownload/N/J3CNES_0b18661e-ffd7-4f82-bfeb-ead3483d11c9.jpg"
      }
    }
  }
}
node {
  name: "Const_1"
  op: "Const"
  device: "/device:CPU:0"
  attr {
    key: "_output_shapes"
    value {
      list {
        shape {
          dim {
            size: 594
          }
        }
      }
    }
  }
  attr {
    key: "dtype"
    value {
      type: DT_INT32
    }
  }
  attr {
    key: "value"
    value {
      tensor {
        dtype: DT_INT32
        tensor_shape {
          dim {
            size: 594
          }
        }
        tensor_content: "…"
      }
    }
  }
}
node {
  name: "buffer_size"
  op: "Const"
  device: "/device:CPU:0"
  attr {
    key: "_output_shapes"
    value {
      list {
        shape {
        }
      }
    }
  }
  attr {
    key: "dtype"
    value {
      type: DT_INT64
    }
  }
  attr {
    key: "value"
    value {
      tensor {
        dtype: DT_INT64
        tensor_shape {
        }
        int64_val: 10000
      }
    }
  }
}
node {
  name: "seed"
  op: "Const"
  device: "/device:CPU:0"
  attr {
    key: "_output_shapes"
    value {
      list {
        shape {
        }
      }
    }
  }
  attr {
    key: "dtype"
    value {
      type: DT_INT64
    }
  }
  attr {
    key: "value"
    value {
      tensor {
        dtype: DT_INT64
        tensor_shape {
        }
        int64_val: 0
      }
    }
  }
}
node {
  name: "seed2"
  op: "Const"
  device: "/device:CPU:0"
  attr {
    key: "_output_shapes"
    value {
      list {
        shape {
        }
      }
    }
  }
  attr {
    key: "dtype"
    value {
      type: DT_INT64
    }
  }
  attr {
    key: "value"
    value {
      tensor {
        dtype: DT_INT64
        tensor_shape {
        }
        int64_val: 0
      }
    }
  }
}
node {
  name: "batch_size"
  op: "Const"
  device: "/device:CPU:0"
  attr {
    key: "_output_shapes"
    value {
      list {
        shape {
        }
      }
    }
  }
  attr {
    key: "dtype"
    value {
      type: DT_INT64
    }
  }
  attr {
    key: "value"
    value {
      tensor {
        dtype: DT_INT64
        tensor_shape {
        }
        int64_val: 100
      }
    }
  }
}
node {
  name: "drop_remainder"
  op: "Const"
  device: "/device:CPU:0"
  attr {
    key: "_output_shapes"
    value {
      list {
        shape {
        }
      }
    }
  }
  attr {
    key: "dtype"
    value {
      type: DT_BOOL
    }
  }
  attr {
    key: "value"
    value {
      tensor {
        dtype: DT_BOOL
        tensor_shape {
        }
        bool_val: false
      }
    }
  }
}
node {
  name: "count"
  op: "Const"
  device: "/device:CPU:0"
  attr {
    key: "_output_shapes"
    value {
      list {
        shape {
        }
      }
    }
  }
  attr {
    key: "dtype"
    value {
      type: DT_INT64
    }
  }
  attr {
    key: "value"
    value {
      tensor {
        dtype: DT_INT64
        tensor_shape {
        }
        int64_val: 100
      }
    }
  }
}
node {
  name: "OneShotIterator"
  op: "OneShotIterator"
  device: "/device:CPU:0"
  attr {
    key: "_output_shapes"
    value {
      list {
        shape {
        }
      }
    }
  }
  attr {
    key: "container"
    value {
      s: ""
    }
  }
  attr {
    key: "dataset_factory"
    value {
      func {
        name: "_make_dataset_zS6BqcjDNQA"
      }
    }
  }
  attr {
    key: "output_shapes"
    value {
      list {
        shape {
          dim {
            size: -1
          }
          dim {
            size: 28
          }
          dim {
            size: 28
          }
          dim {
            size: -1
          }
        }
        shape {
          dim {
            size: -1
          }
        }
      }
    }
  }
  attr {
    key: "output_types"
    value {
      list {
        type: DT_FLOAT
        type: DT_INT32
      }
    }
  }
  attr {
    key: "shared_name"
    value {
      s: ""
    }
  }
}
node {
  name: "IteratorToStringHandle"
  op: "IteratorToStringHandle"
  input: "OneShotIterator"
  device: "/device:CPU:0"
  attr {
    key: "_output_shapes"
    value {
      list {
        shape {
        }
      }
    }
  }
}
node {
  name: "IteratorGetNext"
  op: "IteratorGetNext"
  input: "OneShotIterator"
  device: "/device:CPU:0"
  attr {
    key: "_output_shapes"
    value {
      list {
        shape {
          dim {
            size: -1
          }
          dim {
            size: 28
          }
          dim {
            size: 28
          }
          dim {
            size: -1
          }
        }
        shape {
          dim {
            size: -1
          }
        }
      }
    }
  }
  attr {
    key: "output_shapes"
    value {
      list {
        shape {
          dim {
            size: -1
          }
          dim {
            size: 28
          }
          dim {
            size: 28
          }
          dim {
            size: -1
          }
        }
        shape {
          dim {
            size: -1
          }
        }
      }
    }
  }
  attr {
    key: "output_types"
    value {
      list {
        type: DT_FLOAT
        type: DT_INT32
      }
    }
  }
}
node {
  name: "Reshape/shape"
  op: "Const"
  attr {
    key: "_output_shapes"
    value {
      list {
        shape {
          dim {
            size: 4
          }
        }
      }
    }
  }
  attr {
    key: "dtype"
    value {
      type: DT_INT32
    }
  }
  attr {
    key: "value"
    value {
      tensor {
        dtype: DT_INT32
        tensor_shape {
          dim {
            size: 4
          }
        }
        tensor_content: "\377\377\377\377\034\000\000\000\034\000\000\000\001\000\000\000"
      }
    }
  }
}
node {
  name: "Reshape"
  op: "Reshape"
  input: "IteratorGetNext"
  input: "Reshape/shape"
  attr {
    key: "T"
    value {
      type: DT_FLOAT
    }
  }
  attr {
    key: "Tshape"
    value {
      type: DT_INT32
    }
  }
  attr {
    key: "_output_shapes"
    value {
      list {
        shape {
          dim {
            size: -1
          }
          dim {
            size: 28
          }
          dim {
            size: 28
          }
          dim {
            size: 1
          }
        }
      }
    }
  }
}
node {
  name: "conv2d/kernel/Initializer/random_uniform/shape"
  op: "Const"
  attr {
    key: "_class"
    value {
      list {
        s: "loc:@conv2d/kernel"
      }
    }
  }
  attr {
    key: "_output_shapes"
    value {
      list {
        shape {
          dim {
            size: 4
          }
        }
      }
    }
  }
  attr {
    key: "dtype"
    value {
      type: DT_INT32
    }
  }
  attr {
    key: "value"
    value {
      tensor {
        dtype: DT_INT32
        tensor_shape {
          dim {
            size: 4
          }
        }
        tensor_content: "\005\000\000\000\005\000\000\000\001\000\000\000 \000\000\000"
      }
    }
  }
}
node {
  name: "conv2d/kernel/Initializer/random_uniform/min"
  op: "Const"
  attr {
    key: "_class"
    value {
      list {
        s: "loc:@conv2d/kernel"
      }
    }
  }
  attr {
    key: "_output_shapes"
    value {
      list {
        shape {
        }
      }
    }
  }
  attr {
    key: "dtype"
    value {
      type: DT_FLOAT
    }
  }
  attr {
    key: "value"
    value {
      tensor {
        dtype: DT_FLOAT
        tensor_shape {
        }
        float_val: -0.0852802842855
      }
    }
  }
}
node {
  name: "conv2d/kernel/Initializer/random_uniform/max"
  op: "Const"
  attr {
    key: "_class"
    value {
      list {
        s: "loc:@conv2d/kernel"
      }
    }
  }
  attr {
    key: "_output_shapes"
    value {
      list {
        shape {
        }
      }
    }
  }
  attr {
    key: "dtype"
    value {
      type: DT_FLOAT
    }
  }
  attr {
    key: "value"
    value {
      tensor {
        dtype: DT_FLOAT
        tensor_shape {
        }
        float_val: 0.0852802842855
      }
    }
  }
}
node {
  name: "conv2d/kernel/Initializer/random_uniform/RandomUniform"
  op: "RandomUniform"
  input: "conv2d/kernel/Initializer/random_uniform/shape"
  attr {
    key: "T"
    value {
      type: DT_INT32
    }
  }
  attr {
    key: "_class"
    value {
      list {
        s: "loc:@conv2d/kernel"
      }
    }
  }
  attr {
    key: "_output_shapes"
    value {
      list {
        shape {
          dim {
            size: 5
          }
          dim {
            size: 5
          }
          dim {
            size: 1
          }
          dim {
            size: 32
          }
        }
      }
    }
  }
  attr {
    key: "dtype"
    value {
      type: DT_FLOAT
    }
  }
  attr {
    key: "seed"
    value {
      i: 0
    }
  }
  attr {
    key: "seed2"
    value {
      i: 0
    }
  }
}
node {
  name: "conv2d/kernel/Initializer/random_uniform/sub"
  op: "Sub"
  input: "conv2d/kernel/Initializer/random_uniform/max"
  input: "conv2d/kernel/Initializer/random_uniform/min"
  attr {
    key: "T"
    value {
      type: DT_FLOAT
    }
  }
  attr {
    key: "_class"
    value {
      list {
        s: "loc:@conv2d/kernel"
      }
    }
  }
  attr {
    key: "_output_shapes"
    value {
      list {
        shape {
        }
      }
    }
  }
}
node {
  name: "conv2d/kernel/Initializer/random_uniform/mul"
  op: "Mul"
  input: "conv2d/kernel/Initializer/random_uniform/RandomUniform"
  input: "conv2d/kernel/Initializer/random_uniform/sub"
  attr {
    key: "T"
    value {
      type: DT_FLOAT
    }
  }
  attr {
    key: "_class"
    value {
      list {
        s: "loc:@conv2d/kernel"
      }
    }
  }
  attr {
    key: "_output_shapes"
    value {
      list {
        shape {
          dim {
            size: 5
          }
          dim {
            size: 5
          }
          dim {
            size: 1
          }
          dim {
            size: 32
          }
        }
      }
    }
  }
}
node {
  name: "conv2d/kernel/Initializer/random_uniform"
  op: "Add"
  input: "conv2d/kernel/Initializer/random_uniform/mul"
  input: "conv2d/kernel/Initializer/random_uniform/min"
  attr {
    key: "T"
    value {
      type: DT_FLOAT
    }
  }
  attr {
    key: "_class"
    value {
      list {
        s: "loc:@conv2d/kernel"
      }
    }
  }
  attr {
    key: "_output_shapes"
    value {
      list {
        shape {
          dim {
            size: 5
          }
          dim {
            size: 5
          }
          dim {
            size: 1
          }
          dim {
            size: 32
          }
        }
      }
    }
  }
}
node {
  name: "conv2d/kernel"
  op: "VariableV2"
  attr {
    key: "_class"
    value {
      list {
        s: "loc:@conv2d/kernel"
      }
    }
  }
  attr {
    key: "_output_shapes"
    value {
      list {
        shape {
          dim {
            size: 5
          }
          dim {
            size: 5
          }
          dim {
            size: 1
          }
          dim {
            size: 32
          }
        }
      }
    }
  }
  attr {
    key: "container"
    value {
      s: ""
    }
  }
  attr {
    key: "dtype"
    value {
      type: DT_FLOAT
    }
  }
  attr {
    key: "shape"
    value {
      shape {
        dim {
          size: 5
        }
        dim {
          size: 5
        }
        dim {
          size: 1
        }
        dim {
          size: 32
        }
      }
    }
  }
  attr {
    key: "shared_name"
    value {
      s: ""
    }
  }
}
node {
  name: "conv2d/kernel/Assign"
  op: "Assign"
  input: "conv2d/kernel"
  input: "conv2d/kernel/Initializer/random_uniform"
  attr {
    key: "T"
    value {
      type: DT_FLOAT
    }
  }
  attr {
    key: "_class"
    value {
      list {
        s: "loc:@conv2d/kernel"
      }
    }
  }
  attr {
    key: "_output_shapes"
    value {
      list {
        shape {
          dim {
            size: 5
          }
          dim {
            size: 5
          }
          dim {
            size: 1
          }
          dim {
            size: 32
          }
        }
      }
    }
  }
  attr {
    key: "use_locking"
    value {
      b: true
    }
  }
  attr {
    key: "validate_shape"
    value {
      b: true
    }
  }
}
node {
  name: "conv2d/kernel/read"
  op: "Identity"
  input: "conv2d/kernel"
  attr {
    key: "T"
    value {
      type: DT_FLOAT
    }
  }
  attr {
    key: "_class"
    value {
      list {
        s: "loc:@conv2d/kernel"
      }
    }
  }
  attr {
    key: "_output_shapes"
    value {
      list {
        shape {
          dim {
            size: 5
          }
          dim {
            size: 5
          }
          dim {
            size: 1
          }
          dim {
            size: 32
          }
        }
      }
    }
  }
}
node {
  name: "conv2d/bias/Initializer/zeros"
  op: "Const"
  attr {
    key: "_class"
    value {
      list {
        s: "loc:@conv2d/bias"
      }
    }
  }
  attr {
    key: "_output_shapes"
    value {
      list {
        shape {
          dim {
            size: 32
          }
        }
      }
    }
  }
  attr {
    key: "dtype"
    value {
      type: DT_FLOAT
    }
  }
  attr {
    key: "value"
    value {
      tensor {
        dtype: DT_FLOAT
        tensor_shape {
          dim {
            size: 32
          }
        }
        float_val: 0.0
      }
    }
  }
}
node {
  name: "conv2d/bias"
  op: "VariableV2"
  attr {
    key: "_class"
    value {
      list {
        s: "loc:@conv2d/bias"
      }
    }
  }
  attr {
    key: "_output_shapes"
    value {
      list {
        shape {
          dim {
            size: 32
          }
        }
      }
    }
  }
  attr {
    key: "container"
    value {
      s: ""
    }
  }
  attr {
    key: "dtype"
    value {
      type: DT_FLOAT
    }
  }
  attr {
    key: "shape"
    value {
      shape {
        dim {
          size: 32
        }
      }
    }
  }
  attr {
    key: "shared_name"
    value {
      s: ""
    }
  }
}
node {
  name: "conv2d/bias/Assign"
  op: "Assign"
  input: "conv2d/bias"
  input: "conv2d/bias/Initializer/zeros"
  attr {
    key: "T"
    value {
      type: DT_FLOAT
    }
  }
  attr {
    key: "_class"
    value {
      list {
        s: "loc:@conv2d/bias"
      }
    }
  }
  attr {
    key: "_output_shapes"
    value {
      list {
        shape {
          dim {
            size: 32
          }
        }
      }
    }
  }
  attr {
    key: "use_locking"
    value {
      b: true
    }
  }
  attr {
    key: "validate_shape"
    value {
      b: true
    }
  }
}
node {
  name: "conv2d/bias/read"
  op: "Identity"
  input: "conv2d/bias"
  attr {
    key: "T"
    value {
      type: DT_FLOAT
    }
  }
  attr {
    key: "_class"
    value {
      list {
        s: "loc:@conv2d/bias"
      }
    }
  }
  attr {
    key: "_output_shapes"
    value {
      list {
        shape {
          dim {
            size: 32
          }
        }
      }
    }
  }
}
node {
  name: "conv2d/dilation_rate"
  op: "Const"
  attr {
    key: "_output_shapes"
    value {
      list {
        shape {
          dim {
            size: 2
          }
        }
      }
    }
  }
  attr {
    key: "dtype"
    value {
      type: DT_INT32
    }
  }
  attr {
    key: "value"
    value {
      tensor {
        dtype: DT_INT32
        tensor_shape {
          dim {
            size: 2
          }
        }
        tensor_content: "\001\000\000\000\001\000\000\000"
      }
    }
  }
}
node {
  name: "conv2d/Conv2D"
  op: "Conv2D"
  input: "Reshape"
  input: "conv2d/kernel/read"
  attr {
    key: "T"
    value {
      type: DT_FLOAT
    }
  }
  attr {
    key: "_output_shapes"
    value {
      list {
        shape {
          dim {
            size: -1
          }
          dim {
            size: 28
          }
          dim {
            size: 28
          }
          dim {
            size: 32
          }
        }
      }
    }
  }
  attr {
    key: "data_format"
    value {
      s: "NHWC"
    }
  }
  attr {
    key: "dilations"
    value {
      list {
        i: 1
        i: 1
        i: 1
        i: 1
      }
    }
  }
  attr {
    key: "padding"
    value {
      s: "SAME"
    }
  }
  attr {
    key: "strides"
    value {
      list {
        i: 1
        i: 1
        i: 1
        i: 1
      }
    }
  }
  attr {
    key: "use_cudnn_on_gpu"
    value {
      b: true
    }
  }
}
node {
  name: "conv2d/BiasAdd"
  op: "BiasAdd"
  input: "conv2d/Conv2D"
  input: "conv2d/bias/read"
  attr {
    key: "T"
    value {
      type: DT_FLOAT
    }
  }
  attr {
    key: "_output_shapes"
    value {
      list {
        shape {
          dim {
            size: -1
          }
          dim {
            size: 28
          }
          dim {
            size: 28
          }
          dim {
            size: 32
          }
        }
      }
    }
  }
  attr {
    key: "data_format"
    value {
      s: "NHWC"
    }
  }
}
node {
  name: "conv2d/Relu"
  op: "Relu"
  input: "conv2d/BiasAdd"
  attr {
    key: "T"
    value {
      type: DT_FLOAT
    }
  }
  attr {
    key: "_output_shapes"
    value {
      list {
        shape {
          dim {
            size: -1
          }
          dim {
            size: 28
          }
          dim {
            size: 28
          }
          dim {
            size: 32
          }
        }
      }
    }
  }
}
node {
  name: "max_pooling2d/MaxPool"
  op: "MaxPool"
  input: "conv2d/Relu"
  attr {
    key: "T"
    value {
      type: DT_FLOAT
    }
  }
  attr {
    key: "_output_shapes"
    value {
      list {
        shape {
          dim {
            size: -1
          }
          dim {
            size: 14
          }
          dim {
            size: 14
          }
          dim {
            size: 32
          }
        }
      }
    }
  }
  attr {
    key: "data_format"
    value {
      s: "NHWC"
    }
  }
  attr {
    key: "ksize"
    value {
      list {
        i: 1
        i: 2
        i: 2
        i: 1
      }
    }
  }
  attr {
    key: "padding"
    value {
      s: "VALID"
    }
  }
  attr {
    key: "strides"
    value {
      list {
        i: 1
        i: 2
        i: 2
        i: 1
      }
    }
  }
}
node {
  name: "conv2d_1/kernel/Initializer/random_uniform/shape"
  op: "Const"
  attr {
    key: "_class"
    value {
      list {
        s: "loc:@conv2d_1/kernel"
      }
    }
  }
  attr {
    key: "_output_shapes"
    value {
      list {
        shape {
          dim {
            size: 4
          }
        }
      }
    }
  }
  attr {
    key: "dtype"
    value {
      type: DT_INT32
    }
  }
  attr {
    key: "value"
    value {
      tensor {
        dtype: DT_INT32
        tensor_shape {
          dim {
            size: 4
          }
        }
        tensor_content: "\005\000\000\000\005\000\000\000 \000\000\000@\000\000\000"
      }
    }
  }
}
node {
  name: "conv2d_1/kernel/Initializer/random_uniform/min"
  op: "Const"
  attr {
    key: "_class"
    value {
      list {
        s: "loc:@conv2d_1/kernel"
      }
    }
  }
  attr {
    key: "_output_shapes"
    value {
      list {
        shape {
        }
      }
    }
  }
  attr {
    key: "dtype"
    value {
      type: DT_FLOAT
    }
  }
  attr {
    key: "value"
    value {
      tensor {
        dtype: DT_FLOAT
        tensor_shape {
        }
        float_val: -0.0500000007451
      }
    }
  }
}
node {
  name: "conv2d_1/kernel/Initializer/random_uniform/max"
  op: "Const"
  attr {
    key: "_class"
    value {
      list {
        s: "loc:@conv2d_1/kernel"
      }
    }
  }
  attr {
    key: "_output_shapes"
    value {
      list {
        shape {
        }
      }
    }
  }
  attr {
    key: "dtype"
    value {
      type: DT_FLOAT
    }
  }
  attr {
    key: "value"
    value {
      tensor {
        dtype: DT_FLOAT
        tensor_shape {
        }
        float_val: 0.0500000007451
      }
    }
  }
}
node {
  name: "conv2d_1/kernel/Initializer/random_uniform/RandomUniform"
  op: "RandomUniform"
  input: "conv2d_1/kernel/Initializer/random_uniform/shape"
  attr {
    key: "T"
    value {
      type: DT_INT32
    }
  }
  attr {
    key: "_class"
    value {
      list {
        s: "loc:@conv2d_1/kernel"
      }
    }
  }
  attr {
    key: "_output_shapes"
    value {
      list {
        shape {
          dim {
            size: 5
          }
          dim {
            size: 5
          }
          dim {
            size: 32
          }
          dim {
            size: 64
          }
        }
      }
    }
  }
  attr {
    key: "dtype"
    value {
      type: DT_FLOAT
    }
  }
  attr {
    key: "seed"
    value {
      i: 0
    }
  }
  attr {
    key: "seed2"
    value {
      i: 0
    }
  }
}
node {
  name: "conv2d_1/kernel/Initializer/random_uniform/sub"
  op: "Sub"
  input: "conv2d_1/kernel/Initializer/random_uniform/max"
  input: "conv2d_1/kernel/Initializer/random_uniform/min"
  attr {
    key: "T"
    value {
      type: DT_FLOAT
    }
  }
  attr {
    key: "_class"
    value {
      list {
        s: "loc:@conv2d_1/kernel"
      }
    }
  }
  attr {
    key: "_output_shapes"
    value {
      list {
        shape {
        }
      }
    }
  }
}
node {
  name: "conv2d_1/kernel/Initializer/random_uniform/mul"
  op: "Mul"
  input: "conv2d_1/kernel/Initializer/random_uniform/RandomUniform"
  input: "conv2d_1/kernel/Initializer/random_uniform/sub"
  attr {
    key: "T"
    value {
      type: DT_FLOAT
    }
  }
  attr {
    key: "_class"
    value {
      list {
        s: "loc:@conv2d_1/kernel"
      }
    }
  }
  attr {
    key: "_output_shapes"
    value {
      list {
        shape {
          dim {
            size: 5
          }
          dim {
            size: 5
          }
          dim {
            size: 32
          }
          dim {
            size: 64
          }
        }
      }
    }
  }
}
node {
  name: "conv2d_1/kernel/Initializer/random_uniform"
  op: "Add"
  input: "conv2d_1/kernel/Initializer/random_uniform/mul"
  input: "conv2d_1/kernel/Initializer/random_uniform/min"
  attr {
    key: "T"
    value {
      type: DT_FLOAT
    }
  }
  attr {
    key: "_class"
    value {
      list {
        s: "loc:@conv2d_1/kernel"
      }
    }
  }
  attr {
    key: "_output_shapes"
    value {
      list {
        shape {
          dim {
            size: 5
          }
          dim {
            size: 5
          }
          dim {
            size: 32
          }
          dim {
            size: 64
          }
        }
      }
    }
  }
}
node {
  name: "conv2d_1/kernel"
  op: "VariableV2"
  attr {
    key: "_class"
    value {
      list {
        s: "loc:@conv2d_1/kernel"
      }
    }
  }
  attr {
    key: "_output_shapes"
    value {
      list {
        shape {
          dim {
            size: 5
          }
          dim {
            size: 5
          }
          dim {
            size: 32
          }
          dim {
            size: 64
          }
        }
      }
    }
  }
  attr {
    key: "container"
    value {
      s: ""
    }
  }
  attr {
    key: "dtype"
    value {
      type: DT_FLOAT
    }
  }
  attr {
    key: "shape"
    value {
      shape {
        dim {
          size: 5
        }
        dim {
          size: 5
        }
        dim {
          size: 32
        }
        dim {
          size: 64
        }
      }
    }
  }
  attr {
    key: "shared_name"
    value {
      s: ""
    }
  }
}
node {
  name: "conv2d_1/kernel/Assign"
  op: "Assign"
  input: "conv2d_1/kernel"
  input: "conv2d_1/kernel/Initializer/random_uniform"
  attr {
    key: "T"
    value {
      type: DT_FLOAT
    }
  }
  attr {
    key: "_class"
    value {
      list {
        s: "loc:@conv2d_1/kernel"
      }
    }
  }
  attr {
    key: "_output_shapes"
    value {
      list {
        shape {
          dim {
            size: 5
          }
          dim {
            size: 5
          }
          dim {
            size: 32
          }
          dim {
            size: 64
          }
        }
      }
    }
  }
  attr {
    key: "use_locking"
    value {
      b: true
    }
  }
  attr {
    key: "validate_shape"
    value {
      b: true
    }
  }
}
node {
  name: "conv2d_1/kernel/read"
  op: "Identity"
  input: "conv2d_1/kernel"
  attr {
    key: "T"
    value {
      type: DT_FLOAT
    }
  }
  attr {
    key: "_class"
    value {
      list {
        s: "loc:@conv2d_1/kernel"
      }
    }
  }
  attr {
    key: "_output_shapes"
    value {
      list {
        shape {
          dim {
            size: 5
          }
          dim {
            size: 5
          }
          dim {
            size: 32
          }
          dim {
            size: 64
          }
        }
      }
    }
  }
}
node {
  name: "conv2d_1/bias/Initializer/zeros"
  op: "Const"
  attr {
    key: "_class"
    value {
      list {
        s: "loc:@conv2d_1/bias"
      }
    }
  }
  attr {
    key: "_output_shapes"
    value {
      list {
        shape {
          dim {
            size: 64
          }
        }
      }
    }
  }
  attr {
    key: "dtype"
    value {
      type: DT_FLOAT
    }
  }
  attr {
    key: "value"
    value {
      tensor {
        dtype: DT_FLOAT
        tensor_shape {
          dim {
            size: 64
          }
        }
        float_val: 0.0
      }
    }
  }
}
node {
  name: "conv2d_1/bias"
  op: "VariableV2"
  attr {
    key: "_class"
    value {
      list {
        s: "loc:@conv2d_1/bias"
      }
    }
  }
  attr {
    key: "_output_shapes"
    value {
      list {
        shape {
          dim {
            size: 64
          }
        }
      }
    }
  }
  attr {
    key: "container"
    value {
      s: ""
    }
  }
  attr {
    key: "dtype"
    value {
      type: DT_FLOAT
    }
  }
  attr {
    key: "shape"
    value {
      shape {
        dim {
          size: 64
        }
      }
    }
  }
  attr {
    key: "shared_name"
    value {
      s: ""
    }
  }
}
node {
  name: "conv2d_1/bias/Assign"
  op: "Assign"
  input: "conv2d_1/bias"
  input: "conv2d_1/bias/Initializer/zeros"
  attr {
    key: "T"
    value {
      type: DT_FLOAT
    }
  }
  attr {
    key: "_class"
    value {
      list {
        s: "loc:@conv2d_1/bias"
      }
    }
  }
  attr {
    key: "_output_shapes"
    value {
      list {
        shape {
          dim {
            size: 64
          }
        }
      }
    }
  }
  attr {
    key: "use_locking"
    value {
      b: true
    }
  }
  attr {
    key: "validate_shape"
    value {
      b: true
    }
  }
}
node {
  name: "conv2d_1/bias/read"
  op: "Identity"
  input: "conv2d_1/bias"
  attr {
    key: "T"
    value {
      type: DT_FLOAT
    }
  }
  attr {
    key: "_class"
    value {
      list {
        s: "loc:@conv2d_1/bias"
      }
    }
  }
  attr {
    key: "_output_shapes"
    value {
      list {
        shape {
          dim {
            size: 64
          }
        }
      }
    }
  }
}
node {
  name: "conv2d_1/dilation_rate"
  op: "Const"
  attr {
    key: "_output_shapes"
    value {
      list {
        shape {
          dim {
            size: 2
          }
        }
      }
    }
  }
  attr {
    key: "dtype"
    value {
      type: DT_INT32
    }
  }
  attr {
    key: "value"
    value {
      tensor {
        dtype: DT_INT32
        tensor_shape {
          dim {
            size: 2
          }
        }
        tensor_content: "\001\000\000\000\001\000\000\000"
      }
    }
  }
}
node {
  name: "conv2d_1/Conv2D"
  op: "Conv2D"
  input: "max_pooling2d/MaxPool"
  input: "conv2d_1/kernel/read"
  attr {
    key: "T"
    value {
      type: DT_FLOAT
    }
  }
  attr {
    key: "_output_shapes"
    value {
      list {
        shape {
          dim {
            size: -1
          }
          dim {
            size: 14
          }
          dim {
            size: 14
          }
          dim {
            size: 64
          }
        }
      }
    }
  }
  attr {
    key: "data_format"
    value {
      s: "NHWC"
    }
  }
  attr {
    key: "dilations"
    value {
      list {
        i: 1
        i: 1
        i: 1
        i: 1
      }
    }
  }
  attr {
    key: "padding"
    value {
      s: "SAME"
    }
  }
  attr {
    key: "strides"
    value {
      list {
        i: 1
        i: 1
        i: 1
        i: 1
      }
    }
  }
  attr {
    key: "use_cudnn_on_gpu"
    value {
      b: true
    }
  }
}
node {
  name: "conv2d_1/BiasAdd"
  op: "BiasAdd"
  input: "conv2d_1/Conv2D"
  input: "conv2d_1/bias/read"
  attr {
    key: "T"
    value {
      type: DT_FLOAT
    }
  }
  attr {
    key: "_output_shapes"
    value {
      list {
        shape {
          dim {
            size: -1
          }
          dim {
            size: 14
          }
          dim {
            size: 14
          }
          dim {
            size: 64
          }
        }
      }
    }
  }
  attr {
    key: "data_format"
    value {
      s: "NHWC"
    }
  }
}
node {
  name: "conv2d_1/Relu"
  op: "Relu"
  input: "conv2d_1/BiasAdd"
  attr {
    key: "T"
    value {
      type: DT_FLOAT
    }
  }
  attr {
    key: "_output_shapes"
    value {
      list {
        shape {
          dim {
            size: -1
          }
          dim {
            size: 14
          }
          dim {
            size: 14
          }
          dim {
            size: 64
          }
        }
      }
    }
  }
}
node {
  name: "max_pooling2d_1/MaxPool"
  op: "MaxPool"
  input: "conv2d_1/Relu"
  attr {
    key: "T"
    value {
      type: DT_FLOAT
    }
  }
  attr {
    key: "_output_shapes"
    value {
      list {
        shape {
          dim {
            size: -1
          }
          dim {
            size: 7
          }
          dim {
            size: 7
          }
          dim {
            size: 64
          }
        }
      }
    }
  }
  attr {
    key: "data_format"
    value {
      s: "NHWC"
    }
  }
  attr {
    key: "ksize"
    value {
      list {
        i: 1
        i: 2
        i: 2
        i: 1
      }
    }
  }
  attr {
    key: "padding"
    value {
      s: "VALID"
    }
  }
  attr {
    key: "strides"
    value {
      list {
        i: 1
        i: 2
        i: 2
        i: 1
      }
    }
  }
}
node {
  name: "Reshape_1/shape"
  op: "Const"
  attr {
    key: "_output_shapes"
    value {
      list {
        shape {
          dim {
            size: 2
          }
        }
      }
    }
  }
  attr {
    key: "dtype"
    value {
      type: DT_INT32
    }
  }
  attr {
    key: "value"
    value {
      tensor {
        dtype: DT_INT32
        tensor_shape {
          dim {
            size: 2
          }
        }
        tensor_content: "\377\377\377\377@\014\000\000"
      }
    }
  }
}
node {
  name: "Reshape_1"
  op: "Reshape"
  input: "max_pooling2d_1/MaxPool"
  input: "Reshape_1/shape"
  attr {
    key: "T"
    value {
      type: DT_FLOAT
    }
  }
  attr {
    key: "Tshape"
    value {
      type: DT_INT32
    }
  }
  attr {
    key: "_output_shapes"
    value {
      list {
        shape {
          dim {
            size: -1
          }
          dim {
            size: 3136
          }
        }
      }
    }
  }
}
node {
  name: "dense/kernel/Initializer/random_uniform/shape"
  op: "Const"
  attr {
    key: "_class"
    value {
      list {
        s: "loc:@dense/kernel"
      }
    }
  }
  attr {
    key: "_output_shapes"
    value {
      list {
        shape {
          dim {
            size: 2
          }
        }
      }
    }
  }
  attr {
    key: "dtype"
    value {
      type: DT_INT32
    }
  }
  attr {
    key: "value"
    value {
      tensor {
        dtype: DT_INT32
        tensor_shape {
          dim {
            size: 2
          }
        }
        tensor_content: "@\014\000\000\000\004\000\000"
      }
    }
  }
}
node {
  name: "dense/kernel/Initializer/random_uniform/min"
  op: "Const"
  attr {
    key: "_class"
    value {
      list {
        s: "loc:@dense/kernel"
      }
    }
  }
  attr {
    key: "_output_shapes"
    value {
      list {
        shape {
        }
      }
    }
  }
  attr {
    key: "dtype"
    value {
      type: DT_FLOAT
    }
  }
  attr {
    key: "value"
    value {
      tensor {
        dtype: DT_FLOAT
        tensor_shape {
        }
        float_val: -0.0379777252674
      }
    }
  }
}
node {
  name: "dense/kernel/Initializer/random_uniform/max"
  op: "Const"
  attr {
    key: "_class"
    value {
      list {
        s: "loc:@dense/kernel"
      }
    }
  }
  attr {
    key: "_output_shapes"
    value {
      list {
        shape {
        }
      }
    }
  }
  attr {
    key: "dtype"
    value {
      type: DT_FLOAT
    }
  }
  attr {
    key: "value"
    value {
      tensor {
        dtype: DT_FLOAT
        tensor_shape {
        }
        float_val: 0.0379777252674
      }
    }
  }
}
node {
  name: "dense/kernel/Initializer/random_uniform/RandomUniform"
  op: "RandomUniform"
  input: "dense/kernel/Initializer/random_uniform/shape"
  attr {
    key: "T"
    value {
      type: DT_INT32
    }
  }
  attr {
    key: "_class"
    value {
      list {
        s: "loc:@dense/kernel"
      }
    }
  }
  attr {
    key: "_output_shapes"
    value {
      list {
        shape {
          dim {
            size: 3136
          }
          dim {
            size: 1024
          }
        }
      }
    }
  }
  attr {
    key: "dtype"
    value {
      type: DT_FLOAT
    }
  }
  attr {
    key: "seed"
    value {
      i: 0
    }
  }
  attr {
    key: "seed2"
    value {
      i: 0
    }
  }
}
node {
  name: "dense/kernel/Initializer/random_uniform/sub"
  op: "Sub"
  input: "dense/kernel/Initializer/random_uniform/max"
  input: "dense/kernel/Initializer/random_uniform/min"
  attr {
    key: "T"
    value {
      type: DT_FLOAT
    }
  }
  attr {
    key: "_class"
    value {
      list {
        s: "loc:@dense/kernel"
      }
    }
  }
  attr {
    key: "_output_shapes"
    value {
      list {
        shape {
        }
      }
    }
  }
}
node {
  name: "dense/kernel/Initializer/random_uniform/mul"
  op: "Mul"
  input: "dense/kernel/Initializer/random_uniform/RandomUniform"
  input: "dense/kernel/Initializer/random_uniform/sub"
  attr {
    key: "T"
    value {
      type: DT_FLOAT
    }
  }
  attr {
    key: "_class"
    value {
      list {
        s: "loc:@dense/kernel"
      }
    }
  }
  attr {
    key: "_output_shapes"
    value {
      list {
        shape {
          dim {
            size: 3136
          }
          dim {
            size: 1024
          }
        }
      }
    }
  }
}
node {
  name: "dense/kernel/Initializer/random_uniform"
  op: "Add"
  input: "dense/kernel/Initializer/random_uniform/mul"
  input: "dense/kernel/Initializer/random_uniform/min"
  attr {
    key: "T"
    value {
      type: DT_FLOAT
    }
  }
  attr {
    key: "_class"
    value {
      list {
        s: "loc:@dense/kernel"
      }
    }
  }
  attr {
    key: "_output_shapes"
    value {
      list {
        shape {
          dim {
            size: 3136
          }
          dim {
            size: 1024
          }
        }
      }
    }
  }
}
node {
  name: "dense/kernel"
  op: "VariableV2"
  attr {
    key: "_class"
    value {
      list {
        s: "loc:@dense/kernel"
      }
    }
  }
  attr {
    key: "_output_shapes"
    value {
      list {
        shape {
          dim {
            size: 3136
          }
          dim {
            size: 1024
          }
        }
      }
    }
  }
  attr {
    key: "container"
    value {
      s: ""
    }
  }
  attr {
    key: "dtype"
    value {
      type: DT_FLOAT
    }
  }
  attr {
    key: "shape"
    value {
      shape {
        dim {
          size: 3136
        }
        dim {
          size: 1024
        }
      }
    }
  }
  attr {
    key: "shared_name"
    value {
      s: ""
    }
  }
}
node {
  name: "dense/kernel/Assign"
  op: "Assign"
  input: "dense/kernel"
  input: "dense/kernel/Initializer/random_uniform"
  attr {
    key: "T"
    value {
      type: DT_FLOAT
    }
  }
  attr {
    key: "_class"
    value {
      list {
        s: "loc:@dense/kernel"
      }
    }
  }
  attr {
    key: "_output_shapes"
    value {
      list {
        shape {
          dim {
            size: 3136
          }
          dim {
            size: 1024
          }
        }
      }
    }
  }
  attr {
    key: "use_locking"
    value {
      b: true
    }
  }
  attr {
    key: "validate_shape"
    value {
      b: true
    }
  }
}
node {
  name: "dense/kernel/read"
  op: "Identity"
  input: "dense/kernel"
  attr {
    key: "T"
    value {
      type: DT_FLOAT
    }
  }
  attr {
    key: "_class"
    value {
      list {
        s: "loc:@dense/kernel"
      }
    }
  }
  attr {
    key: "_output_shapes"
    value {
      list {
        shape {
          dim {
            size: 3136
          }
          dim {
            size: 1024
          }
        }
      }
    }
  }
}
node {
  name: "dense/bias/Initializer/zeros/shape_as_tensor"
  op: "Const"
  attr {
    key: "_class"
    value {
      list {
        s: "loc:@dense/bias"
      }
    }
  }
  attr {
    key: "_output_shapes"
    value {
      list {
        shape {
          dim {
            size: 1
          }
        }
      }
    }
  }
  attr {
    key: "dtype"
    value {
      type: DT_INT32
    }
  }
  attr {
    key: "value"
    value {
      tensor {
        dtype: DT_INT32
        tensor_shape {
          dim {
            size: 1
          }
        }
        int_val: 1024
      }
    }
  }
}
node {
  name: "dense/bias/Initializer/zeros/Const"
  op: "Const"
  attr {
    key: "_class"
    value {
      list {
        s: "loc:@dense/bias"
      }
    }
  }
  attr {
    key: "_output_shapes"
    value {
      list {
        shape {
        }
      }
    }
  }
  attr {
    key: "dtype"
    value {
      type: DT_FLOAT
    }
  }
  attr {
    key: "value"
    value {
      tensor {
        dtype: DT_FLOAT
        tensor_shape {
        }
        float_val: 0.0
      }
    }
  }
}
node {
  name: "dense/bias/Initializer/zeros"
  op: "Fill"
  input: "dense/bias/Initializer/zeros/shape_as_tensor"
  input: "dense/bias/Initializer/zeros/Const"
  attr {
    key: "T"
    value {
      type: DT_FLOAT
    }
  }
  attr {
    key: "_class"
    value {
      list {
        s: "loc:@dense/bias"
      }
    }
  }
  attr {
    key: "_output_shapes"
    value {
      list {
        shape {
          dim {
            size: 1024
          }
        }
      }
    }
  }
  attr {
    key: "index_type"
    value {
      type: DT_INT32
    }
  }
}
node {
  name: "dense/bias"
  op: "VariableV2"
  attr {
    key: "_class"
    value {
      list {
        s: "loc:@dense/bias"
      }
    }
  }
  attr {
    key: "_output_shapes"
    value {
      list {
        shape {
          dim {
            size: 1024
          }
        }
      }
    }
  }
  attr {
    key: "container"
    value {
      s: ""
    }
  }
  attr {
    key: "dtype"
    value {
      type: DT_FLOAT
    }
  }
  attr {
    key: "shape"
    value {
      shape {
        dim {
          size: 1024
        }
      }
    }
  }
  attr {
    key: "shared_name"
    value {
      s: ""
    }
  }
}
node {
  name: "dense/bias/Assign"
  op: "Assign"
  input: "dense/bias"
  input: "dense/bias/Initializer/zeros"
  attr {
    key: "T"
    value {
      type: DT_FLOAT
    }
  }
  attr {
    key: "_class"
    value {
      list {
        s: "loc:@dense/bias"
      }
    }
  }
  attr {
    key: "_output_shapes"
    value {
      list {
        shape {
          dim {
            size: 1024
          }
        }
      }
    }
  }
  attr {
    key: "use_locking"
    value {
      b: true
    }
  }
  attr {
    key: "validate_shape"
    value {
      b: true
    }
  }
}
node {
  name: "dense/bias/read"
  op: "Identity"
  input: "dense/bias"
  attr {
    key: "T"
    value {
      type: DT_FLOAT
    }
  }
  attr {
    key: "_class"
    value {
      list {
        s: "loc:@dense/bias"
      }
    }
  }
  attr {
    key: "_output_shapes"
    value {
      list {
        shape {
          dim {
            size: 1024
          }
        }
      }
    }
  }
}
node {
  name: "dense/MatMul"
  op: "MatMul"
  input: "Reshape_1"
  input: "dense/kernel/read"
  attr {
    key: "T"
    value {
      type: DT_FLOAT
    }
  }
  attr {
    key: "_output_shapes"
    value {
      list {
        shape {
          dim {
            size: -1
          }
          dim {
            size: 1024
          }
        }
      }
    }
  }
  attr {
    key: "transpose_a"
    value {
      b: false
    }
  }
  attr {
    key: "transpose_b"
    value {
      b: false
    }
  }
}
node {
  name: "dense/BiasAdd"
  op: "BiasAdd"
  input: "dense/MatMul"
  input: "dense/bias/read"
  attr {
    key: "T"
    value {
      type: DT_FLOAT
    }
  }
  attr {
    key: "_output_shapes"
    value {
      list {
        shape {
          dim {
            size: -1
          }
          dim {
            size: 1024
          }
        }
      }
    }
  }
  attr {
    key: "data_format"
    value {
      s: "NHWC"
    }
  }
}
node {
  name: "dense/Relu"
  op: "Relu"
  input: "dense/BiasAdd"
  attr {
    key: "T"
    value {
      type: DT_FLOAT
    }
  }
  attr {
    key: "_output_shapes"
    value {
      list {
        shape {
          dim {
            size: -1
          }
          dim {
            size: 1024
          }
        }
      }
    }
  }
}
node {
  name: "dropout/dropout/keep_prob"
  op: "Const"
  attr {
    key: "_output_shapes"
    value {
      list {
        shape {
        }
      }
    }
  }
  attr {
    key: "dtype"
    value {
      type: DT_FLOAT
    }
  }
  attr {
    key: "value"
    value {
      tensor {
        dtype: DT_FLOAT
        tensor_shape {
        }
        float_val: 0.600000023842
      }
    }
  }
}
node {
  name: "dropout/dropout/Shape"
  op: "Shape"
  input: "dense/Relu"
  attr {
    key: "T"
    value {
      type: DT_FLOAT
    }
  }
  attr {
    key: "_output_shapes"
    value {
      list {
        shape {
          dim {
            size: 2
          }
        }
      }
    }
  }
  attr {
    key: "out_type"
    value {
      type: DT_INT32
    }
  }
}
node {
  name: "dropout/dropout/random_uniform/min"
  op: "Const"
  attr {
    key: "_output_shapes"
    value {
      list {
        shape {
        }
      }
    }
  }
  attr {
    key: "dtype"
    value {
      type: DT_FLOAT
    }
  }
  attr {
    key: "value"
    value {
      tensor {
        dtype: DT_FLOAT
        tensor_shape {
        }
        float_val: 0.0
      }
    }
  }
}
node {
  name: "dropout/dropout/random_uniform/max"
  op: "Const"
  attr {
    key: "_output_shapes"
    value {
      list {
        shape {
        }
      }
    }
  }
  attr {
    key: "dtype"
    value {
      type: DT_FLOAT
    }
  }
  attr {
    key: "value"
    value {
      tensor {
        dtype: DT_FLOAT
        tensor_shape {
        }
        float_val: 1.0
      }
    }
  }
}
node {
  name: "dropout/dropout/random_uniform/RandomUniform"
  op: "RandomUniform"
  input: "dropout/dropout/Shape"
  attr {
    key: "T"
    value {
      type: DT_INT32
    }
  }
  attr {
    key: "_output_shapes"
    value {
      list {
        shape {
          dim {
            size: -1
          }
          dim {
            size: 1024
          }
        }
      }
    }
  }
  attr {
    key: "dtype"
    value {
      type: DT_FLOAT
    }
  }
  attr {
    key: "seed"
    value {
      i: 0
    }
  }
  attr {
    key: "seed2"
    value {
      i: 0
    }
  }
}
node {
  name: "dropout/dropout/random_uniform/sub"
  op: "Sub"
  input: "dropout/dropout/random_uniform/max"
  input: "dropout/dropout/random_uniform/min"
  attr {
    key: "T"
    value {
      type: DT_FLOAT
    }
  }
  attr {
    key: "_output_shapes"
    value {
      list {
        shape {
        }
      }
    }
  }
}
node {
  name: "dropout/dropout/random_uniform/mul"
  op: "Mul"
  input: "dropout/dropout/random_uniform/RandomUniform"
  input: "dropout/dropout/random_uniform/sub"
  attr {
    key: "T"
    value {
      type: DT_FLOAT
    }
  }
  attr {
    key: "_output_shapes"
    value {
      list {
        shape {
          dim {
            size: -1
          }
          dim {
            size: 1024
          }
        }
      }
    }
  }
}
node {
  name: "dropout/dropout/random_uniform"
  op: "Add"
  input: "dropout/dropout/random_uniform/mul"
  input: "dropout/dropout/random_uniform/min"
  attr {
    key: "T"
    value {
      type: DT_FLOAT
    }
  }
  attr {
    key: "_output_shapes"
    value {
      list {
        shape {
          dim {
            size: -1
          }
          dim {
            size: 1024
          }
        }
      }
    }
  }
}
node {
  name: "dropout/dropout/add"
  op: "Add"
  input: "dropout/dropout/keep_prob"
  input: "dropout/dropout/random_uniform"
  attr {
    key: "T"
    value {
      type: DT_FLOAT
    }
  }
  attr {
    key: "_output_shapes"
    value {
      list {
        shape {
          dim {
            size: -1
          }
          dim {
            size: 1024
          }
        }
      }
    }
  }
}
node {
  name: "dropout/dropout/Floor"
  op: "Floor"
  input: "dropout/dropout/add"
  attr {
    key: "T"
    value {
      type: DT_FLOAT
    }
  }
  attr {
    key: "_output_shapes"
    value {
      list {
        shape {
          dim {
            size: -1
          }
          dim {
            size: 1024
          }
        }
      }
    }
  }
}
node {
  name: "dropout/dropout/div"
  op: "RealDiv"
  input: "dense/Relu"
  input: "dropout/dropout/keep_prob"
  attr {
    key: "T"
    value {
      type: DT_FLOAT
    }
  }
  attr {
    key: "_output_shapes"
    value {
      list {
        shape {
          dim {
            size: -1
          }
          dim {
            size: 1024
          }
        }
      }
    }
  }
}
node {
  name: "dropout/dropout/mul"
  op: "Mul"
  input: "dropout/dropout/div"
  input: "dropout/dropout/Floor"
  attr {
    key: "T"
    value {
      type: DT_FLOAT
    }
  }
  attr {
    key: "_output_shapes"
    value {
      list {
        shape {
          dim {
            size: -1
          }
          dim {
            size: 1024
          }
        }
      }
    }
  }
}
node {
  name: "dense_1/kernel/Initializer/random_uniform/shape"
  op: "Const"
  attr {
    key: "_class"
    value {
      list {
        s: "loc:@dense_1/kernel"
      }
    }
  }
  attr {
    key: "_output_shapes"
    value {
      list {
        shape {
          dim {
            size: 2
          }
        }
      }
    }
  }
  attr {
    key: "dtype"
    value {
      type: DT_INT32
    }
  }
  attr {
    key: "value"
    value {
      tensor {
        dtype: DT_INT32
        tensor_shape {
          dim {
            size: 2
          }
        }
        tensor_content: "\000\004\000\000!\000\000\000"
      }
    }
  }
}
node {
  name: "dense_1/kernel/Initializer/random_uniform/min"
  op: "Const"
  attr {
    key: "_class"
    value {
      list {
        s: "loc:@dense_1/kernel"
      }
    }
  }
  attr {
    key: "_output_shapes"
    value {
      list {
        shape {
        }
      }
    }
  }
  attr {
    key: "dtype"
    value {
      type: DT_FLOAT
    }
  }
  attr {
    key: "value"
    value {
      tensor {
        dtype: DT_FLOAT
        tensor_shape {
        }
        float_val: -0.0753421708941
      }
    }
  }
}
node {
  name: "dense_1/kernel/Initializer/random_uniform/max"
  op: "Const"
  attr {
    key: "_class"
    value {
      list {
        s: "loc:@dense_1/kernel"
      }
    }
  }
  attr {
    key: "_output_shapes"
    value {
      list {
        shape {
        }
      }
    }
  }
  attr {
    key: "dtype"
    value {
      type: DT_FLOAT
    }
  }
  attr {
    key: "value"
    value {
      tensor {
        dtype: DT_FLOAT
        tensor_shape {
        }
        float_val: 0.0753421708941
      }
    }
  }
}
node {
  name: "dense_1/kernel/Initializer/random_uniform/RandomUniform"
  op: "RandomUniform"
  input: "dense_1/kernel/Initializer/random_uniform/shape"
  attr {
    key: "T"
    value {
      type: DT_INT32
    }
  }
  attr {
    key: "_class"
    value {
      list {
        s: "loc:@dense_1/kernel"
      }
    }
  }
  attr {
    key: "_output_shapes"
    value {
      list {
        shape {
          dim {
            size: 1024
          }
          dim {
            size: 33
          }
        }
      }
    }
  }
  attr {
    key: "dtype"
    value {
      type: DT_FLOAT
    }
  }
  attr {
    key: "seed"
    value {
      i: 0
    }
  }
  attr {
    key: "seed2"
    value {
      i: 0
    }
  }
}
node {
  name: "dense_1/kernel/Initializer/random_uniform/sub"
  op: "Sub"
  input: "dense_1/kernel/Initializer/random_uniform/max"
  input: "dense_1/kernel/Initializer/random_uniform/min"
  attr {
    key: "T"
    value {
      type: DT_FLOAT
    }
  }
  attr {
    key: "_class"
    value {
      list {
        s: "loc:@dense_1/kernel"
      }
    }
  }
  attr {
    key: "_output_shapes"
    value {
      list {
        shape {
        }
      }
    }
  }
}
node {
  name: "dense_1/kernel/Initializer/random_uniform/mul"
  op: "Mul"
  input: "dense_1/kernel/Initializer/random_uniform/RandomUniform"
  input: "dense_1/kernel/Initializer/random_uniform/sub"
  attr {
    key: "T"
    value {
      type: DT_FLOAT
    }
  }
  attr {
    key: "_class"
    value {
      list {
        s: "loc:@dense_1/kernel"
      }
    }
  }
  attr {
    key: "_output_shapes"
    value {
      list {
        shape {
          dim {
            size: 1024
          }
          dim {
            size: 33
          }
        }
      }
    }
  }
}
node {
  name: "dense_1/kernel/Initializer/random_uniform"
  op: "Add"
  input: "dense_1/kernel/Initializer/random_uniform/mul"
  input: "dense_1/kernel/Initializer/random_uniform/min"
  attr {
    key: "T"
    value {
      type: DT_FLOAT
    }
  }
  attr {
    key: "_class"
    value {
      list {
        s: "loc:@dense_1/kernel"
      }
    }
  }
  attr {
    key: "_output_shapes"
    value {
      list {
        shape {
          dim {
            size: 1024
          }
          dim {
            size: 33
          }
        }
      }
    }
  }
}
node {
  name: "dense_1/kernel"
  op: "VariableV2"
  attr {
    key: "_class"
    value {
      list {
        s: "loc:@dense_1/kernel"
      }
    }
  }
  attr {
    key: "_output_shapes"
    value {
      list {
        shape {
          dim {
            size: 1024
          }
          dim {
            size: 33
          }
        }
      }
    }
  }
  attr {
    key: "container"
    value {
      s: ""
    }
  }
  attr {
    key: "dtype"
    value {
      type: DT_FLOAT
    }
  }
  attr {
    key: "shape"
    value {
      shape {
        dim {
          size: 1024
        }
        dim {
          size: 33
        }
      }
    }
  }
  attr {
    key: "shared_name"
    value {
      s: ""
    }
  }
}
node {
  name: "dense_1/kernel/Assign"
  op: "Assign"
  input: "dense_1/kernel"
  input: "dense_1/kernel/Initializer/random_uniform"
  attr {
    key: "T"
    value {
      type: DT_FLOAT
    }
  }
  attr {
    key: "_class"
    value {
      list {
        s: "loc:@dense_1/kernel"
      }
    }
  }
  attr {
    key: "_output_shapes"
    value {
      list {
        shape {
          dim {
            size: 1024
          }
          dim {
            size: 33
          }
        }
      }
    }
  }
  attr {
    key: "use_locking"
    value {
      b: true
    }
  }
  attr {
    key: "validate_shape"
    value {
      b: true
    }
  }
}
node {
  name: "dense_1/kernel/read"
  op: "Identity"
  input: "dense_1/kernel"
  attr {
    key: "T"
    value {
      type: DT_FLOAT
    }
  }
  attr {
    key: "_class"
    value {
      list {
        s: "loc:@dense_1/kernel"
      }
    }
  }
  attr {
    key: "_output_shapes"
    value {
      list {
        shape {
          dim {
            size: 1024
          }
          dim {
            size: 33
          }
        }
      }
    }
  }
}
node {
  name: "dense_1/bias/Initializer/zeros"
  op: "Const"
  attr {
    key: "_class"
    value {
      list {
        s: "loc:@dense_1/bias"
      }
    }
  }
  attr {
    key: "_output_shapes"
    value {
      list {
        shape {
          dim {
            size: 33
          }
        }
      }
    }
  }
  attr {
    key: "dtype"
    value {
      type: DT_FLOAT
    }
  }
  attr {
    key: "value"
    value {
      tensor {
        dtype: DT_FLOAT
        tensor_shape {
          dim {
            size: 33
          }
        }
        float_val: 0.0
      }
    }
  }
}
node {
  name: "dense_1/bias"
  op: "VariableV2"
  attr {
    key: "_class"
    value {
      list {
        s: "loc:@dense_1/bias"
      }
    }
  }
  attr {
    key: "_output_shapes"
    value {
      list {
        shape {
          dim {
            size: 33
          }
        }
      }
    }
  }
  attr {
    key: "container"
    value {
      s: ""
    }
  }
  attr {
    key: "dtype"
    value {
      type: DT_FLOAT
    }
  }
  attr {
    key: "shape"
    value {
      shape {
        dim {
          size: 33
        }
      }
    }
  }
  attr {
    key: "shared_name"
    value {
      s: ""
    }
  }
}
node {
  name: "dense_1/bias/Assign"
  op: "Assign"
  input: "dense_1/bias"
  input: "dense_1/bias/Initializer/zeros"
  attr {
    key: "T"
    value {
      type: DT_FLOAT
    }
  }
  attr {
    key: "_class"
    value {
      list {
        s: "loc:@dense_1/bias"
      }
    }
  }
  attr {
    key: "_output_shapes"
    value {
      list {
        shape {
          dim {
            size: 33
          }
        }
      }
    }
  }
  attr {
    key: "use_locking"
    value {
      b: true
    }
  }
  attr {
    key: "validate_shape"
    value {
      b: true
    }
  }
}
node {
  name: "dense_1/bias/read"
  op: "Identity"
  input: "dense_1/bias"
  attr {
    key: "T"
    value {
      type: DT_FLOAT
    }
  }
  attr {
    key: "_class"
    value {
      list {
        s: "loc:@dense_1/bias"
      }
    }
  }
  attr {
    key: "_output_shapes"
    value {
      list {
        shape {
          dim {
            size: 33
          }
        }
      }
    }
  }
}
node {
  name: "dense_1/MatMul"
  op: "MatMul"
  input: "dropout/dropout/mul"
  input: "dense_1/kernel/read"
  attr {
    key: "T"
    value {
      type: DT_FLOAT
    }
  }
  attr {
    key: "_output_shapes"
    value {
      list {
        shape {
          dim {
            size: -1
          }
          dim {
            size: 33
          }
        }
      }
    }
  }
  attr {
    key: "transpose_a"
    value {
      b: false
    }
  }
  attr {
    key: "transpose_b"
    value {
      b: false
    }
  }
}
node {
  name: "dense_1/BiasAdd"
  op: "BiasAdd"
  input: "dense_1/MatMul"
  input: "dense_1/bias/read"
  attr {
    key: "T"
    value {
      type: DT_FLOAT
    }
  }
  attr {
    key: "_output_shapes"
    value {
      list {
        shape {
          dim {
            size: -1
          }
          dim {
            size: 33
          }
        }
      }
    }
  }
  attr {
    key: "data_format"
    value {
      s: "NHWC"
    }
  }
}
node {
  name: "ArgMax/dimension"
  op: "Const"
  attr {
    key: "_output_shapes"
    value {
      list {
        shape {
        }
      }
    }
  }
  attr {
    key: "dtype"
    value {
      type: DT_INT32
    }
  }
  attr {
    key: "value"
    value {
      tensor {
        dtype: DT_INT32
        tensor_shape {
        }
        int_val: 1
      }
    }
  }
}
node {
  name: "ArgMax"
  op: "ArgMax"
  input: "dense_1/BiasAdd"
  input: "ArgMax/dimension"
  attr {
    key: "T"
    value {
      type: DT_FLOAT
    }
  }
  attr {
    key: "Tidx"
    value {
      type: DT_INT32
    }
  }
  attr {
    key: "_output_shapes"
    value {
      list {
        shape {
          dim {
            size: -1
          }
        }
      }
    }
  }
  attr {
    key: "output_type"
    value {
      type: DT_INT64
    }
  }
}
node {
  name: "softmax_tensor"
  op: "Softmax"
  input: "dense_1/BiasAdd"
  attr {
    key: "T"
    value {
      type: DT_FLOAT
    }
  }
  attr {
    key: "_output_shapes"
    value {
      list {
        shape {
          dim {
            size: -1
          }
          dim {
            size: 33
          }
        }
      }
    }
  }
}
node {
  name: "sparse_softmax_cross_entropy_loss/Const"
  op: "Const"
  attr {
    key: "_output_shapes"
    value {
      list {
        shape {
        }
      }
    }
  }
  attr {
    key: "dtype"
    value {
      type: DT_FLOAT
    }
  }
  attr {
    key: "value"
    value {
      tensor {
        dtype: DT_FLOAT
        tensor_shape {
        }
        float_val: 1.0
      }
    }
  }
}
node {
  name: "sparse_softmax_cross_entropy_loss/xentropy/Shape"
  op: "Shape"
  input: "IteratorGetNext:1"
  attr {
    key: "T"
    value {
      type: DT_INT32
    }
  }
  attr {
    key: "_output_shapes"
    value {
      list {
        shape {
          dim {
            size: 1
          }
        }
      }
    }
  }
  attr {
    key: "out_type"
    value {
      type: DT_INT32
    }
  }
}
node {
  name: "sparse_softmax_cross_entropy_loss/xentropy/xentropy"
  op: "SparseSoftmaxCrossEntropyWithLogits"
  input: "dense_1/BiasAdd"
  input: "IteratorGetNext:1"
  attr {
    key: "T"
    value {
      type: DT_FLOAT
    }
  }
  attr {
    key: "Tlabels"
    value {
      type: DT_INT32
    }
  }
  attr {
    key: "_output_shapes"
    value {
      list {
        shape {
          dim {
            size: -1
          }
        }
        shape {
          dim {
            size: -1
          }
          dim {
            size: 33
          }
        }
      }
    }
  }
}
node {
  name: "sparse_softmax_cross_entropy_loss/assert_broadcastable/weights/shape"
  op: "Const"
  attr {
    key: "_output_shapes"
    value {
      list {
        shape {
          dim {
          }
        }
      }
    }
  }
  attr {
    key: "dtype"
    value {
      type: DT_INT32
    }
  }
  attr {
    key: "value"
    value {
      tensor {
        dtype: DT_INT32
        tensor_shape {
          dim {
          }
        }
      }
    }
  }
}
node {
  name: "sparse_softmax_cross_entropy_loss/assert_broadcastable/weights/rank"
  op: "Const"
  attr {
    key: "_output_shapes"
    value {
      list {
        shape {
        }
      }
    }
  }
  attr {
    key: "dtype"
    value {
      type: DT_INT32
    }
  }
  attr {
    key: "value"
    value {
      tensor {
        dtype: DT_INT32
        tensor_shape {
        }
        int_val: 0
      }
    }
  }
}
node {
  name: "sparse_softmax_cross_entropy_loss/assert_broadcastable/values/shape"
  op: "Shape"
  input: "sparse_softmax_cross_entropy_loss/xentropy/xentropy"
  attr {
    key: "T"
    value {
      type: DT_FLOAT
    }
  }
  attr {
    key: "_output_shapes"
    value {
      list {
        shape {
          dim {
            size: 1
          }
        }
      }
    }
  }
  attr {
    key: "out_type"
    value {
      type: DT_INT32
    }
  }
}
node {
  name: "sparse_softmax_cross_entropy_loss/assert_broadcastable/values/rank"
  op: "Const"
  attr {
    key: "_output_shapes"
    value {
      list {
        shape {
        }
      }
    }
  }
  attr {
    key: "dtype"
    value {
      type: DT_INT32
    }
  }
  attr {
    key: "value"
    value {
      tensor {
        dtype: DT_INT32
        tensor_shape {
        }
        int_val: 1
      }
    }
  }
}
node {
  name: "sparse_softmax_cross_entropy_loss/assert_broadcastable/static_scalar_check_success"
  op: "NoOp"
}
node {
  name: "sparse_softmax_cross_entropy_loss/Mul"
  op: "Mul"
  input: "sparse_softmax_cross_entropy_loss/xentropy/xentropy"
  input: "sparse_softmax_cross_entropy_loss/Const"
  input: "^sparse_softmax_cross_entropy_loss/assert_broadcastable/static_scalar_check_success"
  attr {
    key: "T"
    value {
      type: DT_FLOAT
    }
  }
  attr {
    key: "_output_shapes"
    value {
      list {
        shape {
          dim {
            size: -1
          }
        }
      }
    }
  }
}
node {
  name: "sparse_softmax_cross_entropy_loss/Const_1"
  op: "Const"
  input: "^sparse_softmax_cross_entropy_loss/assert_broadcastable/static_scalar_check_success"
  attr {
    key: "_output_shapes"
    value {
      list {
        shape {
          dim {
            size: 1
          }
        }
      }
    }
  }
  attr {
    key: "dtype"
    value {
      type: DT_INT32
    }
  }
  attr {
    key: "value"
    value {
      tensor {
        dtype: DT_INT32
        tensor_shape {
          dim {
            size: 1
          }
        }
        int_val: 0
      }
    }
  }
}
node {
  name: "sparse_softmax_cross_entropy_loss/Sum"
  op: "Sum"
  input: "sparse_softmax_cross_entropy_loss/Mul"
  input: "sparse_softmax_cross_entropy_loss/Const_1"
  attr {
    key: "T"
    value {
      type: DT_FLOAT
    }
  }
  attr {
    key: "Tidx"
    value {
      type: DT_INT32
    }
  }
  attr {
    key: "_output_shapes"
    value {
      list {
        shape {
        }
      }
    }
  }
  attr {
    key: "keep_dims"
    value {
      b: false
    }
  }
}
node {
  name: "sparse_softmax_cross_entropy_loss/num_present/Equal/y"
  op: "Const"
  input: "^sparse_softmax_cross_entropy_loss/assert_broadcastable/static_scalar_check_success"
  attr {
    key: "_output_shapes"
    value {
      list {
        shape {
        }
      }
    }
  }
  attr {
    key: "dtype"
    value {
      type: DT_FLOAT
    }
  }
  attr {
    key: "value"
    value {
      tensor {
        dtype: DT_FLOAT
        tensor_shape {
        }
        float_val: 0.0
      }
    }
  }
}
node {
  name: "sparse_softmax_cross_entropy_loss/num_present/Equal"
  op: "Equal"
  input: "sparse_softmax_cross_entropy_loss/Const"
  input: "sparse_softmax_cross_entropy_loss/num_present/Equal/y"
  attr {
    key: "T"
    value {
      type: DT_FLOAT
    }
  }
  attr {
    key: "_output_shapes"
    value {
      list {
        shape {
        }
      }
    }
  }
}
node {
  name: "sparse_softmax_cross_entropy_loss/num_present/zeros_like"
  op: "Const"
  input: "^sparse_softmax_cross_entropy_loss/assert_broadcastable/static_scalar_check_success"
  attr {
    key: "_output_shapes"
    value {
      list {
        shape {
        }
      }
    }
  }
  attr {
    key: "dtype"
    value {
      type: DT_FLOAT
    }
  }
  attr {
    key: "value"
    value {
      tensor {
        dtype: DT_FLOAT
        tensor_shape {
        }
        float_val: 0.0
      }
    }
  }
}
node {
  name: "sparse_softmax_cross_entropy_loss/num_present/ones_like/Shape"
  op: "Const"
  input: "^sparse_softmax_cross_entropy_loss/assert_broadcastable/static_scalar_check_success"
  attr {
    key: "_output_shapes"
    value {
      list {
        shape {
          dim {
          }
        }
      }
    }
  }
  attr {
    key: "dtype"
    value {
      type: DT_INT32
    }
  }
  attr {
    key: "value"
    value {
      tensor {
        dtype: DT_INT32
        tensor_shape {
          dim {
          }
        }
      }
    }
  }
}
node {
  name: "sparse_softmax_cross_entropy_loss/num_present/ones_like/Const"
  op: "Const"
  input: "^sparse_softmax_cross_entropy_loss/assert_broadcastable/static_scalar_check_success"
  attr {
    key: "_output_shapes"
    value {
      list {
        shape {
        }
      }
    }
  }
  attr {
    key: "dtype"
    value {
      type: DT_FLOAT
    }
  }
  attr {
    key: "value"
    value {
      tensor {
        dtype: DT_FLOAT
        tensor_shape {
        }
        float_val: 1.0
      }
    }
  }
}
node {
  name: "sparse_softmax_cross_entropy_loss/num_present/ones_like"
  op: "Fill"
  input: "sparse_softmax_cross_entropy_loss/num_present/ones_like/Shape"
  input: "sparse_softmax_cross_entropy_loss/num_present/ones_like/Const"
  attr {
    key: "T"
    value {
      type: DT_FLOAT
    }
  }
  attr {
    key: "_output_shapes"
    value {
      list {
        shape {
        }
      }
    }
  }
  attr {
    key: "index_type"
    value {
      type: DT_INT32
    }
  }
}
node {
  name: "sparse_softmax_cross_entropy_loss/num_present/Select"
  op: "Select"
  input: "sparse_softmax_cross_entropy_loss/num_present/Equal"
  input: "sparse_softmax_cross_entropy_loss/num_present/zeros_like"
  input: "sparse_softmax_cross_entropy_loss/num_present/ones_like"
  attr {
    key: "T"
    value {
      type: DT_FLOAT
    }
  }
  attr {
    key: "_output_shapes"
    value {
      list {
        shape {
        }
      }
    }
  }
}
node {
  name: "sparse_softmax_cross_entropy_loss/num_present/broadcast_weights/assert_broadcastable/weights/shape"
  op: "Const"
  input: "^sparse_softmax_cross_entropy_loss/assert_broadcastable/static_scalar_check_success"
  attr {
    key: "_output_shapes"
    value {
      list {
        shape {
          dim {
          }
        }
      }
    }
  }
  attr {
    key: "dtype"
    value {
      type: DT_INT32
    }
  }
  attr {
    key: "value"
    value {
      tensor {
        dtype: DT_INT32
        tensor_shape {
          dim {
          }
        }
      }
    }
  }
}
node {
  name: "sparse_softmax_cross_entropy_loss/num_present/broadcast_weights/assert_broadcastable/weights/rank"
  op: "Const"
  input: "^sparse_softmax_cross_entropy_loss/assert_broadcastable/static_scalar_check_success"
  attr {
    key: "_output_shapes"
    value {
      list {
        shape {
        }
      }
    }
  }
  attr {
    key: "dtype"
    value {
      type: DT_INT32
    }
  }
  attr {
    key: "value"
    value {
      tensor {
        dtype: DT_INT32
        tensor_shape {
        }
        int_val: 0
      }
    }
  }
}
node {
  name: "sparse_softmax_cross_entropy_loss/num_present/broadcast_weights/assert_broadcastable/values/shape"
  op: "Shape"
  input: "sparse_softmax_cross_entropy_loss/xentropy/xentropy"
  input: "^sparse_softmax_cross_entropy_loss/assert_broadcastable/static_scalar_check_success"
  attr {
    key: "T"
    value {
      type: DT_FLOAT
    }
  }
  attr {
    key: "_output_shapes"
    value {
      list {
        shape {
          dim {
            size: 1
          }
        }
      }
    }
  }
  attr {
    key: "out_type"
    value {
      type: DT_INT32
    }
  }
}
node {
  name: "sparse_softmax_cross_entropy_loss/num_present/broadcast_weights/assert_broadcastable/values/rank"
  op: "Const"
  input: "^sparse_softmax_cross_entropy_loss/assert_broadcastable/static_scalar_check_success"
  attr {
    key: "_output_shapes"
    value {
      list {
        shape {
        }
      }
    }
  }
  attr {
    key: "dtype"
    value {
      type: DT_INT32
    }
  }
  attr {
    key: "value"
    value {
      tensor {
        dtype: DT_INT32
        tensor_shape {
        }
        int_val: 1
      }
    }
  }
}
node {
  name: "sparse_softmax_cross_entropy_loss/num_present/broadcast_weights/assert_broadcastable/static_scalar_check_success"
  op: "NoOp"
  input: "^sparse_softmax_cross_entropy_loss/assert_broadcastable/static_scalar_check_success"
}
node {
  name: "sparse_softmax_cross_entropy_loss/num_present/broadcast_weights/ones_like/Shape"
  op: "Shape"
  input: "sparse_softmax_cross_entropy_loss/xentropy/xentropy"
  input: "^sparse_softmax_cross_entropy_loss/assert_broadcastable/static_scalar_check_success"
  input: "^sparse_softmax_cross_entropy_loss/num_present/broadcast_weights/assert_broadcastable/static_scalar_check_success"
  attr {
    key: "T"
    value {
      type: DT_FLOAT
    }
  }
  attr {
    key: "_output_shapes"
    value {
      list {
        shape {
          dim {
            size: 1
          }
        }
      }
    }
  }
  attr {
    key: "out_type"
    value {
      type: DT_INT32
    }
  }
}
node {
  name: "sparse_softmax_cross_entropy_loss/num_present/broadcast_weights/ones_like/Const"
  op: "Const"
  input: "^sparse_softmax_cross_entropy_loss/assert_broadcastable/static_scalar_check_success"
  input: "^sparse_softmax_cross_entropy_loss/num_present/broadcast_weights/assert_broadcastable/static_scalar_check_success"
  attr {
    key: "_output_shapes"
    value {
      list {
        shape {
        }
      }
    }
  }
  attr {
    key: "dtype"
    value {
      type: DT_FLOAT
    }
  }
  attr {
    key: "value"
    value {
      tensor {
        dtype: DT_FLOAT
        tensor_shape {
        }
        float_val: 1.0
      }
    }
  }
}
node {
  name: "sparse_softmax_cross_entropy_loss/num_present/broadcast_weights/ones_like"
  op: "Fill"
  input: "sparse_softmax_cross_entropy_loss/num_present/broadcast_weights/ones_like/Shape"
  input: "sparse_softmax_cross_entropy_loss/num_present/broadcast_weights/ones_like/Const"
  attr {
    key: "T"
    value {
      type: DT_FLOAT
    }
  }
  attr {
    key: "_output_shapes"
    value {
      list {
        shape {
          dim {
            size: -1
          }
        }
      }
    }
  }
  attr {
    key: "index_type"
    value {
      type: DT_INT32
    }
  }
}
node {
  name: "sparse_softmax_cross_entropy_loss/num_present/broadcast_weights"
  op: "Mul"
  input: "sparse_softmax_cross_entropy_loss/num_present/Select"
  input: "sparse_softmax_cross_entropy_loss/num_present/broadcast_weights/ones_like"
  attr {
    key: "T"
    value {
      type: DT_FLOAT
    }
  }
  attr {
    key: "_output_shapes"
    value {
      list {
        shape {
          dim {
            size: -1
          }
        }
      }
    }
  }
}
node {
  name: "sparse_softmax_cross_entropy_loss/num_present/Const"
  op: "Const"
  input: "^sparse_softmax_cross_entropy_loss/assert_broadcastable/static_scalar_check_success"
  attr {
    key: "_output_shapes"
    value {
      list {
        shape {
          dim {
            size: 1
          }
        }
      }
    }
  }
  attr {
    key: "dtype"
    value {
      type: DT_INT32
    }
  }
  attr {
    key: "value"
    value {
      tensor {
        dtype: DT_INT32
        tensor_shape {
          dim {
            size: 1
          }
        }
        int_val: 0
      }
    }
  }
}
node {
  name: "sparse_softmax_cross_entropy_loss/num_present"
  op: "Sum"
  input: "sparse_softmax_cross_entropy_loss/num_present/broadcast_weights"
  input: "sparse_softmax_cross_entropy_loss/num_present/Const"
  attr {
    key: "T"
    value {
      type: DT_FLOAT
    }
  }
  attr {
    key: "Tidx"
    value {
      type: DT_INT32
    }
  }
  attr {
    key: "_output_shapes"
    value {
      list {
        shape {
        }
      }
    }
  }
  attr {
    key: "keep_dims"
    value {
      b: false
    }
  }
}
node {
  name: "sparse_softmax_cross_entropy_loss/Const_2"
  op: "Const"
  input: "^sparse_softmax_cross_entropy_loss/assert_broadcastable/static_scalar_check_success"
  attr {
    key: "_output_shapes"
    value {
      list {
        shape {
          dim {
          }
        }
      }
    }
  }
  attr {
    key: "dtype"
    value {
      type: DT_INT32
    }
  }
  attr {
    key: "value"
    value {
      tensor {
        dtype: DT_INT32
        tensor_shape {
          dim {
          }
        }
      }
    }
  }
}
node {
  name: "sparse_softmax_cross_entropy_loss/Sum_1"
  op: "Sum"
  input: "sparse_softmax_cross_entropy_loss/Sum"
  input: "sparse_softmax_cross_entropy_loss/Const_2"
  attr {
    key: "T"
    value {
      type: DT_FLOAT
    }
  }
  attr {
    key: "Tidx"
    value {
      type: DT_INT32
    }
  }
  attr {
    key: "_output_shapes"
    value {
      list {
        shape {
        }
      }
    }
  }
  attr {
    key: "keep_dims"
    value {
      b: false
    }
  }
}
node {
  name: "sparse_softmax_cross_entropy_loss/Greater/y"
  op: "Const"
  input: "^sparse_softmax_cross_entropy_loss/assert_broadcastable/static_scalar_check_success"
  attr {
    key: "_output_shapes"
    value {
      list {
        shape {
        }
      }
    }
  }
  attr {
    key: "dtype"
    value {
      type: DT_FLOAT
    }
  }
  attr {
    key: "value"
    value {
      tensor {
        dtype: DT_FLOAT
        tensor_shape {
        }
        float_val: 0.0
      }
    }
  }
}
node {
  name: "sparse_softmax_cross_entropy_loss/Greater"
  op: "Greater"
  input: "sparse_softmax_cross_entropy_loss/num_present"
  input: "sparse_softmax_cross_entropy_loss/Greater/y"
  attr {
    key: "T"
    value {
      type: DT_FLOAT
    }
  }
  attr {
    key: "_output_shapes"
    value {
      list {
        shape {
        }
      }
    }
  }
}
node {
  name: "sparse_softmax_cross_entropy_loss/Equal/y"
  op: "Const"
  input: "^sparse_softmax_cross_entropy_loss/assert_broadcastable/static_scalar_check_success"
  attr {
    key: "_output_shapes"
    value {
      list {
        shape {
        }
      }
    }
  }
  attr {
    key: "dtype"
    value {
      type: DT_FLOAT
    }
  }
  attr {
    key: "value"
    value {
      tensor {
        dtype: DT_FLOAT
        tensor_shape {
        }
        float_val: 0.0
      }
    }
  }
}
node {
  name: "sparse_softmax_cross_entropy_loss/Equal"
  op: "Equal"
  input: "sparse_softmax_cross_entropy_loss/num_present"
  input: "sparse_softmax_cross_entropy_loss/Equal/y"
  attr {
    key: "T"
    value {
      type: DT_FLOAT
    }
  }
  attr {
    key: "_output_shapes"
    value {
      list {
        shape {
        }
      }
    }
  }
}
node {
  name: "sparse_softmax_cross_entropy_loss/ones_like/Shape"
  op: "Const"
  input: "^sparse_softmax_cross_entropy_loss/assert_broadcastable/static_scalar_check_success"
  attr {
    key: "_output_shapes"
    value {
      list {
        shape {
          dim {
          }
        }
      }
    }
  }
  attr {
    key: "dtype"
    value {
      type: DT_INT32
    }
  }
  attr {
    key: "value"
    value {
      tensor {
        dtype: DT_INT32
        tensor_shape {
          dim {
          }
        }
      }
    }
  }
}
node {
  name: "sparse_softmax_cross_entropy_loss/ones_like/Const"
  op: "Const"
  input: "^sparse_softmax_cross_entropy_loss/assert_broadcastable/static_scalar_check_success"
  attr {
    key: "_output_shapes"
    value {
      list {
        shape {
        }
      }
    }
  }
  attr {
    key: "dtype"
    value {
      type: DT_FLOAT
    }
  }
  attr {
    key: "value"
    value {
      tensor {
        dtype: DT_FLOAT
        tensor_shape {
        }
        float_val: 1.0
      }
    }
  }
}
node {
  name: "sparse_softmax_cross_entropy_loss/ones_like"
  op: "Fill"
  input: "sparse_softmax_cross_entropy_loss/ones_like/Shape"
  input: "sparse_softmax_cross_entropy_loss/ones_like/Const"
  attr {
    key: "T"
    value {
      type: DT_FLOAT
    }
  }
  attr {
    key: "_output_shapes"
    value {
      list {
        shape {
        }
      }
    }
  }
  attr {
    key: "index_type"
    value {
      type: DT_INT32
    }
  }
}
node {
  name: "sparse_softmax_cross_entropy_loss/Select"
  op: "Select"
  input: "sparse_softmax_cross_entropy_loss/Equal"
  input: "sparse_softmax_cross_entropy_loss/ones_like"
  input: "sparse_softmax_cross_entropy_loss/num_present"
  attr {
    key: "T"
    value {
      type: DT_FLOAT
    }
  }
  attr {
    key: "_output_shapes"
    value {
      list {
        shape {
        }
      }
    }
  }
}
node {
  name: "sparse_softmax_cross_entropy_loss/div"
  op: "RealDiv"
  input: "sparse_softmax_cross_entropy_loss/Sum_1"
  input: "sparse_softmax_cross_entropy_loss/Select"
  attr {
    key: "T"
    value {
      type: DT_FLOAT
    }
  }
  attr {
    key: "_output_shapes"
    value {
      list {
        shape {
        }
      }
    }
  }
}
node {
  name: "sparse_softmax_cross_entropy_loss/zeros_like"
  op: "Const"
  input: "^sparse_softmax_cross_entropy_loss/assert_broadcastable/static_scalar_check_success"
  attr {
    key: "_output_shapes"
    value {
      list {
        shape {
        }
      }
    }
  }
  attr {
    key: "dtype"
    value {
      type: DT_FLOAT
    }
  }
  attr {
    key: "value"
    value {
      tensor {
        dtype: DT_FLOAT
        tensor_shape {
        }
        float_val: 0.0
      }
    }
  }
}
node {
  name: "sparse_softmax_cross_entropy_loss/value"
  op: "Select"
  input: "sparse_softmax_cross_entropy_loss/Greater"
  input: "sparse_softmax_cross_entropy_loss/div"
  input: "sparse_softmax_cross_entropy_loss/zeros_like"
  attr {
    key: "T"
    value {
      type: DT_FLOAT
    }
  }
  attr {
    key: "_output_shapes"
    value {
      list {
        shape {
        }
      }
    }
  }
}
node {
  name: "Const_2"
  op: "Const"
  attr {
    key: "_output_shapes"
    value {
      list {
        shape {
          dim {
          }
        }
      }
    }
  }
  attr {
    key: "dtype"
    value {
      type: DT_INT32
    }
  }
  attr {
    key: "value"
    value {
      tensor {
        dtype: DT_INT32
        tensor_shape {
          dim {
          }
        }
      }
    }
  }
}
node {
  name: "Mean"
  op: "Mean"
  input: "sparse_softmax_cross_entropy_loss/value"
  input: "Const_2"
  attr {
    key: "T"
    value {
      type: DT_FLOAT
    }
  }
  attr {
    key: "Tidx"
    value {
      type: DT_INT32
    }
  }
  attr {
    key: "_output_shapes"
    value {
      list {
        shape {
        }
      }
    }
  }
  attr {
    key: "keep_dims"
    value {
      b: false
    }
  }
}
node {
  name: "gradients/Shape"
  op: "Const"
  attr {
    key: "_output_shapes"
    value {
      list {
        shape {
          dim {
          }
        }
      }
    }
  }
  attr {
    key: "dtype"
    value {
      type: DT_INT32
    }
  }
  attr {
    key: "value"
    value {
      tensor {
        dtype: DT_INT32
        tensor_shape {
          dim {
          }
        }
      }
    }
  }
}
node {
  name: "gradients/grad_ys_0"
  op: "Const"
  attr {
    key: "_output_shapes"
    value {
      list {
        shape {
        }
      }
    }
  }
  attr {
    key: "dtype"
    value {
      type: DT_FLOAT
    }
  }
  attr {
    key: "value"
    value {
      tensor {
        dtype: DT_FLOAT
        tensor_shape {
        }
        float_val: 1.0
      }
    }
  }
}
node {
  name: "gradients/Fill"
  op: "Fill"
  input: "gradients/Shape"
  input: "gradients/grad_ys_0"
  attr {
    key: "T"
    value {
      type: DT_FLOAT
    }
  }
  attr {
    key: "_output_shapes"
    value {
      list {
        shape {
        }
      }
    }
  }
  attr {
    key: "index_type"
    value {
      type: DT_INT32
    }
  }
}
node {
  name: "gradients/Mean_grad/Reshape/shape"
  op: "Const"
  attr {
    key: "_output_shapes"
    value {
      list {
        shape {
          dim {
          }
        }
      }
    }
  }
  attr {
    key: "dtype"
    value {
      type: DT_INT32
    }
  }
  attr {
    key: "value"
    value {
      tensor {
        dtype: DT_INT32
        tensor_shape {
          dim {
          }
        }
      }
    }
  }
}
node {
  name: "gradients/Mean_grad/Reshape"
  op: "Reshape"
  input: "gradients/Fill"
  input: "gradients/Mean_grad/Reshape/shape"
  attr {
    key: "T"
    value {
      type: DT_FLOAT
    }
  }
  attr {
    key: "Tshape"
    value {
      type: DT_INT32
    }
  }
  attr {
    key: "_output_shapes"
    value {
      list {
        shape {
        }
      }
    }
  }
}
node {
  name: "gradients/Mean_grad/Const"
  op: "Const"
  attr {
    key: "_output_shapes"
    value {
      list {
        shape {
          dim {
          }
        }
      }
    }
  }
  attr {
    key: "dtype"
    value {
      type: DT_INT32
    }
  }
  attr {
    key: "value"
    value {
      tensor {
        dtype: DT_INT32
        tensor_shape {
          dim {
          }
        }
      }
    }
  }
}
node {
  name: "gradients/Mean_grad/Tile"
  op: "Tile"
  input: "gradients/Mean_grad/Reshape"
  input: "gradients/Mean_grad/Const"
  attr {
    key: "T"
    value {
      type: DT_FLOAT
    }
  }
  attr {
    key: "Tmultiples"
    value {
      type: DT_INT32
    }
  }
  attr {
    key: "_output_shapes"
    value {
      list {
        shape {
        }
      }
    }
  }
}
node {
  name: "gradients/Mean_grad/Const_1"
  op: "Const"
  attr {
    key: "_output_shapes"
    value {
      list {
        shape {
        }
      }
    }
  }
  attr {
    key: "dtype"
    value {
      type: DT_FLOAT
    }
  }
  attr {
    key: "value"
    value {
      tensor {
        dtype: DT_FLOAT
        tensor_shape {
        }
        float_val: 1.0
      }
    }
  }
}
node {
  name: "gradients/Mean_grad/truediv"
  op: "RealDiv"
  input: "gradients/Mean_grad/Tile"
  input: "gradients/Mean_grad/Const_1"
  attr {
    key: "T"
    value {
      type: DT_FLOAT
    }
  }
  attr {
    key: "_output_shapes"
    value {
      list {
        shape {
        }
      }
    }
  }
}
node {
  name: "gradients/sparse_softmax_cross_entropy_loss/value_grad/zeros_like"
  op: "Const"
  attr {
    key: "_output_shapes"
    value {
      list {
        shape {
        }
      }
    }
  }
  attr {
    key: "dtype"
    value {
      type: DT_FLOAT
    }
  }
  attr {
    key: "value"
    value {
      tensor {
        dtype: DT_FLOAT
        tensor_shape {
        }
        float_val: 0.0
      }
    }
  }
}
node {
  name: "gradients/sparse_softmax_cross_entropy_loss/value_grad/Select"
  op: "Select"
  input: "sparse_softmax_cross_entropy_loss/Greater"
  input: "gradients/Mean_grad/truediv"
  input: "gradients/sparse_softmax_cross_entropy_loss/value_grad/zeros_like"
  attr {
    key: "T"
    value {
      type: DT_FLOAT
    }
  }
  attr {
    key: "_output_shapes"
    value {
      list {
        shape {
        }
      }
    }
  }
}
node {
  name: "gradients/sparse_softmax_cross_entropy_loss/value_grad/Select_1"
  op: "Select"
  input: "sparse_softmax_cross_entropy_loss/Greater"
  input: "gradients/sparse_softmax_cross_entropy_loss/value_grad/zeros_like"
  input: "gradients/Mean_grad/truediv"
  attr {
    key: "T"
    value {
      type: DT_FLOAT
    }
  }
  attr {
    key: "_output_shapes"
    value {
      list {
        shape {
        }
      }
    }
  }
}
node {
  name: "gradients/sparse_softmax_cross_entropy_loss/value_grad/tuple/group_deps"
  op: "NoOp"
  input: "^gradients/sparse_softmax_cross_entropy_loss/value_grad/Select"
  input: "^gradients/sparse_softmax_cross_entropy_loss/value_grad/Select_1"
}
node {
  name: "gradients/sparse_softmax_cross_entropy_loss/value_grad/tuple/control_dependency"
  op: "Identity"
  input: "gradients/sparse_softmax_cross_entropy_loss/value_grad/Select"
  input: "^gradients/sparse_softmax_cross_entropy_loss/value_grad/tuple/group_deps"
  attr {
    key: "T"
    value {
      type: DT_FLOAT
    }
  }
  attr {
    key: "_class"
    value {
      list {
        s: "loc:@gradients/sparse_softmax_cross_entropy_loss/value_grad/Select"
      }
    }
  }
  attr {
    key: "_output_shapes"
    value {
      list {
        shape {
        }
      }
    }
  }
}
node {
  name: "gradients/sparse_softmax_cross_entropy_loss/value_grad/tuple/control_dependency_1"
  op: "Identity"
  input: "gradients/sparse_softmax_cross_entropy_loss/value_grad/Select_1"
  input: "^gradients/sparse_softmax_cross_entropy_loss/value_grad/tuple/group_deps"
  attr {
    key: "T"
    value {
      type: DT_FLOAT
    }
  }
  attr {
    key: "_class"
    value {
      list {
        s: "loc:@gradients/sparse_softmax_cross_entropy_loss/value_grad/Select_1"
      }
    }
  }
  attr {
    key: "_output_shapes"
    value {
      list {
        shape {
        }
      }
    }
  }
}
node {
  name: "gradients/sparse_softmax_cross_entropy_loss/div_grad/Shape"
  op: "Const"
  attr {
    key: "_output_shapes"
    value {
      list {
        shape {
          dim {
          }
        }
      }
    }
  }
  attr {
    key: "dtype"
    value {
      type: DT_INT32
    }
  }
  attr {
    key: "value"
    value {
      tensor {
        dtype: DT_INT32
        tensor_shape {
          dim {
          }
        }
      }
    }
  }
}
node {
  name: "gradients/sparse_softmax_cross_entropy_loss/div_grad/Shape_1"
  op: "Const"
  attr {
    key: "_output_shapes"
    value {
      list {
        shape {
          dim {
          }
        }
      }
    }
  }
  attr {
    key: "dtype"
    value {
      type: DT_INT32
    }
  }
  attr {
    key: "value"
    value {
      tensor {
        dtype: DT_INT32
        tensor_shape {
          dim {
          }
        }
      }
    }
  }
}
node {
  name: "gradients/sparse_softmax_cross_entropy_loss/div_grad/BroadcastGradientArgs"
  op: "BroadcastGradientArgs"
  input: "gradients/sparse_softmax_cross_entropy_loss/div_grad/Shape"
  input: "gradients/sparse_softmax_cross_entropy_loss/div_grad/Shape_1"
  attr {
    key: "T"
    value {
      type: DT_INT32
    }
  }
  attr {
    key: "_output_shapes"
    value {
      list {
        shape {
          dim {
            size: -1
          }
        }
        shape {
          dim {
            size: -1
          }
        }
      }
    }
  }
}
node {
  name: "gradients/sparse_softmax_cross_entropy_loss/div_grad/RealDiv"
  op: "RealDiv"
  input: "gradients/sparse_softmax_cross_entropy_loss/value_grad/tuple/control_dependency"
  input: "sparse_softmax_cross_entropy_loss/Select"
  attr {
    key: "T"
    value {
      type: DT_FLOAT
    }
  }
  attr {
    key: "_output_shapes"
    value {
      list {
        shape {
        }
      }
    }
  }
}
node {
  name: "gradients/sparse_softmax_cross_entropy_loss/div_grad/Sum"
  op: "Sum"
  input: "gradients/sparse_softmax_cross_entropy_loss/div_grad/RealDiv"
  input: "gradients/sparse_softmax_cross_entropy_loss/div_grad/BroadcastGradientArgs"
  attr {
    key: "T"
    value {
      type: DT_FLOAT
    }
  }
  attr {
    key: "Tidx"
    value {
      type: DT_INT32
    }
  }
  attr {
    key: "_output_shapes"
    value {
      list {
        shape {
        }
      }
    }
  }
  attr {
    key: "keep_dims"
    value {
      b: false
    }
  }
}
node {
  name: "gradients/sparse_softmax_cross_entropy_loss/div_grad/Reshape"
  op: "Reshape"
  input: "gradients/sparse_softmax_cross_entropy_loss/div_grad/Sum"
  input: "gradients/sparse_softmax_cross_entropy_loss/div_grad/Shape"
  attr {
    key: "T"
    value {
      type: DT_FLOAT
    }
  }
  attr {
    key: "Tshape"
    value {
      type: DT_INT32
    }
  }
  attr {
    key: "_output_shapes"
    value {
      list {
        shape {
        }
      }
    }
  }
}
node {
  name: "gradients/sparse_softmax_cross_entropy_loss/div_grad/Neg"
  op: "Neg"
  input: "sparse_softmax_cross_entropy_loss/Sum_1"
  attr {
    key: "T"
    value {
      type: DT_FLOAT
    }
  }
  attr {
    key: "_output_shapes"
    value {
      list {
        shape {
        }
      }
    }
  }
}
node {
  name: "gradients/sparse_softmax_cross_entropy_loss/div_grad/RealDiv_1"
  op: "RealDiv"
  input: "gradients/sparse_softmax_cross_entropy_loss/div_grad/Neg"
  input: "sparse_softmax_cross_entropy_loss/Select"
  attr {
    key: "T"
    value {
      type: DT_FLOAT
    }
  }
  attr {
    key: "_output_shapes"
    value {
      list {
        shape {
        }
      }
    }
  }
}
node {
  name: "gradients/sparse_softmax_cross_entropy_loss/div_grad/RealDiv_2"
  op: "RealDiv"
  input: "gradients/sparse_softmax_cross_entropy_loss/div_grad/RealDiv_1"
  input: "sparse_softmax_cross_entropy_loss/Select"
  attr {
    key: "T"
    value {
      type: DT_FLOAT
    }
  }
  attr {
    key: "_output_shapes"
    value {
      list {
        shape {
        }
      }
    }
  }
}
node {
  name: "gradients/sparse_softmax_cross_entropy_loss/div_grad/mul"
  op: "Mul"
  input: "gradients/sparse_softmax_cross_entropy_loss/value_grad/tuple/control_dependency"
  input: "gradients/sparse_softmax_cross_entropy_loss/div_grad/RealDiv_2"
  attr {
    key: "T"
    value {
      type: DT_FLOAT
    }
  }
  attr {
    key: "_output_shapes"
    value {
      list {
        shape {
        }
      }
    }
  }
}
node {
  name: "gradients/sparse_softmax_cross_entropy_loss/div_grad/Sum_1"
  op: "Sum"
  input: "gradients/sparse_softmax_cross_entropy_loss/div_grad/mul"
  input: "gradients/sparse_softmax_cross_entropy_loss/div_grad/BroadcastGradientArgs:1"
  attr {
    key: "T"
    value {
      type: DT_FLOAT
    }
  }
  attr {
    key: "Tidx"
    value {
      type: DT_INT32
    }
  }
  attr {
    key: "_output_shapes"
    value {
      list {
        shape {
        }
      }
    }
  }
  attr {
    key: "keep_dims"
    value {
      b: false
    }
  }
}
node {
  name: "gradients/sparse_softmax_cross_entropy_loss/div_grad/Reshape_1"
  op: "Reshape"
  input: "gradients/sparse_softmax_cross_entropy_loss/div_grad/Sum_1"
  input: "gradients/sparse_softmax_cross_entropy_loss/div_grad/Shape_1"
  attr {
    key: "T"
    value {
      type: DT_FLOAT
    }
  }
  attr {
    key: "Tshape"
    value {
      type: DT_INT32
    }
  }
  attr {
    key: "_output_shapes"
    value {
      list {
        shape {
        }
      }
    }
  }
}
node {
  name: "gradients/sparse_softmax_cross_entropy_loss/div_grad/tuple/group_deps"
  op: "NoOp"
  input: "^gradients/sparse_softmax_cross_entropy_loss/div_grad/Reshape"
  input: "^gradients/sparse_softmax_cross_entropy_loss/div_grad/Reshape_1"
}
node {
  name: "gradients/sparse_softmax_cross_entropy_loss/div_grad/tuple/control_dependency"
  op: "Identity"
  input: "gradients/sparse_softmax_cross_entropy_loss/div_grad/Reshape"
  input: "^gradients/sparse_softmax_cross_entropy_loss/div_grad/tuple/group_deps"
  attr {
    key: "T"
    value {
      type: DT_FLOAT
    }
  }
  attr {
    key: "_class"
    value {
      list {
        s: "loc:@gradients/sparse_softmax_cross_entropy_loss/div_grad/Reshape"
      }
    }
  }
  attr {
    key: "_output_shapes"
    value {
      list {
        shape {
        }
      }
    }
  }
}
node {
  name: "gradients/sparse_softmax_cross_entropy_loss/div_grad/tuple/control_dependency_1"
  op: "Identity"
  input: "gradients/sparse_softmax_cross_entropy_loss/div_grad/Reshape_1"
  input: "^gradients/sparse_softmax_cross_entropy_loss/div_grad/tuple/group_deps"
  attr {
    key: "T"
    value {
      type: DT_FLOAT
    }
  }
  attr {
    key: "_class"
    value {
      list {
        s: "loc:@gradients/sparse_softmax_cross_entropy_loss/div_grad/Reshape_1"
      }
    }
  }
  attr {
    key: "_output_shapes"
    value {
      list {
        shape {
        }
      }
    }
  }
}
node {
  name: "gradients/sparse_softmax_cross_entropy_loss/Sum_1_grad/Reshape/shape"
  op: "Const"
  attr {
    key: "_output_shapes"
    value {
      list {
        shape {
          dim {
          }
        }
      }
    }
  }
  attr {
    key: "dtype"
    value {
      type: DT_INT32
    }
  }
  attr {
    key: "value"
    value {
      tensor {
        dtype: DT_INT32
        tensor_shape {
          dim {
          }
        }
      }
    }
  }
}
node {
  name: "gradients/sparse_softmax_cross_entropy_loss/Sum_1_grad/Reshape"
  op: "Reshape"
  input: "gradients/sparse_softmax_cross_entropy_loss/div_grad/tuple/control_dependency"
  input: "gradients/sparse_softmax_cross_entropy_loss/Sum_1_grad/Reshape/shape"
  attr {
    key: "T"
    value {
      type: DT_FLOAT
    }
  }
  attr {
    key: "Tshape"
    value {
      type: DT_INT32
    }
  }
  attr {
    key: "_output_shapes"
    value {
      list {
        shape {
        }
      }
    }
  }
}
node {
  name: "gradients/sparse_softmax_cross_entropy_loss/Sum_1_grad/Const"
  op: "Const"
  attr {
    key: "_output_shapes"
    value {
      list {
        shape {
          dim {
          }
        }
      }
    }
  }
  attr {
    key: "dtype"
    value {
      type: DT_INT32
    }
  }
  attr {
    key: "value"
    value {
      tensor {
        dtype: DT_INT32
        tensor_shape {
          dim {
          }
        }
      }
    }
  }
}
node {
  name: "gradients/sparse_softmax_cross_entropy_loss/Sum_1_grad/Tile"
  op: "Tile"
  input: "gradients/sparse_softmax_cross_entropy_loss/Sum_1_grad/Reshape"
  input: "gradients/sparse_softmax_cross_entropy_loss/Sum_1_grad/Const"
  attr {
    key: "T"
    value {
      type: DT_FLOAT
    }
  }
  attr {
    key: "Tmultiples"
    value {
      type: DT_INT32
    }
  }
  attr {
    key: "_output_shapes"
    value {
      list {
        shape {
        }
      }
    }
  }
}
node {
  name: "gradients/sparse_softmax_cross_entropy_loss/Sum_grad/Reshape/shape"
  op: "Const"
  attr {
    key: "_output_shapes"
    value {
      list {
        shape {
          dim {
            size: 1
          }
        }
      }
    }
  }
  attr {
    key: "dtype"
    value {
      type: DT_INT32
    }
  }
  attr {
    key: "value"
    value {
      tensor {
        dtype: DT_INT32
        tensor_shape {
          dim {
            size: 1
          }
        }
        int_val: 1
      }
    }
  }
}
node {
  name: "gradients/sparse_softmax_cross_entropy_loss/Sum_grad/Reshape"
  op: "Reshape"
  input: "gradients/sparse_softmax_cross_entropy_loss/Sum_1_grad/Tile"
  input: "gradients/sparse_softmax_cross_entropy_loss/Sum_grad/Reshape/shape"
  attr {
    key: "T"
    value {
      type: DT_FLOAT
    }
  }
  attr {
    key: "Tshape"
    value {
      type: DT_INT32
    }
  }
  attr {
    key: "_output_shapes"
    value {
      list {
        shape {
          dim {
            size: 1
          }
        }
      }
    }
  }
}
node {
  name: "gradients/sparse_softmax_cross_entropy_loss/Sum_grad/Shape"
  op: "Shape"
…
            string_val: "./imgdownload/9/998DQW_d1de1b7c-2d58-4b6e-9431-9a4955427f52.jpg"
            string_val: "./imgdownload/9/LF4R39_a142b7bc-be4e-4270-a43f-2d5e40d9c69a.jpg"
            string_val: "./imgdownload/9/998DQW_8044578e-268d-4c85-a081-e5477a8f7035.jpg"
            string_val: "./imgdownload/9/99XTP9_239fce85-e53c-4245-b665-2356ff34b1cd.jpg"
            string_val: "./imgdownload/9/RB9Y7V_2474cff0-9033-4352-a5a9-69561fe4318f.jpg"
            string_val: "./imgdownload/9/8E974H_3ab6ee48-d595-4294-9761-8bcb34199f80.jpg"
            string_val: "./imgdownload/9/49P69J_69fa4149-f482-4f53-b7fb-07f30b97ddc7.jpg"
            string_val: "./imgdownload/9/49P69J_03d67f0a-0dd1-4449-aec6-c52f05fd172f.jpg"
            string_val: "./imgdownload/9/937D8N_abeff86c-ef6a-4fb3-9c94-6c241a86dfe6.jpg"
            string_val: "./imgdownload/9/Y9R7W7_45664c77-33e4-4999-96a3-1866972f025c.jpg"
            string_val: "./imgdownload/9/43U689_d2b80ceb-eda1-4be5-8d02-275c0d5755c6.jpg"
            string_val: "./imgdownload/9/X8BF79_625f2b6c-d080-4800-8c4a-1c378f76ab28.jpg"
            string_val: "./imgdownload/9/ZA9RSF_1c75d579-4031-4c24-a3b5-1095013bd66e.jpg"
            string_val: "./imgdownload/9/9UH99K_cb3cc7a2-f75c-48e6-9285-b95693ab4baf.jpg"
            string_val: "./imgdownload/V/U8J76V_423615cb-35cd-4fc1-8541-bf3cf7490a54.jpg"
            string_val: "./imgdownload/V/YZMVSF_0df04dee-29e0-4526-88dc-0cc9c6569cdc.jpg"
            string_val: "./imgdownload/V/C8V3ZD_0fc3a48d-8182-4533-874e-9488559d4a74.jpg"
            string_val: "./imgdownload/V/HVUCZ8_cdd2f257-c977-4edc-bf30-6fbb726ab630.jpg"
            string_val: "./imgdownload/V/3V7W5Y_b3d95a10-9ec0-4a5d-991a-07f185d2254a.jpg"
            string_val: "./imgdownload/V/RB9Y7V_4f36ef89-2cb0-4fd9-add3-f0bc3559031e.jpg"
            string_val: "./imgdownload/V/5ZDCZV_d2c29b50-fb4d-4551-ab46-b5a59ceec340.jpg"
            string_val: "./imgdownload/V/DXV7O3_ae1eb982-7cf9-4cea-afd4-62dc22740c3c.jpg"
            string_val: "./imgdownload/V/V5M5DI_15cd7c41-30a5-4015-9f91-647a882fdbed.jpg"
            string_val: "./imgdownload/V/8H56V7_1fa6e7e8-b712-44af-96af-459f604017f0.jpg"
            string_val: "./imgdownload/Y/YN7A6A_36839760-7262-4960-a121-6c15d1f0f3d4.jpg"
            string_val: "./imgdownload/Y/3V7W5Y_b1ef70d1-e6da-4755-a773-b7bf3b7313c7.jpg"
            string_val: "./imgdownload/Y/IO58NY_80900981-f26e-4efa-bc1f-691a22101f18.jpg"
            string_val: "./imgdownload/Y/SFY558_e68aa747-b4ab-486a-a175-14ef65ae31b1.jpg"
            string_val: "./imgdownload/Y/9H8Y8A_bc4debbb-5c56-4b78-b737-acc201bf39f5.jpg"
            string_val: "./imgdownload/Y/YZMVSF_c64349c8-651f-4bcb-98c8-165d9f3910c5.jpg"
            string_val: "./imgdownload/Y/Y78N53_4f568c67-f957-410a-9685-267e9814c95e.jpg"
            string_val: "./imgdownload/Y/7U7YT7_272eb0eb-36aa-482a-bf5a-e3ce4c9355fa.jpg"
            string_val: "./imgdownload/Y/RB9Y7V_3bdb996c-a28c-4417-98b1-95c85af034a1.jpg"
            string_val: "./imgdownload/Y/Y9R7W7_605514c0-5a3d-4702-ae84-7f9af211c5b3.jpg"
            string_val: "./imgdownload/Y/I73OYO_9e182343-3a95-47cf-b56e-70797268b605.jpg"
            string_val: "./imgdownload/S/ZA9RSF_5072b85c-d6b5-4952-9034-c73f687570c0.jpg"
            string_val: "./imgdownload/S/9RSS8P_8dc6ca8c-f069-4ccb-850e-d379ce4b8962.jpg"
            string_val: "./imgdownload/S/SFY558_6f430397-cc29-493e-92fb-160606600a7c.jpg"
            string_val: "./imgdownload/S/M8HW8S_106a75d9-1e70-45de-a664-c93b8c6d6d5f.jpg"
            string_val: "./imgdownload/S/7BSIO9_9ced7e20-058e-4641-a2c2-5d1498bce0a9.jpg"
            string_val: "./imgdownload/S/J3CNES_d17497cf-7117-47ff-9156-61e97d8aa68b.jpg"
            string_val: "./imgdownload/S/YZMVSF_51d2703c-495c-4a5c-96c5-191e9a0f4578.jpg"
            string_val: "./imgdownload/S/9RSS8P_a9da6af0-4356-4209-866d-c8d3e0ebb6db.jpg"
            string_val: "./imgdownload/S/84S8KG_f7bd5944-ac2b-4128-b8b9-39097e6ea57d.jpg"
            string_val: "./imgdownload/S/S947GC_f3f5f9da-4953-4d39-b87a-a7eec576cbbc.jpg"
            string_val: "./imgdownload/S/I78QUS_48e3c01b-772f-484a-bd94-e1099b419b39.jpg"
            string_val: "./imgdownload/8/83UA38_7279098a-5de1-40ad-b02a-207bd059796d.jpg"
            string_val: "./imgdownload/8/8HUA58_922f4cc0-1c9a-4087-992e-67e521cc4eca.jpg"
            string_val: "./imgdownload/8/4K4854_c34a99a5-7e92-4fab-8a3a-ac2fbefb2589.jpg"
            string_val: "./imgdownload/8/387445_c6b51140-587d-4e43-9b7a-9fb3dc46748c.jpg"
            string_val: "./imgdownload/8/8O6L86_5db1cb41-4aa8-474f-9ce2-b2b628434a27.jpg"
            string_val: "./imgdownload/8/9486NC_5591ea09-8d7c-4111-967b-6113eb39e73f.jpg"
            string_val: "./imgdownload/8/8HUA58_5eb11a99-9b44-4dec-9023-1889bbee8d84.jpg"
            string_val: "./imgdownload/8/5DZ8LF_6d6b9b5a-c94d-49d4-817c-a763b2878604.jpg"
            string_val: "./imgdownload/8/396X8L_b58aa693-e0d2-4be2-937b-3f37be50c2e0.jpg"
            string_val: "./imgdownload/8/9RSS8P_a3602a44-7b82-43c0-a3bf-265f3f015b89.jpg"
            string_val: "./imgdownload/8/9H8Y8A_6deb8f17-ab4a-4f17-aeb3-536936cd9df3.jpg"
            string_val: "./imgdownload/8/8H56V7_582d3cf2-e2c5-4b48-b074-9b4476c13bcc.jpg"
            string_val: "./imgdownload/8/4XWL68_f1070e7d-63d7-4923-919c-eb653166840c.jpg"
            string_val: "./imgdownload/8/83UA38_d57cd3b1-e233-48ce-bf02-601f38d5c868.jpg"
            string_val: "./imgdownload/8/X8BF79_c4a92b57-57ef-47c5-8380-292efa98a278.jpg"
            string_val: "./imgdownload/8/84S8KG_8145a293-75d5-422f-a483-514c08fa2b34.jpg"
            string_val: "./imgdownload/8/7L7858_45ed55cb-9f31-4dea-8de4-b21b7b3e807b.jpg"
            string_val: "./imgdownload/8/9H8Y8A_dfd1b983-8dfe-4a24-bf98-5a91e99ce290.jpg"
            string_val: "./imgdownload/8/H7Q458_a6264af7-bdeb-4392-be68-9c957cdfe653.jpg"
            string_val: "./imgdownload/8/U8J76V_7101735b-0d92-4963-98b0-6554bc411d04.jpg"
            string_val: "./imgdownload/8/SFY558_1f6f60cb-03a5-4ed3-9622-d70ff27f09c5.jpg"
            string_val: "./imgdownload/8/I78QUS_59f8112f-ffc0-4a2b-9613-55deabe2573d.jpg"
            string_val: "./imgdownload/8/78F7CD_02f500ef-ffea-4956-be02-a0b8252bb39d.jpg"
            string_val: "./imgdownload/8/M8HW8S_8ca1b839-342d-42ec-b0ce-b903ee66c900.jpg"
            string_val: "./imgdownload/8/7L7858_0e38fbee-18dd-456a-8864-60666c94561f.jpg"
            string_val: "./imgdownload/8/M8HW8S_b88d56c5-6a80-4823-85d2-57e8d398a1a0.jpg"
            string_val: "./imgdownload/8/N865H9_4a558be2-545c-48d0-810b-409197122238.jpg"
            string_val: "./imgdownload/8/O7Q58B_43284771-77c4-4018-a933-ddae481778dc.jpg"
            string_val: "./imgdownload/8/8O6L86_f099b531-d50e-4c16-be2d-cd0463f26657.jpg"
            string_val: "./imgdownload/8/937D8N_c50eaf96-94a1-4a09-86ef-a96377fed98d.jpg"
            string_val: "./imgdownload/8/Q64JZ8_546e522c-1e62-41d8-a4b7-23d5bc1acf71.jpg"
            string_val: "./imgdownload/8/D58D5N_ea2048ce-561f-4d96-bf0f-034a04c2d991.jpg"
            string_val: "./imgdownload/8/IO58NY_c9f8e5af-bf2d-4eb8-a06d-f7146b1c9ad2.jpg"
            string_val: "./imgdownload/8/998DQW_79229fb7-f613-4b86-a751-66ce48a0e27d.jpg"
            string_val: "./imgdownload/8/Y78N53_a5b6a016-3ec4-4b1e-8837-e4fdcd458768.jpg"
            string_val: "./imgdownload/8/456TI8_8d49fb73-3832-47ca-92eb-218af38d64ef.jpg"
            string_val: "./imgdownload/8/43U689_75d733c9-6261-4289-8071-395cb0af52c1.jpg"
            string_val: "./imgdownload/8/84S8KG_563b595f-2965-4bfa-ac3d-bb41d3ac3368.jpg"
            string_val: "./imgdownload/8/HVUCZ8_c0d5a73c-23c1-4f23-bc47-03a1b9f7eb2a.jpg"
            string_val: "./imgdownload/8/8E974H_2816bb04-818f-4d53-a65d-ff0a57056f73.jpg"
            string_val: "./imgdownload/8/8H7334_d5ad7229-a448-4e43-9099-015e500b4483.jpg"
            string_val: "./imgdownload/8/L5589A_5d38de65-f4e6-4512-8303-0a6239a3e6e1.jpg"
            string_val: "./imgdownload/8/C8V3ZD_5e3dda4d-b1cf-49c4-b9ea-a3c3bc283ca6.jpg"
            string_val: "./imgdownload/U/7UOQ7Z_2c9cd859-bc9d-4b36-891f-4bf0f2ce4443.jpg"
            string_val: "./imgdownload/U/8HUA58_b8e135d1-d823-402a-bf1d-5e6711d111a8.jpg"
            string_val: "./imgdownload/U/43U689_71c40831-4856-49f0-9be6-640516dd2f11.jpg"
            string_val: "./imgdownload/U/9UH99K_4f7352f7-14e5-4cdb-a3bb-8ad812fe2f0d.jpg"
            string_val: "./imgdownload/U/9U6W3X_d752334a-ab26-41f1-b8c3-40e57a5bbba5.jpg"
            string_val: "./imgdownload/U/I78QUS_196ed4c9-1d68-4312-940f-367dd73b03ba.jpg"
            string_val: "./imgdownload/U/U8J76V_ee688f18-9e9a-4b32-b870-138c53f53e5f.jpg"
            string_val: "./imgdownload/U/83UA38_1f1d9616-c3d0-4572-8abf-8eb8a6310dc2.jpg"
            string_val: "./imgdownload/U/GWUI6A_a68d537a-8503-47fe-9297-a107b5ac904d.jpg"
            string_val: "./imgdownload/U/EU5LJT_6676da27-4181-4a29-9d69-ce9fff26a8c9.jpg"
            string_val: "./imgdownload/U/ULXI9N_fb830017-5143-4f42-a9de-4d8f8bba076f.jpg"
            string_val: "./imgdownload/U/7U7YT7_f5b9f0fe-ecd6-4da1-927b-cbde0dcf427b.jpg"
            string_val: "./imgdownload/U/UCCZKD_1645afd1-4e59-45f4-84fe-0904bc252a91.jpg"
            string_val: "./imgdownload/U/HVUCZ8_56281147-07e2-468f-8c68-7bfdd8858c3c.jpg"
            string_val: "./imgdownload/C/J3CNES_c44752c1-54e0-44a0-8560-5ae30e41fb1a.jpg"
            string_val: "./imgdownload/C/S947GC_1ce5291c-b8d7-4b31-a2b6-23b285cf8bf2.jpg"
            string_val: "./imgdownload/C/4B66C5_c618ea56-c3f7-45d7-8fe2-f717369a824a.jpg"
            string_val: "./imgdownload/C/UCCZKD_0be4ed6a-5d10-47e9-809e-10698855ee52.jpg"
            string_val: "./imgdownload/C/TDLCOL_e3850cf7-92d5-475e-9d64-a2a74320f769.jpg"
            string_val: "./imgdownload/C/QTPCF4_560da13b-2f02-44b9-8d8b-e190b177d083.jpg"
            string_val: "./imgdownload/C/HVUCZ8_31d7f142-2bf3-4436-810d-810b9287e192.jpg"
            string_val: "./imgdownload/C/78F7CD_cf5e8165-8123-4b78-a97a-3cec85011068.jpg"
            string_val: "./imgdownload/C/5ZDCZV_0c415be8-0eb8-478e-8a82-ed8a2ab19950.jpg"
            string_val: "./imgdownload/C/KICRBJ_7b0f38ea-bb08-4545-823b-0472bdc84734.jpg"
            string_val: "./imgdownload/C/5XCXHO_1f33a6f6-b039-423c-b46d-3ab7c7595c1d.jpg"
            string_val: "./imgdownload/C/UCCZKD_665949a1-2a67-47b7-83de-c32d9e200907.jpg"
            string_val: "./imgdownload/C/C8V3ZD_75306381-f95f-4ae5-bdbb-6321e90b06e7.jpg"
            string_val: "./imgdownload/C/9486NC_263e69e3-3a0b-42b3-9acb-a030ee68a5d9.jpg"
            string_val: "./imgdownload/6/53B6O5_fe4aacbc-3494-44b3-9b76-c36009378f73.jpg"
            string_val: "./imgdownload/6/8H56V7_53f3a77e-b269-40be-a1f6-6d8c479bc932.jpg"
            string_val: "./imgdownload/6/7QH6K4_e0236492-6111-4c2b-b95e-db98d6406eda.jpg"
            string_val: "./imgdownload/6/4B66C5_116e1ff3-5f03-494c-9dba-6f8d383f6398.jpg"
            string_val: "./imgdownload/6/6J5IWH_284fa785-ecec-4672-851a-69ac8b3a8c99.jpg"
            string_val: "./imgdownload/6/P653I4_0758fdae-1761-4593-ac8a-da44fd24cc02.jpg"
            string_val: "./imgdownload/6/II6B37_f52c2edf-55fa-4021-a537-b11214f1a1b9.jpg"
            string_val: "./imgdownload/6/456TI8_0ec498fa-9b92-4ffe-8535-8f4121d65be0.jpg"
            string_val: "./imgdownload/6/N865H9_425b6138-c158-44e4-ae98-d8d240f985a9.jpg"
            string_val: "./imgdownload/6/9U6W3X_42218805-b820-4b99-abf6-7f27249614d8.jpg"
            string_val: "./imgdownload/6/7569KW_221b808a-8002-4478-bd93-356180b3a472.jpg"
            string_val: "./imgdownload/6/6TTJL3_ea83f9b6-438c-4bf9-a644-20b94b101131.jpg"
            string_val: "./imgdownload/6/5645W7_5e914b75-f564-4e26-a8d1-e901ba2e463d.jpg"
            string_val: "./imgdownload/6/8O6L86_d0fe1697-36e6-4db0-931b-1a25658e91c4.jpg"
            string_val: "./imgdownload/6/GWUI6A_bfa7c21c-4156-4764-a521-4904cf94254f.jpg"
            string_val: "./imgdownload/6/4XWL68_56c8ba0e-a068-48a0-b90a-1990382f46b7.jpg"
            string_val: "./imgdownload/6/9486NC_f4933102-fd35-4f7c-8cfd-acf6adabecae.jpg"
            string_val: "./imgdownload/6/49P69J_90bfc720-9d02-468c-b170-12546b1b1e4e.jpg"
            string_val: "./imgdownload/6/Q64JZ8_21f17810-0826-429a-8487-6885ce93a6cd.jpg"
            string_val: "./imgdownload/6/YN7A6A_a66a8e48-665d-4765-8ff9-788c320434c3.jpg"
            string_val: "./imgdownload/6/K9I6Z5_15737106-2638-40f9-aa6f-fcdd953f54a3.jpg"
            string_val: "./imgdownload/6/U8J76V_dc0b8261-d477-4e6a-bea4-11bffcc59c22.jpg"
            string_val: "./imgdownload/6/454366_e05b0ecb-3605-4d2e-a88e-899ed82f8a4e.jpg"
            string_val: "./imgdownload/6/34G567_af9bc153-44b8-4545-bc37-d1062d35bbf6.jpg"
            string_val: "./imgdownload/6/8O6L86_292b6f28-572d-4842-b09d-d380fe2c72d7.jpg"
            string_val: "./imgdownload/6/L7NN6R_affbc6bc-d47f-4a62-bb39-dd77dc9882c6.jpg"
            string_val: "./imgdownload/6/396X8L_9ee1168e-9f0b-4f37-a107-7db721de858e.jpg"
            string_val: "./imgdownload/6/43U689_2074c7ad-caa7-43d1-a4cc-caa09d382c82.jpg"
            string_val: "./imgdownload/6/454366_5a23701d-8685-461b-a620-59ecc1276eb0.jpg"
            string_val: "./imgdownload/6/4B66C5_fa1acffd-c70c-4cac-8a47-a80333b33dd5.jpg"
            string_val: "./imgdownload/K/84S8KG_e3ce77fb-edc7-46e9-bb5d-deeb114410b9.jpg"
            string_val: "./imgdownload/K/7QH6K4_e5d20360-37d7-4053-92c0-d860ea933695.jpg"
            string_val: "./imgdownload/K/7569KW_30caf471-0c6b-42fd-94a4-9bcc5cf6203b.jpg"
            string_val: "./imgdownload/K/G4ZK93_8df1efe9-2ca0-4a43-bc72-5a06f9280a92.jpg"
            string_val: "./imgdownload/K/KICRBJ_4698a1b8-4afc-435c-a516-008b7e3a6fa7.jpg"
            string_val: "./imgdownload/K/4K4854_f6ac7f3f-79e7-42b1-98ee-89c29c9f1587.jpg"
            string_val: "./imgdownload/K/UCCZKD_01c76a8e-8a1e-40c9-8993-1492a4fef544.jpg"
            string_val: "./imgdownload/K/K9I6Z5_6cad20b0-1ea0-43b5-a684-1633bd37f2af.jpg"
            string_val: "./imgdownload/K/9UH99K_603388c1-6ba7-43ed-81ea-24fa11dc4421.jpg"
            string_val: "./imgdownload/F/QTPCF4_f9d07ddc-2c90-4106-b4c9-9c5cfa052a81.jpg"
            string_val: "./imgdownload/F/P9F554_3986f179-9ece-49bb-9952-05af7300cb5f.jpg"
            string_val: "./imgdownload/F/YZMVSF_3d8c4a7b-8970-4720-b1dc-f29d4d700379.jpg"
            string_val: "./imgdownload/F/X8BF79_3a8f4e16-28a8-4a85-973b-5188e8e34e6e.jpg"
            string_val: "./imgdownload/F/ZA9RSF_5b8c6db8-54a6-4ecf-8726-01125f0e48da.jpg"
            string_val: "./imgdownload/F/SFY558_2644d274-3e21-49b9-b81d-2edcabb52182.jpg"
            string_val: "./imgdownload/F/BFJI77_4c6510b4-3a6e-42e7-8484-0622570474c4.jpg"
            string_val: "./imgdownload/F/LF4R39_41ecee1e-57f5-464b-a6a5-12832e6acbc4.jpg"
            string_val: "./imgdownload/F/78F7CD_55b0db5c-ff27-42d2-b01b-b4ef21a9a568.jpg"
            string_val: "./imgdownload/F/5DZ8LF_848b2464-c0fd-48db-aa74-52eb44978c00.jpg"
            string_val: "./imgdownload/3/937D8N_629f3abd-d899-4b71-9324-d3448d3e2eec.jpg"
            string_val: "./imgdownload/3/43U689_6308682d-99ce-48de-a5e0-2ffdc50a6079.jpg"
            string_val: "./imgdownload/3/G4ZK93_e54d433e-8d8a-4cac-980a-dbb818027e65.jpg"
            string_val: "./imgdownload/3/4J3RBA_801f9600-2d1c-4c3f-8596-4c7bde2e9189.jpg"
            string_val: "./imgdownload/3/LF4R39_37642ab2-f3b1-46e3-9da3-e640f232e494.jpg"
            string_val: "./imgdownload/3/75T7H3_0fef8792-6084-487e-b04f-c7d27ebe4ecc.jpg"
            string_val: "./imgdownload/3/9U6W3X_4f55813a-6a0e-47c2-9f50-679bb95abe62.jpg"
            string_val: "./imgdownload/3/454366_a27f5916-7926-464f-86f8-361c16e4cd28.jpg"
            string_val: "./imgdownload/3/I73OYO_cd456ab6-6a81-4174-9483-0d76a116c280.jpg"
            string_val: "./imgdownload/3/387445_d6988ae2-ed39-4d63-8c5f-413b08cd2e8c.jpg"
            string_val: "./imgdownload/3/ZZ5R43_ff1a1e10-60c4-4bec-9bf4-dd1e78718fc1.jpg"
            string_val: "./imgdownload/3/34G567_8c56113e-98e6-4c95-b6b0-8a020ef4adef.jpg"
            string_val: "./imgdownload/3/XIRJ39_5281c774-4026-4396-bcb3-7847541a914e.jpg"
            string_val: "./imgdownload/3/6TTJL3_8ed037a2-d4e4-4220-97d2-25773519412b.jpg"
            string_val: "./imgdownload/3/DXV7O3_c0d8eed6-b56a-42c8-8f4f-8bf203d213bb.jpg"
            string_val: "./imgdownload/3/Y78N53_117ee868-6da4-4ef9-ac8b-d2e93594fa8b.jpg"
            string_val: "./imgdownload/3/O5H4B3_693b82da-c35c-4310-8138-bfa3b3b6c3f2.jpg"
            string_val: "./imgdownload/3/J3CNES_64664466-3bdb-4ebf-9c56-fbe59ed55cf4.jpg"
            string_val: "./imgdownload/3/8H7334_60d6b6b6-8174-47ed-96b9-959443e5aa70.jpg"
            string_val: "./imgdownload/3/C8V3ZD_62f16070-ebba-491f-9f41-8481e727f4c7.jpg"
            string_val: "./imgdownload/3/MOM9A3_1ec53727-abe4-4013-bf3d-33c18af89f5b.jpg"
            string_val: "./imgdownload/3/8H7334_ed29667d-3b8e-4f4e-8de9-fbe0e7d25bb8.jpg"
            string_val: "./imgdownload/3/53B6O5_0ac8b955-cda9-487e-9727-63562bee7eee.jpg"
            string_val: "./imgdownload/3/II6B37_9198581b-a680-4b0a-a285-a2ab98d53f30.jpg"
            string_val: "./imgdownload/3/P653I4_3a93f295-fe6b-41cf-96bf-4d474e135294.jpg"
            string_val: "./imgdownload/3/3V7W5Y_7272741f-3a8e-4aac-8fc6-c97fe58ffce3.jpg"
            string_val: "./imgdownload/3/396X8L_98cb6788-842b-4584-81a0-08d6aa65ad30.jpg"
            string_val: "./imgdownload/3/83UA38_ed728f95-b4c5-4ab5-b663-3bc7c50fefcc.jpg"
            string_val: "./imgdownload/3/34GGO5_64a7b083-6b08-4fee-b7cd-19b990d7c814.jpg"
            string_val: "./imgdownload/3/9W4H73_544f6e1a-fa53-49bb-9d31-ceff72513ade.jpg"
            string_val: "./imgdownload/3/3QZB7O_7b76fa8a-79e8-4351-9994-8c6624dd2052.jpg"
            string_val: "./imgdownload/3/83UA38_74620660-dc54-438a-a3d9-93f3e9e0f988.jpg"
            string_val: "./imgdownload/W/4XWL68_0a59ec8c-2d76-4eba-a41c-1719ec391fe4.jpg"
            string_val: "./imgdownload/W/5645W7_e9cff1f1-73e0-4041-be94-17195502e076.jpg"
            string_val: "./imgdownload/W/GWUI6A_79f4c8c3-36c5-4240-a6f2-31e42194442a.jpg"
            string_val: "./imgdownload/W/7569KW_03a88741-2048-4ddd-98cc-e955218e10e3.jpg"
            string_val: "./imgdownload/W/3V7W5Y_350fc9ca-6378-4c12-9b26-4c439a7fa41a.jpg"
            string_val: "./imgdownload/W/6J5IWH_cecb0d69-9466-463f-ae17-c72ace0c8c5b.jpg"
            string_val: "./imgdownload/W/Y9R7W7_cb55f11b-fe26-49d5-afc3-65c600983c66.jpg"
            string_val: "./imgdownload/W/998DQW_02ea8385-9b8f-4ea0-a74e-2a750081c95f.jpg"
            string_val: "./imgdownload/W/9W4H73_2567c6a7-91ff-4ac6-9440-de17967f8304.jpg"
            string_val: "./imgdownload/W/9U6W3X_68293eb6-488a-4fd3-b917-9de7be4877ad.jpg"
            string_val: "./imgdownload/W/M8HW8S_72644cbc-30bc-4ea8-b220-370016e402f8.jpg"
            string_val: "./imgdownload/W/MW95OP_05b48d97-2299-4f31-a20e-9b94dbc465e8.jpg"
            string_val: "./imgdownload/E/EU5LJT_b7558435-55e2-48df-ae49-444b60607435.jpg"
            string_val: "./imgdownload/E/EEM7Q4_574a4cf8-7a2d-4bfc-8a8c-f2a060bfaeab.jpg"
            string_val: "./imgdownload/E/EEM7Q4_b808f59f-4d12-4f62-848f-891334e1238e.jpg"
            string_val: "./imgdownload/E/8E974H_34c980c3-3d9e-4c1c-ad8b-482b5aa9c247.jpg"
            string_val: "./imgdownload/E/J3CNES_f0f362ad-2357-4750-b742-7022da2bb827.jpg"
            string_val: "./imgdownload/E/BQE5OI_8ae1e6b8-3132-451b-904a-88ffa44e544c.jpg"
            string_val: "./imgdownload/E/EBJA74_b79e7166-3f17-45fc-8f50-d212e81f606a.jpg"
            string_val: "./imgdownload/E/7ZD5EM_0647ff7e-a2db-482d-b452-c3aec99895e3.jpg"
            string_val: "./imgdownload/X/X8BF79_1db1a246-ef17-494c-a931-9158b7080765.jpg"
            string_val: "./imgdownload/X/5XCXHO_61c91f9f-9139-4941-8f8b-3b774d31c67b.jpg"
            string_val: "./imgdownload/X/99XTP9_4403fb40-beb0-49be-a852-95f059ceef60.jpg"
            string_val: "./imgdownload/X/DXV7O3_474d2a0c-84b7-4503-a484-8651412a9bbc.jpg"
            string_val: "./imgdownload/X/4XWL68_74e45b1b-c3f6-41cc-951f-558800682c6c.jpg"
            string_val: "./imgdownload/X/396X8L_c2b24433-43fa-4324-b5af-3ee4a067c016.jpg"
            string_val: "./imgdownload/X/ULXI9N_0971f7ab-bbfc-4e8c-bd59-11afe7603342.jpg"
            string_val: "./imgdownload/X/9U6W3X_030c620c-9eff-4562-9ebb-962f7a319768.jpg"
            string_val: "./imgdownload/X/5XCXHO_e9914af5-ed54-4033-b7d8-76f7cd92f6be.jpg"
            string_val: "./imgdownload/X/XIRJ39_78546a77-bf15-46f9-b532-074b7f94284e.jpg"
            string_val: "./imgdownload/Z/ZZ5R43_338d730d-602d-4712-83b1-f226dd8b7098.jpg"
            string_val: "./imgdownload/Z/3QZB7O_a36b76a6-9533-49fb-bed4-73fcd61418f5.jpg"
            string_val: "./imgdownload/Z/HVUCZ8_29c19ae5-54ae-4d7a-bdbd-5a9c9fed589c.jpg"
            string_val: "./imgdownload/Z/5ZDCZV_21d990ad-0e67-4002-bf5a-9b0a3e58edb3.jpg"
            string_val: "./imgdownload/Z/ZA9RSF_5438facf-dc7a-4006-809f-648f342fa721.jpg"
            string_val: "./imgdownload/Z/Q64JZ8_4d6c296b-2146-4812-a38c-228ca10e0c40.jpg"
            string_val: "./imgdownload/Z/YZMVSF_e2525e76-2eb7-441a-bc30-6cbe80feeec3.jpg"
            string_val: "./imgdownload/Z/9795Z5_c08115fe-740d-4585-9f28-cff06a185c9e.jpg"
            string_val: "./imgdownload/Z/UCCZKD_60525838-53ce-4015-a6a2-ff989fecbc0c.jpg"
            string_val: "./imgdownload/Z/7UOQ7Z_31ca8839-662c-478e-a046-e672c2c74666.jpg"
            string_val: "./imgdownload/Z/7ZD5EM_1d6ff2ba-e3b2-4bc8-b540-2454daa441f9.jpg"
            string_val: "./imgdownload/Z/G4ZK93_2f8f9bb7-4429-476b-9be5-1ab848333dba.jpg"
            string_val: "./imgdownload/Z/5DZ8LF_795bab5f-e595-4a36-9ce3-c6a738e92f1d.jpg"
            string_val: "./imgdownload/Z/ZZ5R43_d78a2350-8dff-46bc-aaf0-56a22533fd10.jpg"
            string_val: "./imgdownload/Z/C8V3ZD_64095075-1136-4dab-b4a0-d9592a320c14.jpg"
            string_val: "./imgdownload/Z/K9I6Z5_d1732468-1ce4-4373-be9e-c628c4fa42c2.jpg"
            string_val: "./imgdownload/Z/5ZDCZV_822959a3-20e3-4c5f-82e8-abf5c96465e8.jpg"
            string_val: "./imgdownload/T/6TTJL3_714878d1-7f3f-4345-98a9-90661324bd6c.jpg"
            string_val: "./imgdownload/T/QTPCF4_7c34ba21-880a-492c-aaba-ef8eb870202c.jpg"
            string_val: "./imgdownload/T/TDLCOL_f982e302-a0f6-45b5-a802-545bb911ad5a.jpg"
            string_val: "./imgdownload/T/7U7YT7_558cb40c-2a83-48c5-991f-2e6f5fb29126.jpg"
            string_val: "./imgdownload/T/456TI8_6b9e4626-9aae-410b-9a5f-d9abaa0e16f1.jpg"
            string_val: "./imgdownload/T/75T7H3_2e040e4e-d39d-43b7-9a9c-d0e366bf3819.jpg"
            string_val: "./imgdownload/T/99XTP9_0e7962b0-daf9-4630-8a62-7c8653cb457c.jpg"
            string_val: "./imgdownload/T/T94574_f8941c1b-aa22-4eb3-a40a-f5f8f3db5c94.jpg"
            string_val: "./imgdownload/T/EU5LJT_9e49319f-d8b3-427d-a473-55a03f91741e.jpg"
            string_val: "./imgdownload/T/6TTJL3_991614b5-aa98-40d0-b4d7-f52d7c3e5c21.jpg"
            string_val: "./imgdownload/G/GWUI6A_4554a1e7-eb2e-406e-a9ba-2323615a8d16.jpg"
            string_val: "./imgdownload/G/G4ZK93_50a9686a-8312-4d28-a0b8-c0c61ab30041.jpg"
            string_val: "./imgdownload/G/84S8KG_1e9ef059-c13b-4dc1-8647-b67c0d34cd96.jpg"
            string_val: "./imgdownload/G/34GGO5_09661c20-c37e-464b-8bf7-91228f0c623b.jpg"
            string_val: "./imgdownload/G/34GGO5_ca5096d1-5b1f-4b84-a42a-c4636a31566f.jpg"
            string_val: "./imgdownload/G/34G567_50a47747-cb06-47ce-8801-c30553d1b819.jpg"
            string_val: "./imgdownload/G/S947GC_fe9b4668-5982-4191-9533-2d48a96653a7.jpg"
            string_val: "./imgdownload/A/8HUA58_2521418c-70f1-488e-a1a9-8648df224514.jpg"
            string_val: "./imgdownload/A/YN7A6A_dc946fdb-7ee8-44d7-b148-7d214c78807b.jpg"
            string_val: "./imgdownload/A/YN7A6A_8ea05731-6f9d-430c-b07e-99484823e083.jpg"
            string_val: "./imgdownload/A/MOM9A3_61d6b227-4ae1-4dc4-baae-d0457b77f245.jpg"
            string_val: "./imgdownload/A/ZA9RSF_df79dbf1-b486-4d2d-a257-978e4ae332c8.jpg"
            string_val: "./imgdownload/A/GWUI6A_fd123153-ac7f-42fb-916d-80530a3dedd3.jpg"
            string_val: "./imgdownload/A/9H8Y8A_b509276d-da3a-41aa-8ba4-fa525f1a6b0a.jpg"
            string_val: "./imgdownload/A/EBJA74_bced530d-cc34-4b55-8692-0ca80dcbea4b.jpg"
            string_val: "./imgdownload/A/83UA38_6fb507b8-1fe8-42c4-a6eb-9abed4e3ce34.jpg"
            string_val: "./imgdownload/A/4J3RBA_79463529-19eb-4d8c-8d14-ce5e3bd4fcf6.jpg"
            string_val: "./imgdownload/A/L5589A_a765995f-242d-4b5c-8cd4-ecc6fcf0fb12.jpg"
            string_val: "./imgdownload/Q/EEM7Q4_7adb4c41-bcaf-4d90-bb6e-03e71a84f603.jpg"
            string_val: "./imgdownload/Q/H7Q458_e33670be-f001-49a5-a0f2-e64ebda62d85.jpg"
            string_val: "./imgdownload/Q/Q64JZ8_03c44850-873c-4ac8-aeea-6b1c9eb71db6.jpg"
            string_val: "./imgdownload/Q/O7Q58B_c6a33abb-73e5-4d64-ad59-e5043df8afc8.jpg"
            string_val: "./imgdownload/Q/BQE5OI_1d52a017-79f5-466a-b343-8222b4595c59.jpg"
            string_val: "./imgdownload/Q/ON5DJQ_37887a5a-82aa-49a3-a10d-d42b4d0f99a5.jpg"
            string_val: "./imgdownload/Q/7UOQ7Z_21e7314b-c57e-4703-a37c-c08629416399.jpg"
            string_val: "./imgdownload/Q/QTPCF4_aadbb0a3-5689-49b1-93e3-bcb42941fced.jpg"
            string_val: "./imgdownload/Q/998DQW_b7af3de6-1393-42f0-8bc0-04504c221ba2.jpg"
            string_val: "./imgdownload/Q/7QH6K4_447a8817-aa2c-47f7-8467-daab424552c6.jpg"
            string_val: "./imgdownload/Q/3QZB7O_d129bb3d-bbb7-495a-8f08-60aea26c1d5a.jpg"
            string_val: "./imgdownload/Q/I78QUS_e63ea80c-1bed-4b2f-a314-b2c7bd66604e.jpg"
            string_val: "./imgdownload/H/5HJ9M4_e83a3cb0-352c-4aa2-855f-965b9aa76ad3.jpg"
            string_val: "./imgdownload/H/M8HW8S_f60b6c81-b8b5-4666-93d6-b32992f16a3b.jpg"
            string_val: "./imgdownload/H/N865H9_1fc3f12b-180a-48dc-865f-f3621fb4277a.jpg"
            string_val: "./imgdownload/H/H7Q458_32489dfe-88ea-4815-8db2-4dfc2048a377.jpg"
            string_val: "./imgdownload/H/9W4H73_a9da4640-f26e-4c49-99b0-3d8247538220.jpg"
            string_val: "./imgdownload/H/HVUCZ8_7da482d0-9d77-4257-92e4-c07531fe1b4c.jpg"
            string_val: "./imgdownload/H/6J5IWH_65936880-409f-42fb-90a0-00ebfacd34d4.jpg"
            string_val: "./imgdownload/H/75T7H3_d111efd5-6d7e-4b45-bbd5-24e73012aa8c.jpg"
            string_val: "./imgdownload/H/9H8Y8A_d82a6fbe-3ec4-4970-ab13-92f64242aac2.jpg"
            string_val: "./imgdownload/H/5XCXHO_ba0b0fa3-3554-46c3-bc9c-60852671336f.jpg"
            string_val: "./imgdownload/H/8H7334_94dafef6-a29e-41c0-b570-313851e95bbc.jpg"
            string_val: "./imgdownload/H/8E974H_4850095c-1495-400c-8706-ca4f934ab1ea.jpg"
            string_val: "./imgdownload/H/O5H4B3_354dfa3b-67a0-4424-9e52-16691d2462fc.jpg"
            string_val: "./imgdownload/H/8HUA58_3d4d082f-f83a-4f22-b919-ecba95802c52.jpg"
            string_val: "./imgdownload/H/8H56V7_e5ffedbf-5dd7-4cc0-b10d-1ac1e7625abb.jpg"
            string_val: "./imgdownload/H/7QH6K4_04deec5e-bea3-4265-b645-cb2c8aa5c308.jpg"
            string_val: "./imgdownload/H/9UH99K_fdace834-4d2d-48db-bb3d-0329901dbaf0.jpg"
            string_val: "./imgdownload/P/99XTP9_ffd49ec9-a158-4d78-b4cb-24d939038ff6.jpg"
            string_val: "./imgdownload/P/49P69J_c64d39b6-405e-4e62-a01e-5abb2dfd9004.jpg"
            string_val: "./imgdownload/P/P9F554_369ea5b6-a808-419d-86d0-d85b6a545efb.jpg"
            string_val: "./imgdownload/P/QTPCF4_e71c9b10-ef12-4b54-890c-f6f48d027710.jpg"
            string_val: "./imgdownload/P/9RSS8P_156f4e09-e0cd-45a0-aa26-662a807aec79.jpg"
            string_val: "./imgdownload/P/P653I4_a67cc7bc-ba11-482c-9c06-d95155b217a6.jpg"
            string_val: "./imgdownload/P/MW95OP_74b07b23-a0ec-4cd0-97c2-5fbdd79871af.jpg"
            string_val: "./imgdownload/R/9RSS8P_afa75adb-9c71-4e2a-b948-014dda23e5ca.jpg"
            string_val: "./imgdownload/R/XIRJ39_b589a81b-86db-4f77-bf27-61ab9cef8a11.jpg"
            string_val: "./imgdownload/R/RB9Y7V_782177f1-599a-441b-aeea-5a9274692feb.jpg"
            string_val: "./imgdownload/R/LF4R39_cd607219-2e0f-4753-a1bf-1684ddc2a62f.jpg"
            string_val: "./imgdownload/R/4J3RBA_64380519-d2d3-4062-bfb1-042fd773746d.jpg"
            string_val: "./imgdownload/R/Y9R7W7_80e409fc-70b3-48eb-b6d4-dc6130b9e59b.jpg"
            string_val: "./imgdownload/R/KICRBJ_c4e4ac0d-93ec-41ff-b5d9-ae1ee74f222c.jpg"
            string_val: "./imgdownload/R/ZZ5R43_6232c5fb-b950-4890-abc0-0a4afba4d69f.jpg"
            string_val: "./imgdownload/R/ZA9RSF_ebef7934-66bf-417f-98b9-a8e8919771ac.jpg"
            string_val: "./imgdownload/R/L7NN6R_9d7eaa2b-0d50-432d-b41e-7a2de13d4325.jpg"
            string_val: "./imgdownload/4/ZZ5R43_31686ae5-1284-4998-9131-d895002d3c43.jpg"
            string_val: "./imgdownload/4/G4ZK93_e46e7b90-57ba-45bc-92c8-34dd1983b09a.jpg"
            string_val: "./imgdownload/4/4K4854_01c02709-6eea-4147-a60d-3bfc1900b939.jpg"
            string_val: "./imgdownload/4/34GGO5_bd8d886d-33f9-434f-80d4-92488afdd7a6.jpg"
            string_val: "./imgdownload/4/454366_98139cdd-0a08-48a4-8e54-2c42b7187af8.jpg"
            string_val: "./imgdownload/4/P9F554_ff33fe06-fc7e-4d1a-a3e3-1b8c2a8aeebd.jpg"
            string_val: "./imgdownload/4/8H7334_3a3835bb-f3a9-4103-bd3f-57e3e56bacb4.jpg"
            string_val: "./imgdownload/4/454366_340fce61-418b-4217-8e9e-a8edcd51d7ff.jpg"
            string_val: "./imgdownload/4/4XWL68_0715fa60-917f-4f53-8789-285104018dad.jpg"
            string_val: "./imgdownload/4/34G567_824992dd-90af-470d-be22-0eefe1f80a47.jpg"
            string_val: "./imgdownload/4/4K4854_35c4dbf4-5086-4553-94e3-e9c54b0f4244.jpg"
            string_val: "./imgdownload/4/4B66C5_e5cd8fa1-2bdd-49e9-a01e-4b458d069ca4.jpg"
            string_val: "./imgdownload/4/T94574_2730e2cd-6088-4bcd-be0f-7e800cca33e1.jpg"
            string_val: "./imgdownload/4/43U689_87b11923-bdcb-4d0c-b5e7-4537a48129c3.jpg"
            string_val: "./imgdownload/4/387445_87ca47f1-c25d-4cce-b025-f572c5fe02fa.jpg"
            string_val: "./imgdownload/4/4J3RBA_67ee96b1-6e1d-4af9-b089-ab95ad1684ad.jpg"
            string_val: "./imgdownload/4/4K4854_71ecd3c1-139c-412e-9e01-cf5b2a755c05.jpg"
            string_val: "./imgdownload/4/454L57_f4b150ad-af4a-400b-abc2-731ef0041e25.jpg"
            string_val: "./imgdownload/4/Q64JZ8_b9569d3a-b45e-4a4e-be60-54df9a9fd455.jpg"
            string_val: "./imgdownload/4/456TI8_c0b392d8-7392-41b8-82dc-a867e116278b.jpg"
            string_val: "./imgdownload/4/P653I4_7d0b874b-0946-47b4-810a-7a4973760087.jpg"
            string_val: "./imgdownload/4/5HJ9M4_ddffff2e-c82b-4c91-965f-915718cc8110.jpg"
            string_val: "./imgdownload/4/QTPCF4_a7a00670-a238-4c59-8ee9-9d9d1f6db58b.jpg"
            string_val: "./imgdownload/4/49P69J_2a101ec8-53d2-4807-a4b9-f657ee3464a2.jpg"
            string_val: "./imgdownload/4/EBJA74_0635d285-308c-49fd-8f15-67944dc2d8c6.jpg"
            string_val: "./imgdownload/4/LF4R39_25663287-c39b-4c4d-9763-415cf5e2b4fa.jpg"
            string_val: "./imgdownload/4/H7Q458_fcc9e051-1199-485c-8d93-74e9d277601b.jpg"
            string_val: "./imgdownload/4/8E974H_aad73958-deec-4c8a-98a7-c1b0cf41fd70.jpg"
            string_val: "./imgdownload/4/S947GC_da5e33ad-e974-4dc0-8b94-1a8f0cfd7dba.jpg"
            string_val: "./imgdownload/4/5645W7_7994e91d-2bc2-4137-9420-dceb8f0e44bb.jpg"
            string_val: "./imgdownload/4/84S8KG_a32944fd-5511-4713-ad4d-42307f8ba2df.jpg"
            string_val: "./imgdownload/4/O5H4B3_315ef957-c3c7-4a06-970b-9b7c53b73876.jpg"
            string_val: "./imgdownload/4/EEM7Q4_7fb81a12-95f8-4b1e-b14b-de61e3a10cb0.jpg"
            string_val: "./imgdownload/4/9W4H73_79bf2ae2-495b-428c-8bff-33910a377e19.jpg"
            string_val: "./imgdownload/4/7QH6K4_8d35590a-595a-4a7a-b525-2ddeb377f646.jpg"
            string_val: "./imgdownload/4/T94574_19faf4c3-8b0d-4e3d-9a58-cf66e68a1678.jpg"
            string_val: "./imgdownload/4/9486NC_cec07571-5e7d-46f1-8491-5eb2cad4112f.jpg"
            string_val: "./imgdownload/4/387445_560e0092-5d4a-4eed-8a06-cf9f3000a32b.jpg"
            string_val: "./imgdownload/4/454L57_9105e14b-1366-4740-b659-80dbaf7778e7.jpg"
            string_val: "./imgdownload/J/U8J76V_6cdce1cf-a158-40a6-b31e-02439dc5f35f.jpg"
            string_val: "./imgdownload/J/EU5LJT_c3f71d8f-9ea9-4073-98a0-efb873b325c8.jpg"
            string_val: "./imgdownload/J/XIRJ39_af42d3a0-e6e1-4fab-a55d-6fdd2688546b.jpg"
            string_val: "./imgdownload/J/6J5IWH_28ef00ca-4b43-4c17-b680-5ab1061b5c02.jpg"
            string_val: "./imgdownload/J/ON5DJQ_6632c039-e98a-47d2-8296-7950e19c7ffe.jpg"
            string_val: "./imgdownload/J/Q64JZ8_3c745209-09f2-434b-ba36-9ccf325df15a.jpg"
            string_val: "./imgdownload/J/KICRBJ_19819a93-916a-45b1-ae37-881f22a4d228.jpg"
            string_val: "./imgdownload/J/49P69J_08890ce6-5289-4bde-904d-7f663d461f75.jpg"
            string_val: "./imgdownload/J/BFJI77_2353cd2a-03fb-4656-9a6d-c922b6b70940.jpg"
            string_val: "./imgdownload/J/6TTJL3_4c4be943-2a65-4b43-be40-6fb53c147721.jpg"
            string_val: "./imgdownload/J/EBJA74_e687d44d-2eff-4042-92bc-cedfb09cb79b.jpg"
            string_val: "./imgdownload/J/J3CNES_f6299204-b64c-4b29-ab80-ee8c0740a2a1.jpg"
            string_val: "./imgdownload/J/5HJ9M4_d5cbcfc9-0156-422f-a448-399bf330735e.jpg"
            string_val: "./imgdownload/J/4J3RBA_a1c0dd05-1263-45a7-8545-a5a13d4a6716.jpg"
            string_val: "./imgdownload/M/MOM9A3_e01e72f4-b3b6-4622-bb10-8cfde8f7b6c2.jpg"
            string_val: "./imgdownload/M/7ZD5EM_e35aed27-877b-4208-8666-1eec9caa346f.jpg"
            string_val: "./imgdownload/M/YZMVSF_55d27bf0-1405-49f9-9c12-dbd8a75d1cda.jpg"
            string_val: "./imgdownload/M/MW95OP_f7b34452-f201-41ba-b176-c4e8122606f0.jpg"
            string_val: "./imgdownload/M/V5M5DI_e055f092-c796-492a-8920-27133303b4ea.jpg"
            string_val: "./imgdownload/M/M8HW8S_68025fdd-2350-4e1b-b374-634964466002.jpg"
            string_val: "./imgdownload/M/5HJ9M4_5f4a0f06-8ff4-4579-bf75-3c898946fef0.jpg"
            string_val: "./imgdownload/M/EEM7Q4_adc7aa0c-6ca0-4609-8840-51c1cc1d12b5.jpg"
            string_val: "./imgdownload/M/MOM9A3_c8ccf56b-be47-49db-a8c4-5cfd9a19c7c2.jpg"
            string_val: "./imgdownload/O/MW95OP_face2138-7b36-4ed6-b41e-76e69b8da500.jpg"
            string_val: "./imgdownload/O/O5H4B3_6c86b918-c6b1-40e9-aaac-2baecdae111d.jpg"
            string_val: "./imgdownload/O/I73OYO_e3d89b73-9147-4c96-b889-69dc22334a06.jpg"
            string_val: "./imgdownload/O/7UOQ7Z_75dbf32c-63ed-4788-bd1e-d7af7c728059.jpg"
            string_val: "./imgdownload/O/34GGO5_6ed57c39-c09a-4176-bc3b-43ec23ef1ab9.jpg"
            string_val: "./imgdownload/O/I73OYO_7c4013de-95af-4788-8d99-9723f27c1d68.jpg"
            string_val: "./imgdownload/O/TDLCOL_7be46570-8d44-4d1b-a0af-6b74b4ad3003.jpg"
            string_val: "./imgdownload/O/O7Q58B_78461bc3-8597-4f0f-9896-b21a52a6be40.jpg"
            string_val: "./imgdownload/O/BQE5OI_0606b395-3281-4e85-bfb2-87b600114e92.jpg"
            string_val: "./imgdownload/O/MOM9A3_11586a2c-b2b7-4d96-92e6-a0cf358c509d.jpg"
            string_val: "./imgdownload/O/IO58NY_c36a10fd-90d0-4e45-97cd-ce0476cdc5cc.jpg"
            string_val: "./imgdownload/O/DXV7O3_80d78b6b-6c92-4552-b6d2-3a33ca6e002f.jpg"
            string_val: "./imgdownload/O/ON5DJQ_c5473d89-462e-4e8e-a1c4-456293811cfe.jpg"
            string_val: "./imgdownload/O/53B6O5_1eb0d52e-8e10-4bb7-85e3-47ba8c499a12.jpg"
            string_val: "./imgdownload/O/7BSIO9_1b3f3c85-8820-41c4-b4c6-1cb5707f5856.jpg"
            string_val: "./imgdownload/O/8O6L86_646bfe42-8298-49d1-a3b0-d4ca11e6363c.jpg"
            string_val: "./imgdownload/O/3QZB7O_bb341651-275a-4a1f-8a8f-1232e3c70be9.jpg"
            string_val: "./imgdownload/O/5XCXHO_e6364d32-d5c3-45ec-9347-efeaaa6af3bf.jpg"
            string_val: "./imgdownload/5/34G567_769807fe-52eb-47a4-b5c8-556c93bafbaa.jpg"
            string_val: "./imgdownload/5/5645W7_b185083e-abd0-4fb9-836f-90f26907002f.jpg"
            string_val: "./imgdownload/5/5XCXHO_ad1a657a-4a24-4109-8fbe-13fec40c14f7.jpg"
            string_val: "./imgdownload/5/8H56V7_0f4b1b2c-f07f-46c1-b12a-1a12f981e6c9.jpg"
            string_val: "./imgdownload/5/53B6O5_9d010f44-3f57-4978-bfd1-486ff969a49c.jpg"
            string_val: "./imgdownload/5/IO58NY_303da53c-d70c-4820-84fe-cc0470490e84.jpg"
            string_val: "./imgdownload/5/T94574_bdc49a6a-e110-4e76-92c7-7ffd634b20df.jpg"
            string_val: "./imgdownload/5/O7Q58B_d8e0937e-4d06-416e-be0e-da8bc186f1ba.jpg"
            string_val: "./imgdownload/5/75T7H3_cf0b019f-606d-4a4b-bc81-84c62e8442c0.jpg"
            string_val: "./imgdownload/5/34GGO5_0459c7d1-9f57-47f7-84d5-5ae5337f7fe5.jpg"
            string_val: "./imgdownload/5/4K4854_8e1939fe-0921-45f7-b033-20256d5caec0.jpg"
            string_val: "./imgdownload/5/O5H4B3_2947d974-a383-4003-ba3d-f0b980758d8f.jpg"
            string_val: "./imgdownload/5/8HUA58_4dff0523-43d1-468b-b87e-59d3eabe4aad.jpg"
            string_val: "./imgdownload/5/5ZDCZV_a5a13d05-5532-4ec5-99cf-af9ff1862f65.jpg"
            string_val: "./imgdownload/5/EU5LJT_0ee76c98-c730-4e19-bcef-de312905f7c4.jpg"
            string_val: "./imgdownload/5/454366_f5fe6ebc-3f68-4404-97db-d6e78ebc0862.jpg"
            string_val: "./imgdownload/5/P653I4_d8bd53a8-2057-465a-b1cc-a94cb860bdda.jpg"
            string_val: "./imgdownload/5/5DZ8LF_289caaa0-1571-4343-b75f-c7f0333a5a75.jpg"
            string_val: "./imgdownload/5/9795Z5_90002878-5317-49fd-bf95-87e2655b7f42.jpg"
            string_val: "./imgdownload/5/L5589A_2adb203e-240b-498b-ac9d-1fb914e57867.jpg"
            string_val: "./imgdownload/5/L5589A_f97c7064-2868-40e3-b743-75293c567d9d.jpg"
            string_val: "./imgdownload/5/D58D5N_4a082d85-9b05-4177-99ff-a7bb6e9c67bc.jpg"
            string_val: "./imgdownload/5/ZZ5R43_dd84b0a1-e2f1-4800-8803-9274301b29f5.jpg"
            string_val: "./imgdownload/5/387445_cd90c75b-b354-4bac-a76d-cbec29731d18.jpg"
            string_val: "./imgdownload/5/Y78N53_aa04b713-217f-4b28-b5bc-10d3cfb9b8aa.jpg"
            string_val: "./imgdownload/5/K9I6Z5_553c00a0-ef08-4c89-bb69-27223c19bb01.jpg"
            string_val: "./imgdownload/5/5HJ9M4_a8e6209c-c9e3-464d-9dbc-32d34483e098.jpg"
            string_val: "./imgdownload/5/MW95OP_dd376898-77cd-45c0-8fa3-d7ab08d32346.jpg"
            string_val: "./imgdownload/5/V5M5DI_7d590389-e370-4473-a889-d7c93f54ab51.jpg"
            string_val: "./imgdownload/5/456TI8_cc4366cd-ca05-4749-8997-9bc362f3e27c.jpg"
            string_val: "./imgdownload/5/3V7W5Y_c1724f92-68ef-42f3-9e71-509ec2235044.jpg"
            string_val: "./imgdownload/5/P9F554_7f007e46-2335-473b-95eb-4eba81bbf437.jpg"
            string_val: "./imgdownload/5/454L57_fab3c742-48c1-4043-bbc4-63a30083d816.jpg"
            string_val: "./imgdownload/5/V5M5DI_6ee003a0-542d-471b-8095-b51913a52e23.jpg"
            string_val: "./imgdownload/5/BQE5OI_34e6a748-ea0f-4a53-ac1f-6296137d8f33.jpg"
            string_val: "./imgdownload/5/ON5DJQ_8472de31-45c0-412b-8d7c-8009505110a7.jpg"
            string_val: "./imgdownload/5/SFY558_44b63555-2523-49a1-88b3-affbed82e68c.jpg"
            string_val: "./imgdownload/5/7569KW_6c22f9d0-8bcc-4391-aceb-9cb832ba0e3d.jpg"
            string_val: "./imgdownload/5/7ZD5EM_aa6ccc70-7bbf-41c6-9ceb-93b42d0b121f.jpg"
            string_val: "./imgdownload/5/6J5IWH_b21b90e3-ad17-48b9-86ff-afa0489edba4.jpg"
            string_val: "./imgdownload/5/5645W7_3d948248-ca5a-4eed-ba29-3de522a9e839.jpg"
            string_val: "./imgdownload/5/454L57_c09a142b-865b-4bdd-a6db-508b7f0c1cf8.jpg"
            string_val: "./imgdownload/5/53B6O5_2585bc8b-a20a-42e2-8d63-63c2bc224bd4.jpg"
            string_val: "./imgdownload/5/7L7858_137b2841-0cc4-4be6-848b-b975c0544d7d.jpg"
            string_val: "./imgdownload/5/D58D5N_a4c269aa-3095-473f-b639-e2321422a802.jpg"
            string_val: "./imgdownload/5/SFY558_9075ba2f-df2b-4080-aa50-9a60ca83010f.jpg"
            string_val: "./imgdownload/5/N865H9_cb7fdb0d-b56a-4edd-8120-29fb59f88625.jpg"
            string_val: "./imgdownload/5/H7Q458_076f48c9-f206-442a-a67d-e9a14f7fb849.jpg"
            string_val: "./imgdownload/5/9795Z5_29b41384-0fe6-4930-889a-83303968ec4a.jpg"
            string_val: "./imgdownload/5/P9F554_9596ab1c-8cff-4cb4-a14f-1688f52f9a9c.jpg"
            string_val: "./imgdownload/5/4B66C5_93b1ac3f-983f-4057-8393-b4b2e4ede23e.jpg"
            string_val: "./imgdownload/D/C8V3ZD_2653cae2-f7f8-41e2-a733-18dfee8f5d1b.jpg"
            string_val: "./imgdownload/D/5ZDCZV_4cdf9a85-d0b3-4545-9af3-38cec4c2d5a4.jpg"
            string_val: "./imgdownload/D/78F7CD_a99a48d6-c5b6-4b42-8293-6ae7dd27367c.jpg"
            string_val: "./imgdownload/D/5DZ8LF_d6087789-47eb-4abe-b547-479365fd679d.jpg"
            string_val: "./imgdownload/D/ON5DJQ_273f592d-0639-4c74-a692-e9d760e0b9f6.jpg"
            string_val: "./imgdownload/D/D58D5N_c375f7d4-00ca-498d-8377-25563b302402.jpg"
            string_val: "./imgdownload/D/7ZD5EM_e8c997fb-8a15-4f3d-9be0-71b0a1e88b17.jpg"
            string_val: "./imgdownload/D/D58D5N_2bdcf292-a2ca-4b37-ae1e-efca86a775b9.jpg"
            string_val: "./imgdownload/D/998DQW_70ec4c50-8f28-4577-b9b2-46d650afee9e.jpg"
            string_val: "./imgdownload/D/V5M5DI_0e838e6c-84c5-44f0-aa2a-800658201254.jpg"
            string_val: "./imgdownload/D/937D8N_9011cea4-7780-477c-ad3e-853e959a256e.jpg"
            string_val: "./imgdownload/D/TDLCOL_5f7c1ab8-adfd-444e-a217-7bede13b5a4e.jpg"
            string_val: "./imgdownload/D/DXV7O3_19ae5fab-5c08-46c8-aa39-7e6c7af229e6.jpg"
            string_val: "./imgdownload/D/UCCZKD_cb1ba1b8-c679-4984-8dae-380f3d69a842.jpg"
            string_val: "./imgdownload/N/9486NC_d13b6932-caf1-4c59-95ad-b9a2747c12e6.jpg"
            string_val: "./imgdownload/N/L7NN6R_4f3d699c-6d5a-4871-8389-710f36ecee0e.jpg"
            string_val: "./imgdownload/N/L7NN6R_a0da024a-e1eb-40ee-893a-9a646b5a4e18.jpg"
            string_val: "./imgdownload/N/ON5DJQ_64f8d0af-298a-4480-8a64-6f71eea91699.jpg"
            string_val: "./imgdownload/N/YN7A6A_b07196ea-9d15-4edb-a643-4aeed69bb47b.jpg"
            string_val: "./imgdownload/N/D58D5N_d431335f-fdf4-4e5b-94e4-96f7d061ac81.jpg"
            string_val: "./imgdownload/N/N865H9_fe28737d-c652-4eea-87c1-5b34cd8ca793.jpg"
            string_val: "./imgdownload/N/ULXI9N_9cdbd9b7-bd63-4173-a8fe-5b1ce2d7c634.jpg"
            string_val: "./imgdownload/N/Y78N53_debf0722-3e4c-41df-93aa-369f4be635fc.jpg"
            string_val: "./imgdownload/N/937D8N_e58b6e74-60a9-4d40-8442-9eedf1f41d88.jpg"
            string_val: "./imgdownload/N/IO58NY_252623ed-bcff-42fc-95cb-5eac6d3dc198.jpg"
            string_val: "./imgdownload/N/J3CNES_0b18661e-ffd7-4f82-bfeb-ead3483d11c9.jpg"
          }
        }
      }
    }
    node_def {
      name: "TensorSliceDataset/Const_1"
      op: "Const"
      device: "/device:CPU:0"
      attr {
        key: "dtype"
        value {
          type: DT_INT32
        }
      }
      attr {
        key: "value"
        value {
          tensor {
            dtype: DT_INT32
            tensor_shape {
              dim {
                size: 594
              }
            }
            tensor_content: "…"
          }
        }
      }
    }
    node_def {
      name: "TensorSliceDataset"
      op: "TensorSliceDataset"
      input: "TensorSliceDataset/Const:output:0"
      input: "TensorSliceDataset/Const_1:output:0"
      device: "/device:CPU:0"
      attr {
        key: "Toutput_types"
        value {
          list {
            type: DT_STRING
            type: DT_INT32
          }
        }
      }
      attr {
        key: "output_shapes"
        value {
          list {
            shape {
            }
            shape {
            }
          }
        }
      }
    }
    node_def {
      name: "MapDataset"
      op: "MapDataset"
      input: "TensorSliceDataset:handle:0"
      device: "/device:CPU:0"
      attr {
        key: "Targuments"
        value {
          list {
          }
        }
      }
      attr {
        key: "f"
        value {
          func {
            name: "tf_data_structured_function_wrapper_FTVBuHD4vf8"
          }
        }
      }
      attr {
        key: "output_shapes"
        value {
          list {
            shape {
              dim {
                size: 28
              }
              dim {
                size: 28
              }
              dim {
                size: -1
              }
            }
            shape {
            }
          }
        }
      }
      attr {
        key: "output_types"
        value {
          list {
            type: DT_FLOAT
            type: DT_INT32
          }
        }
      }
      attr {
        key: "use_inter_op_parallelism"
        value {
          b: true
        }
      }
    }
    node_def {
      name: "ShuffleDataset/buffer_size"
      op: "Const"
      device: "/device:CPU:0"
      attr {
        key: "dtype"
        value {
          type: DT_INT64
        }
      }
      attr {
        key: "value"
        value {
          tensor {
            dtype: DT_INT64
            tensor_shape {
            }
            int64_val: 10000
          }
        }
      }
    }
    node_def {
      name: "ShuffleDataset/seed"
      op: "Const"
      device: "/device:CPU:0"
      attr {
        key: "dtype"
        value {
          type: DT_INT64
        }
      }
      attr {
        key: "value"
        value {
          tensor {
            dtype: DT_INT64
            tensor_shape {
            }
            int64_val: 0
          }
        }
      }
    }
    node_def {
      name: "ShuffleDataset/seed2"
      op: "Const"
      device: "/device:CPU:0"
      attr {
        key: "dtype"
        value {
          type: DT_INT64
        }
      }
      attr {
        key: "value"
        value {
          tensor {
            dtype: DT_INT64
            tensor_shape {
            }
            int64_val: 0
          }
        }
      }
    }
    node_def {
      name: "ShuffleDataset"
      op: "ShuffleDataset"
      input: "MapDataset:handle:0"
      input: "ShuffleDataset/buffer_size:output:0"
      input: "ShuffleDataset/seed:output:0"
      input: "ShuffleDataset/seed2:output:0"
      device: "/device:CPU:0"
      attr {
        key: "output_shapes"
        value {
          list {
            shape {
              dim {
                size: 28
              }
              dim {
                size: 28
              }
              dim {
                size: -1
              }
            }
            shape {
            }
          }
        }
      }
      attr {
        key: "output_types"
        value {
          list {
            type: DT_FLOAT
            type: DT_INT32
          }
        }
      }
      attr {
        key: "reshuffle_each_iteration"
        value {
          b: true
        }
      }
    }
    node_def {
      name: "BatchDatasetV2/batch_size"
      op: "Const"
      device: "/device:CPU:0"
      attr {
        key: "dtype"
        value {
          type: DT_INT64
        }
      }
      attr {
        key: "value"
        value {
          tensor {
            dtype: DT_INT64
            tensor_shape {
            }
            int64_val: 100
          }
        }
      }
    }
    node_def {
      name: "BatchDatasetV2/drop_remainder"
      op: "Const"
      device: "/device:CPU:0"
      attr {
        key: "dtype"
        value {
          type: DT_BOOL
        }
      }
      attr {
        key: "value"
        value {
          tensor {
            dtype: DT_BOOL
            tensor_shape {
            }
            bool_val: false
          }
        }
      }
    }
    node_def {
      name: "BatchDatasetV2"
      op: "BatchDatasetV2"
      input: "ShuffleDataset:handle:0"
      input: "BatchDatasetV2/batch_size:output:0"
      input: "BatchDatasetV2/drop_remainder:output:0"
      device: "/device:CPU:0"
      attr {
        key: "output_shapes"
        value {
          list {
            shape {
              dim {
                size: -1
              }
              dim {
                size: 28
              }
              dim {
                size: 28
              }
              dim {
                size: -1
              }
            }
            shape {
              dim {
                size: -1
              }
            }
          }
        }
      }
      attr {
        key: "output_types"
        value {
          list {
            type: DT_FLOAT
            type: DT_INT32
          }
        }
      }
    }
    node_def {
      name: "RepeatDataset/count"
      op: "Const"
      device: "/device:CPU:0"
      attr {
        key: "dtype"
        value {
          type: DT_INT64
        }
      }
      attr {
        key: "value"
        value {
          tensor {
            dtype: DT_INT64
            tensor_shape {
            }
            int64_val: 100
          }
        }
      }
    }
    node_def {
      name: "RepeatDataset"
      op: "RepeatDataset"
      input: "BatchDatasetV2:handle:0"
      input: "RepeatDataset/count:output:0"
      device: "/device:CPU:0"
      attr {
        key: "output_shapes"
        value {
          list {
            shape {
              dim {
                size: -1
              }
              dim {
                size: 28
              }
              dim {
                size: 28
              }
              dim {
                size: -1
              }
            }
            shape {
              dim {
                size: -1
              }
            }
          }
        }
      }
      attr {
        key: "output_types"
        value {
          list {
            type: DT_FLOAT
            type: DT_INT32
          }
        }
      }
    }
    ret {
      key: "repeatdataset"
      value: "RepeatDataset:handle:0"
    }
  }
}
versions {
  producer: 27
  min_consumer: 12
}
