node {
  name: "global_step/Initializer/zeros"
  op: "Const"
  attr {
    key: "_class"
    value {
      list {
        s: "loc:@global_step"
      }
    }
  }
  attr {
    key: "_output_shapes"
    value {
      list {
        shape {
        }
      }
    }
  }
  attr {
    key: "dtype"
    value {
      type: DT_INT64
    }
  }
  attr {
    key: "value"
    value {
      tensor {
        dtype: DT_INT64
        tensor_shape {
        }
        int64_val: 0
      }
    }
  }
}
node {
  name: "global_step"
  op: "VariableV2"
  attr {
    key: "_class"
    value {
      list {
        s: "loc:@global_step"
      }
    }
  }
  attr {
    key: "_output_shapes"
    value {
      list {
        shape {
        }
      }
    }
  }
  attr {
    key: "container"
    value {
      s: ""
    }
  }
  attr {
    key: "dtype"
    value {
      type: DT_INT64
    }
  }
  attr {
    key: "shape"
    value {
      shape {
      }
    }
  }
  attr {
    key: "shared_name"
    value {
      s: ""
    }
  }
}
node {
  name: "global_step/Assign"
  op: "Assign"
  input: "global_step"
  input: "global_step/Initializer/zeros"
  attr {
    key: "T"
    value {
      type: DT_INT64
    }
  }
  attr {
    key: "_class"
    value {
      list {
        s: "loc:@global_step"
      }
    }
  }
  attr {
    key: "_output_shapes"
    value {
      list {
        shape {
        }
      }
    }
  }
  attr {
    key: "use_locking"
    value {
      b: true
    }
  }
  attr {
    key: "validate_shape"
    value {
      b: true
    }
  }
}
node {
  name: "global_step/read"
  op: "Identity"
  input: "global_step"
  attr {
    key: "T"
    value {
      type: DT_INT64
    }
  }
  attr {
    key: "_class"
    value {
      list {
        s: "loc:@global_step"
      }
    }
  }
  attr {
    key: "_output_shapes"
    value {
      list {
        shape {
        }
      }
    }
  }
}
node {
  name: "global_step/IsVariableInitialized"
  op: "IsVariableInitialized"
  input: "global_step"
  attr {
    key: "_class"
    value {
      list {
        s: "loc:@global_step"
      }
    }
  }
  attr {
    key: "_output_shapes"
    value {
      list {
        shape {
        }
      }
    }
  }
  attr {
    key: "dtype"
    value {
      type: DT_INT64
    }
  }
}
node {
  name: "global_step/cond/Switch"
  op: "Switch"
  input: "global_step/IsVariableInitialized"
  input: "global_step/IsVariableInitialized"
  attr {
    key: "T"
    value {
      type: DT_BOOL
    }
  }
  attr {
    key: "_output_shapes"
    value {
      list {
        shape {
        }
        shape {
        }
      }
    }
  }
}
node {
  name: "global_step/cond/switch_t"
  op: "Identity"
  input: "global_step/cond/Switch:1"
  attr {
    key: "T"
    value {
      type: DT_BOOL
    }
  }
  attr {
    key: "_output_shapes"
    value {
      list {
        shape {
        }
      }
    }
  }
}
node {
  name: "global_step/cond/switch_f"
  op: "Identity"
  input: "global_step/cond/Switch"
  attr {
    key: "T"
    value {
      type: DT_BOOL
    }
  }
  attr {
    key: "_output_shapes"
    value {
      list {
        shape {
        }
      }
    }
  }
}
node {
  name: "global_step/cond/pred_id"
  op: "Identity"
  input: "global_step/IsVariableInitialized"
  attr {
    key: "T"
    value {
      type: DT_BOOL
    }
  }
  attr {
    key: "_output_shapes"
    value {
      list {
        shape {
        }
      }
    }
  }
}
node {
  name: "global_step/cond/read"
  op: "Identity"
  input: "global_step/cond/read/Switch:1"
  attr {
    key: "T"
    value {
      type: DT_INT64
    }
  }
  attr {
    key: "_output_shapes"
    value {
      list {
        shape {
        }
      }
    }
  }
}
node {
  name: "global_step/cond/read/Switch"
  op: "RefSwitch"
  input: "global_step"
  input: "global_step/cond/pred_id"
  attr {
    key: "T"
    value {
      type: DT_INT64
    }
  }
  attr {
    key: "_class"
    value {
      list {
        s: "loc:@global_step"
      }
    }
  }
  attr {
    key: "_output_shapes"
    value {
      list {
        shape {
        }
        shape {
        }
      }
    }
  }
}
node {
  name: "global_step/cond/Switch_1"
  op: "Switch"
  input: "global_step/Initializer/zeros"
  input: "global_step/cond/pred_id"
  attr {
    key: "T"
    value {
      type: DT_INT64
    }
  }
  attr {
    key: "_class"
    value {
      list {
        s: "loc:@global_step"
      }
    }
  }
  attr {
    key: "_output_shapes"
    value {
      list {
        shape {
        }
        shape {
        }
      }
    }
  }
}
node {
  name: "global_step/cond/Merge"
  op: "Merge"
  input: "global_step/cond/Switch_1"
  input: "global_step/cond/read"
  attr {
    key: "N"
    value {
      i: 2
    }
  }
  attr {
    key: "T"
    value {
      type: DT_INT64
    }
  }
  attr {
    key: "_output_shapes"
    value {
      list {
        shape {
        }
        shape {
        }
      }
    }
  }
}
node {
  name: "global_step/add/y"
  op: "Const"
  attr {
    key: "_output_shapes"
    value {
      list {
        shape {
        }
      }
    }
  }
  attr {
    key: "dtype"
    value {
      type: DT_INT64
    }
  }
  attr {
    key: "value"
    value {
      tensor {
        dtype: DT_INT64
        tensor_shape {
        }
        int64_val: 0
      }
    }
  }
}
node {
  name: "global_step/add"
  op: "Add"
  input: "global_step/cond/Merge"
  input: "global_step/add/y"
  attr {
    key: "T"
    value {
      type: DT_INT64
    }
  }
  attr {
    key: "_output_shapes"
    value {
      list {
        shape {
        }
      }
    }
  }
}
node {
  name: "Const"
  op: "Const"
  device: "/device:CPU:0"
  attr {
    key: "_output_shapes"
    value {
      list {
        shape {
          dim {
            size: 2160
          }
        }
      }
    }
  }
  attr {
    key: "dtype"
    value {
      type: DT_STRING
    }
  }
  attr {
    key: "value"
    value {
      tensor {
        dtype: DT_STRING
        tensor_shape {
          dim {
            size: 2160
          }
        }
        string_val: "/Users/zkp/Desktop/for_zkp/train/49_H.bmp"
        string_val: "/Users/zkp/Desktop/for_zkp/train/3_W.bmp"
        string_val: "/Users/zkp/Desktop/for_zkp/train/3_6.bmp"
        string_val: "/Users/zkp/Desktop/for_zkp/train/39_A.bmp"
        string_val: "/Users/zkp/Desktop/for_zkp/train/39_V.bmp"
        string_val: "/Users/zkp/Desktop/for_zkp/train/39_7.bmp"
        string_val: "/Users/zkp/Desktop/for_zkp/train/54_M.bmp"
        string_val: "/Users/zkp/Desktop/for_zkp/train/24_D.bmp"
        string_val: "/Users/zkp/Desktop/for_zkp/train/11_M.bmp"
        string_val: "/Users/zkp/Desktop/for_zkp/train/37_N.bmp"
        string_val: "/Users/zkp/Desktop/for_zkp/train/47_G.bmp"
        string_val: "/Users/zkp/Desktop/for_zkp/train/54_Z.bmp"
        string_val: "/Users/zkp/Desktop/for_zkp/train/11_Z.bmp"
        string_val: "/Users/zkp/Desktop/for_zkp/train/24_2.bmp"
        string_val: "/Users/zkp/Desktop/for_zkp/train/24_S.bmp"
        string_val: "/Users/zkp/Desktop/for_zkp/train/37_Y.bmp"
        string_val: "/Users/zkp/Desktop/for_zkp/train/37_8.bmp"
        string_val: "/Users/zkp/Desktop/for_zkp/train/47_1.bmp"
        string_val: "/Users/zkp/Desktop/for_zkp/train/47_P.bmp"
        string_val: "/Users/zkp/Desktop/for_zkp/train/1_4.bmp"
        string_val: "/Users/zkp/Desktop/for_zkp/train/1_U.bmp"
        string_val: "/Users/zkp/Desktop/for_zkp/train/28_I.bmp"
        string_val: "/Users/zkp/Desktop/for_zkp/train/1_B.bmp"
        string_val: "/Users/zkp/Desktop/for_zkp/train/58_6.bmp"
        string_val: "/Users/zkp/Desktop/for_zkp/train/58_W.bmp"
        string_val: "/Users/zkp/Desktop/for_zkp/train/13_O.bmp"
        string_val: "/Users/zkp/Desktop/for_zkp/train/26_F.bmp"
        string_val: "/Users/zkp/Desktop/for_zkp/train/56_O.bmp"
        string_val: "/Users/zkp/Desktop/for_zkp/train/45_E.bmp"
        string_val: "/Users/zkp/Desktop/for_zkp/train/35_L.bmp"
        string_val: "/Users/zkp/Desktop/for_zkp/train/26_Q.bmp"
        string_val: "/Users/zkp/Desktop/for_zkp/train/26_0.bmp"
        string_val: "/Users/zkp/Desktop/for_zkp/train/13_9.bmp"
        string_val: "/Users/zkp/Desktop/for_zkp/train/13_X.bmp"
        string_val: "/Users/zkp/Desktop/for_zkp/train/56_9.bmp"
        string_val: "/Users/zkp/Desktop/for_zkp/train/56_X.bmp"
        string_val: "/Users/zkp/Desktop/for_zkp/train/45_R.bmp"
        string_val: "/Users/zkp/Desktop/for_zkp/train/45_3.bmp"
        string_val: "/Users/zkp/Desktop/for_zkp/train/7_2.bmp"
        string_val: "/Users/zkp/Desktop/for_zkp/train/7_S.bmp"
        string_val: "/Users/zkp/Desktop/for_zkp/train/7_D.bmp"
        string_val: "/Users/zkp/Desktop/for_zkp/train/43_C.bmp"
        string_val: "/Users/zkp/Desktop/for_zkp/train/33_J.bmp"
        string_val: "/Users/zkp/Desktop/for_zkp/train/15_I.bmp"
        string_val: "/Users/zkp/Desktop/for_zkp/train/50_I.bmp"
        string_val: "/Users/zkp/Desktop/for_zkp/train/43_T.bmp"
        string_val: "/Users/zkp/Desktop/for_zkp/train/43_5.bmp"
        string_val: "/Users/zkp/Desktop/for_zkp/train/9_K.bmp"
        string_val: "/Users/zkp/Desktop/for_zkp/train/20_W.bmp"
        string_val: "/Users/zkp/Desktop/for_zkp/train/20_6.bmp"
        string_val: "/Users/zkp/Desktop/for_zkp/train/19_D.bmp"
        string_val: "/Users/zkp/Desktop/for_zkp/train/5_Q.bmp"
        string_val: "/Users/zkp/Desktop/for_zkp/train/5_0.bmp"
        string_val: "/Users/zkp/Desktop/for_zkp/train/19_S.bmp"
        string_val: "/Users/zkp/Desktop/for_zkp/train/19_2.bmp"
        string_val: "/Users/zkp/Desktop/for_zkp/train/5_F.bmp"
        string_val: "/Users/zkp/Desktop/for_zkp/train/31_H.bmp"
        string_val: "/Users/zkp/Desktop/for_zkp/train/41_A.bmp"
        string_val: "/Users/zkp/Desktop/for_zkp/train/52_K.bmp"
        string_val: "/Users/zkp/Desktop/for_zkp/train/22_B.bmp"
        string_val: "/Users/zkp/Desktop/for_zkp/train/17_K.bmp"
        string_val: "/Users/zkp/Desktop/for_zkp/train/41_7.bmp"
        string_val: "/Users/zkp/Desktop/for_zkp/train/41_V.bmp"
        string_val: "/Users/zkp/Desktop/for_zkp/train/22_4.bmp"
        string_val: "/Users/zkp/Desktop/for_zkp/train/22_U.bmp"
        string_val: "/Users/zkp/Desktop/for_zkp/train/22_T.bmp"
        string_val: "/Users/zkp/Desktop/for_zkp/train/22_5.bmp"
        string_val: "/Users/zkp/Desktop/for_zkp/train/41_W.bmp"
        string_val: "/Users/zkp/Desktop/for_zkp/train/41_6.bmp"
        string_val: "/Users/zkp/Desktop/for_zkp/train/52_J.bmp"
        string_val: "/Users/zkp/Desktop/for_zkp/train/17_J.bmp"
        string_val: "/Users/zkp/Desktop/for_zkp/train/22_C.bmp"
        string_val: "/Users/zkp/Desktop/for_zkp/train/31_I.bmp"
        string_val: "/Users/zkp/Desktop/for_zkp/train/5_G.bmp"
        string_val: "/Users/zkp/Desktop/for_zkp/train/19_3.bmp"
        string_val: "/Users/zkp/Desktop/for_zkp/train/19_R.bmp"
        string_val: "/Users/zkp/Desktop/for_zkp/train/5_1.bmp"
        string_val: "/Users/zkp/Desktop/for_zkp/train/5_P.bmp"
        string_val: "/Users/zkp/Desktop/for_zkp/train/19_E.bmp"
        string_val: "/Users/zkp/Desktop/for_zkp/train/20_7.bmp"
        string_val: "/Users/zkp/Desktop/for_zkp/train/20_V.bmp"
        string_val: "/Users/zkp/Desktop/for_zkp/train/9_J.bmp"
        string_val: "/Users/zkp/Desktop/for_zkp/train/43_4.bmp"
        string_val: "/Users/zkp/Desktop/for_zkp/train/43_U.bmp"
        string_val: "/Users/zkp/Desktop/for_zkp/train/20_A.bmp"
        string_val: "/Users/zkp/Desktop/for_zkp/train/15_H.bmp"
        string_val: "/Users/zkp/Desktop/for_zkp/train/50_H.bmp"
        string_val: "/Users/zkp/Desktop/for_zkp/train/43_B.bmp"
        string_val: "/Users/zkp/Desktop/for_zkp/train/33_K.bmp"
        string_val: "/Users/zkp/Desktop/for_zkp/train/7_E.bmp"
        string_val: "/Users/zkp/Desktop/for_zkp/train/7_R.bmp"
        string_val: "/Users/zkp/Desktop/for_zkp/train/7_3.bmp"
        string_val: "/Users/zkp/Desktop/for_zkp/train/45_2.bmp"
        string_val: "/Users/zkp/Desktop/for_zkp/train/45_S.bmp"
        string_val: "/Users/zkp/Desktop/for_zkp/train/35_Z.bmp"
        string_val: "/Users/zkp/Desktop/for_zkp/train/13_Y.bmp"
        string_val: "/Users/zkp/Desktop/for_zkp/train/13_8.bmp"
        string_val: "/Users/zkp/Desktop/for_zkp/train/26_1.bmp"
        string_val: "/Users/zkp/Desktop/for_zkp/train/26_P.bmp"
        string_val: "/Users/zkp/Desktop/for_zkp/train/56_Y.bmp"
        string_val: "/Users/zkp/Desktop/for_zkp/train/56_8.bmp"
        string_val: "/Users/zkp/Desktop/for_zkp/train/45_D.bmp"
        string_val: "/Users/zkp/Desktop/for_zkp/train/35_M.bmp"
        string_val: "/Users/zkp/Desktop/for_zkp/train/26_G.bmp"
        string_val: "/Users/zkp/Desktop/for_zkp/train/13_N.bmp"
        string_val: "/Users/zkp/Desktop/for_zkp/train/56_N.bmp"
        string_val: "/Users/zkp/Desktop/for_zkp/train/58_V.bmp"
        string_val: "/Users/zkp/Desktop/for_zkp/train/58_7.bmp"
        string_val: "/Users/zkp/Desktop/for_zkp/train/1_C.bmp"
        string_val: "/Users/zkp/Desktop/for_zkp/train/58_A.bmp"
        string_val: "/Users/zkp/Desktop/for_zkp/train/28_H.bmp"
        string_val: "/Users/zkp/Desktop/for_zkp/train/1_T.bmp"
        string_val: "/Users/zkp/Desktop/for_zkp/train/1_5.bmp"
        string_val: "/Users/zkp/Desktop/for_zkp/train/37_9.bmp"
        string_val: "/Users/zkp/Desktop/for_zkp/train/37_X.bmp"
        string_val: "/Users/zkp/Desktop/for_zkp/train/47_Q.bmp"
        string_val: "/Users/zkp/Desktop/for_zkp/train/47_0.bmp"
        string_val: "/Users/zkp/Desktop/for_zkp/train/24_R.bmp"
        string_val: "/Users/zkp/Desktop/for_zkp/train/24_3.bmp"
        string_val: "/Users/zkp/Desktop/for_zkp/train/37_O.bmp"
        string_val: "/Users/zkp/Desktop/for_zkp/train/47_F.bmp"
        string_val: "/Users/zkp/Desktop/for_zkp/train/54_L.bmp"
        string_val: "/Users/zkp/Desktop/for_zkp/train/11_L.bmp"
        string_val: "/Users/zkp/Desktop/for_zkp/train/24_E.bmp"
        string_val: "/Users/zkp/Desktop/for_zkp/train/3_A.bmp"
        string_val: "/Users/zkp/Desktop/for_zkp/train/39_6.bmp"
        string_val: "/Users/zkp/Desktop/for_zkp/train/39_W.bmp"
        string_val: "/Users/zkp/Desktop/for_zkp/train/3_7.bmp"
        string_val: "/Users/zkp/Desktop/for_zkp/train/3_V.bmp"
        string_val: "/Users/zkp/Desktop/for_zkp/train/49_I.bmp"
        string_val: "/Users/zkp/Desktop/for_zkp/train/39_B.bmp"
        string_val: "/Users/zkp/Desktop/for_zkp/train/49_K.bmp"
        string_val: "/Users/zkp/Desktop/for_zkp/train/3_T.bmp"
        string_val: "/Users/zkp/Desktop/for_zkp/train/3_5.bmp"
        string_val: "/Users/zkp/Desktop/for_zkp/train/39_U.bmp"
        string_val: "/Users/zkp/Desktop/for_zkp/train/39_4.bmp"
        string_val: "/Users/zkp/Desktop/for_zkp/train/3_C.bmp"
        string_val: "/Users/zkp/Desktop/for_zkp/train/47_D.bmp"
        string_val: "/Users/zkp/Desktop/for_zkp/train/37_M.bmp"
        string_val: "/Users/zkp/Desktop/for_zkp/train/24_G.bmp"
        string_val: "/Users/zkp/Desktop/for_zkp/train/11_N.bmp"
        string_val: "/Users/zkp/Desktop/for_zkp/train/54_N.bmp"
        string_val: "/Users/zkp/Desktop/for_zkp/train/47_2.bmp"
        string_val: "/Users/zkp/Desktop/for_zkp/train/47_S.bmp"
        string_val: "/Users/zkp/Desktop/for_zkp/train/37_Z.bmp"
        string_val: "/Users/zkp/Desktop/for_zkp/train/11_Y.bmp"
        string_val: "/Users/zkp/Desktop/for_zkp/train/11_8.bmp"
        string_val: "/Users/zkp/Desktop/for_zkp/train/24_1.bmp"
        string_val: "/Users/zkp/Desktop/for_zkp/train/24_P.bmp"
        string_val: "/Users/zkp/Desktop/for_zkp/train/54_Y.bmp"
        string_val: "/Users/zkp/Desktop/for_zkp/train/54_8.bmp"
        string_val: "/Users/zkp/Desktop/for_zkp/train/28_J.bmp"
        string_val: "/Users/zkp/Desktop/for_zkp/train/58_C.bmp"
        string_val: "/Users/zkp/Desktop/for_zkp/train/1_7.bmp"
        string_val: "/Users/zkp/Desktop/for_zkp/train/1_V.bmp"
        string_val: "/Users/zkp/Desktop/for_zkp/train/58_5.bmp"
        string_val: "/Users/zkp/Desktop/for_zkp/train/58_T.bmp"
        string_val: "/Users/zkp/Desktop/for_zkp/train/1_A.bmp"
        string_val: "/Users/zkp/Desktop/for_zkp/train/35_O.bmp"
        string_val: "/Users/zkp/Desktop/for_zkp/train/45_F.bmp"
        string_val: "/Users/zkp/Desktop/for_zkp/train/56_L.bmp"
        string_val: "/Users/zkp/Desktop/for_zkp/train/13_L.bmp"
        string_val: "/Users/zkp/Desktop/for_zkp/train/26_E.bmp"
        string_val: "/Users/zkp/Desktop/for_zkp/train/35_9.bmp"
        string_val: "/Users/zkp/Desktop/for_zkp/train/35_X.bmp"
        string_val: "/Users/zkp/Desktop/for_zkp/train/45_Q.bmp"
        string_val: "/Users/zkp/Desktop/for_zkp/train/45_0.bmp"
        string_val: "/Users/zkp/Desktop/for_zkp/train/26_R.bmp"
        string_val: "/Users/zkp/Desktop/for_zkp/train/26_3.bmp"
        string_val: "/Users/zkp/Desktop/for_zkp/train/7_1.bmp"
        string_val: "/Users/zkp/Desktop/for_zkp/train/7_P.bmp"
        string_val: "/Users/zkp/Desktop/for_zkp/train/7_G.bmp"
        string_val: "/Users/zkp/Desktop/for_zkp/train/50_J.bmp"
        string_val: "/Users/zkp/Desktop/for_zkp/train/15_J.bmp"
        string_val: "/Users/zkp/Desktop/for_zkp/train/20_C.bmp"
        string_val: "/Users/zkp/Desktop/for_zkp/train/33_I.bmp"
        string_val: "/Users/zkp/Desktop/for_zkp/train/20_T.bmp"
        string_val: "/Users/zkp/Desktop/for_zkp/train/20_5.bmp"
        string_val: "/Users/zkp/Desktop/for_zkp/train/43_W.bmp"
        string_val: "/Users/zkp/Desktop/for_zkp/train/43_6.bmp"
        string_val: "/Users/zkp/Desktop/for_zkp/train/9_H.bmp"
        string_val: "/Users/zkp/Desktop/for_zkp/train/5_R.bmp"
        string_val: "/Users/zkp/Desktop/for_zkp/train/5_3.bmp"
        string_val: "/Users/zkp/Desktop/for_zkp/train/19_G.bmp"
        string_val: "/Users/zkp/Desktop/for_zkp/train/5_E.bmp"
        string_val: "/Users/zkp/Desktop/for_zkp/train/19_P.bmp"
        string_val: "/Users/zkp/Desktop/for_zkp/train/19_1.bmp"
        string_val: "/Users/zkp/Desktop/for_zkp/train/22_A.bmp"
        string_val: "/Users/zkp/Desktop/for_zkp/train/17_H.bmp"
        string_val: "/Users/zkp/Desktop/for_zkp/train/52_H.bmp"
        string_val: "/Users/zkp/Desktop/for_zkp/train/41_B.bmp"
        string_val: "/Users/zkp/Desktop/for_zkp/train/31_K.bmp"
        string_val: "/Users/zkp/Desktop/for_zkp/train/22_7.bmp"
        string_val: "/Users/zkp/Desktop/for_zkp/train/22_V.bmp"
        string_val: "/Users/zkp/Desktop/for_zkp/train/41_4.bmp"
        string_val: "/Users/zkp/Desktop/for_zkp/train/41_U.bmp"
        string_val: "/Users/zkp/Desktop/for_zkp/train/41_T.bmp"
        string_val: "/Users/zkp/Desktop/for_zkp/train/41_5.bmp"
        string_val: "/Users/zkp/Desktop/for_zkp/train/22_W.bmp"
        string_val: "/Users/zkp/Desktop/for_zkp/train/22_6.bmp"
        string_val: "/Users/zkp/Desktop/for_zkp/train/41_C.bmp"
        string_val: "/Users/zkp/Desktop/for_zkp/train/31_J.bmp"
        string_val: "/Users/zkp/Desktop/for_zkp/train/17_I.bmp"
        string_val: "/Users/zkp/Desktop/for_zkp/train/52_I.bmp"
        string_val: "/Users/zkp/Desktop/for_zkp/train/19_0.bmp"
        string_val: "/Users/zkp/Desktop/for_zkp/train/19_Q.bmp"
        string_val: "/Users/zkp/Desktop/for_zkp/train/5_D.bmp"
        string_val: "/Users/zkp/Desktop/for_zkp/train/19_F.bmp"
        string_val: "/Users/zkp/Desktop/for_zkp/train/5_2.bmp"
        string_val: "/Users/zkp/Desktop/for_zkp/train/5_S.bmp"
        string_val: "/Users/zkp/Desktop/for_zkp/train/9_I.bmp"
        string_val: "/Users/zkp/Desktop/for_zkp/train/43_7.bmp"
        string_val: "/Users/zkp/Desktop/for_zkp/train/43_V.bmp"
        string_val: "/Users/zkp/Desktop/for_zkp/train/20_4.bmp"
        string_val: "/Users/zkp/Desktop/for_zkp/train/20_U.bmp"
        string_val: "/Users/zkp/Desktop/for_zkp/train/33_H.bmp"
        string_val: "/Users/zkp/Desktop/for_zkp/train/43_A.bmp"
        string_val: "/Users/zkp/Desktop/for_zkp/train/50_K.bmp"
        string_val: "/Users/zkp/Desktop/for_zkp/train/20_B.bmp"
        string_val: "/Users/zkp/Desktop/for_zkp/train/15_K.bmp"
        string_val: "/Users/zkp/Desktop/for_zkp/train/7_F.bmp"
        string_val: "/Users/zkp/Desktop/for_zkp/train/7_Q.bmp"
        string_val: "/Users/zkp/Desktop/for_zkp/train/7_0.bmp"
        string_val: "/Users/zkp/Desktop/for_zkp/train/56_Z.bmp"
        string_val: "/Users/zkp/Desktop/for_zkp/train/13_Z.bmp"
        string_val: "/Users/zkp/Desktop/for_zkp/train/26_2.bmp"
        string_val: "/Users/zkp/Desktop/for_zkp/train/26_S.bmp"
        string_val: "/Users/zkp/Desktop/for_zkp/train/35_Y.bmp"
        string_val: "/Users/zkp/Desktop/for_zkp/train/35_8.bmp"
        string_val: "/Users/zkp/Desktop/for_zkp/train/45_1.bmp"
        string_val: "/Users/zkp/Desktop/for_zkp/train/45_P.bmp"
        string_val: "/Users/zkp/Desktop/for_zkp/train/56_M.bmp"
        string_val: "/Users/zkp/Desktop/for_zkp/train/26_D.bmp"
        string_val: "/Users/zkp/Desktop/for_zkp/train/13_M.bmp"
        string_val: "/Users/zkp/Desktop/for_zkp/train/35_N.bmp"
        string_val: "/Users/zkp/Desktop/for_zkp/train/45_G.bmp"
        string_val: "/Users/zkp/Desktop/for_zkp/train/58_U.bmp"
        string_val: "/Users/zkp/Desktop/for_zkp/train/58_4.bmp"
        string_val: "/Users/zkp/Desktop/for_zkp/train/1_W.bmp"
        string_val: "/Users/zkp/Desktop/for_zkp/train/1_6.bmp"
        string_val: "/Users/zkp/Desktop/for_zkp/train/28_K.bmp"
        string_val: "/Users/zkp/Desktop/for_zkp/train/58_B.bmp"
        string_val: "/Users/zkp/Desktop/for_zkp/train/24_Q.bmp"
        string_val: "/Users/zkp/Desktop/for_zkp/train/24_0.bmp"
        string_val: "/Users/zkp/Desktop/for_zkp/train/11_9.bmp"
        string_val: "/Users/zkp/Desktop/for_zkp/train/11_X.bmp"
        string_val: "/Users/zkp/Desktop/for_zkp/train/54_9.bmp"
        string_val: "/Users/zkp/Desktop/for_zkp/train/54_X.bmp"
        string_val: "/Users/zkp/Desktop/for_zkp/train/47_R.bmp"
        string_val: "/Users/zkp/Desktop/for_zkp/train/47_3.bmp"
        string_val: "/Users/zkp/Desktop/for_zkp/train/11_O.bmp"
        string_val: "/Users/zkp/Desktop/for_zkp/train/24_F.bmp"
        string_val: "/Users/zkp/Desktop/for_zkp/train/54_O.bmp"
        string_val: "/Users/zkp/Desktop/for_zkp/train/47_E.bmp"
        string_val: "/Users/zkp/Desktop/for_zkp/train/37_L.bmp"
        string_val: "/Users/zkp/Desktop/for_zkp/train/39_5.bmp"
        string_val: "/Users/zkp/Desktop/for_zkp/train/39_T.bmp"
        string_val: "/Users/zkp/Desktop/for_zkp/train/3_B.bmp"
        string_val: "/Users/zkp/Desktop/for_zkp/train/39_C.bmp"
        string_val: "/Users/zkp/Desktop/for_zkp/train/3_4.bmp"
        string_val: "/Users/zkp/Desktop/for_zkp/train/3_U.bmp"
        string_val: "/Users/zkp/Desktop/for_zkp/train/49_J.bmp"
        string_val: "/Users/zkp/Desktop/for_zkp/train/3_F.bmp"
        string_val: "/Users/zkp/Desktop/for_zkp/train/49_8.bmp"
        string_val: "/Users/zkp/Desktop/for_zkp/train/49_Y.bmp"
        string_val: "/Users/zkp/Desktop/for_zkp/train/39_P.bmp"
        string_val: "/Users/zkp/Desktop/for_zkp/train/39_1.bmp"
        string_val: "/Users/zkp/Desktop/for_zkp/train/49_N.bmp"
        string_val: "/Users/zkp/Desktop/for_zkp/train/3_Q.bmp"
        string_val: "/Users/zkp/Desktop/for_zkp/train/3_0.bmp"
        string_val: "/Users/zkp/Desktop/for_zkp/train/39_G.bmp"
        string_val: "/Users/zkp/Desktop/for_zkp/train/47_7.bmp"
        string_val: "/Users/zkp/Desktop/for_zkp/train/47_V.bmp"
        string_val: "/Users/zkp/Desktop/for_zkp/train/24_4.bmp"
        string_val: "/Users/zkp/Desktop/for_zkp/train/24_U.bmp"
        string_val: "/Users/zkp/Desktop/for_zkp/train/37_H.bmp"
        string_val: "/Users/zkp/Desktop/for_zkp/train/47_A.bmp"
        string_val: "/Users/zkp/Desktop/for_zkp/train/54_K.bmp"
        string_val: "/Users/zkp/Desktop/for_zkp/train/24_B.bmp"
        string_val: "/Users/zkp/Desktop/for_zkp/train/11_K.bmp"
        string_val: "/Users/zkp/Desktop/for_zkp/train/58_0.bmp"
        string_val: "/Users/zkp/Desktop/for_zkp/train/58_Q.bmp"
        string_val: "/Users/zkp/Desktop/for_zkp/train/28_X.bmp"
        string_val: "/Users/zkp/Desktop/for_zkp/train/28_9.bmp"
        string_val: "/Users/zkp/Desktop/for_zkp/train/1_D.bmp"
        string_val: "/Users/zkp/Desktop/for_zkp/train/58_F.bmp"
        string_val: "/Users/zkp/Desktop/for_zkp/train/28_O.bmp"
        string_val: "/Users/zkp/Desktop/for_zkp/train/1_2.bmp"
        string_val: "/Users/zkp/Desktop/for_zkp/train/1_S.bmp"
        string_val: "/Users/zkp/Desktop/for_zkp/train/45_T.bmp"
        string_val: "/Users/zkp/Desktop/for_zkp/train/45_5.bmp"
        string_val: "/Users/zkp/Desktop/for_zkp/train/26_W.bmp"
        string_val: "/Users/zkp/Desktop/for_zkp/train/26_6.bmp"
        string_val: "/Users/zkp/Desktop/for_zkp/train/45_C.bmp"
        string_val: "/Users/zkp/Desktop/for_zkp/train/35_J.bmp"
        string_val: "/Users/zkp/Desktop/for_zkp/train/13_I.bmp"
        string_val: "/Users/zkp/Desktop/for_zkp/train/56_I.bmp"
        string_val: "/Users/zkp/Desktop/for_zkp/train/7_B.bmp"
        string_val: "/Users/zkp/Desktop/for_zkp/train/7_4.bmp"
        string_val: "/Users/zkp/Desktop/for_zkp/train/7_U.bmp"
        string_val: "/Users/zkp/Desktop/for_zkp/train/20_Q.bmp"
        string_val: "/Users/zkp/Desktop/for_zkp/train/20_0.bmp"
        string_val: "/Users/zkp/Desktop/for_zkp/train/15_9.bmp"
        string_val: "/Users/zkp/Desktop/for_zkp/train/15_X.bmp"
        string_val: "/Users/zkp/Desktop/for_zkp/train/50_9.bmp"
        string_val: "/Users/zkp/Desktop/for_zkp/train/50_X.bmp"
        string_val: "/Users/zkp/Desktop/for_zkp/train/43_R.bmp"
        string_val: "/Users/zkp/Desktop/for_zkp/train/43_3.bmp"
        string_val: "/Users/zkp/Desktop/for_zkp/train/9_M.bmp"
        string_val: "/Users/zkp/Desktop/for_zkp/train/15_O.bmp"
        string_val: "/Users/zkp/Desktop/for_zkp/train/20_F.bmp"
        string_val: "/Users/zkp/Desktop/for_zkp/train/50_O.bmp"
        string_val: "/Users/zkp/Desktop/for_zkp/train/9_Z.bmp"
        string_val: "/Users/zkp/Desktop/for_zkp/train/43_E.bmp"
        string_val: "/Users/zkp/Desktop/for_zkp/train/33_L.bmp"
        string_val: "/Users/zkp/Desktop/for_zkp/train/19_U.bmp"
        string_val: "/Users/zkp/Desktop/for_zkp/train/19_4.bmp"
        string_val: "/Users/zkp/Desktop/for_zkp/train/5_W.bmp"
        string_val: "/Users/zkp/Desktop/for_zkp/train/5_6.bmp"
        string_val: "/Users/zkp/Desktop/for_zkp/train/19_B.bmp"
        string_val: "/Users/zkp/Desktop/for_zkp/train/52_Z.bmp"
        string_val: "/Users/zkp/Desktop/for_zkp/train/17_Z.bmp"
        string_val: "/Users/zkp/Desktop/for_zkp/train/22_2.bmp"
        string_val: "/Users/zkp/Desktop/for_zkp/train/22_S.bmp"
        string_val: "/Users/zkp/Desktop/for_zkp/train/31_Y.bmp"
        string_val: "/Users/zkp/Desktop/for_zkp/train/31_8.bmp"
        string_val: "/Users/zkp/Desktop/for_zkp/train/41_1.bmp"
        string_val: "/Users/zkp/Desktop/for_zkp/train/41_P.bmp"
        string_val: "/Users/zkp/Desktop/for_zkp/train/52_M.bmp"
        string_val: "/Users/zkp/Desktop/for_zkp/train/22_D.bmp"
        string_val: "/Users/zkp/Desktop/for_zkp/train/17_M.bmp"
        string_val: "/Users/zkp/Desktop/for_zkp/train/31_N.bmp"
        string_val: "/Users/zkp/Desktop/for_zkp/train/41_G.bmp"
        string_val: "/Users/zkp/Desktop/for_zkp/train/31_O.bmp"
        string_val: "/Users/zkp/Desktop/for_zkp/train/41_F.bmp"
        string_val: "/Users/zkp/Desktop/for_zkp/train/52_L.bmp"
        string_val: "/Users/zkp/Desktop/for_zkp/train/17_L.bmp"
        string_val: "/Users/zkp/Desktop/for_zkp/train/22_E.bmp"
        string_val: "/Users/zkp/Desktop/for_zkp/train/31_9.bmp"
        string_val: "/Users/zkp/Desktop/for_zkp/train/31_X.bmp"
        string_val: "/Users/zkp/Desktop/for_zkp/train/41_Q.bmp"
        string_val: "/Users/zkp/Desktop/for_zkp/train/41_0.bmp"
        string_val: "/Users/zkp/Desktop/for_zkp/train/22_R.bmp"
        string_val: "/Users/zkp/Desktop/for_zkp/train/22_3.bmp"
        string_val: "/Users/zkp/Desktop/for_zkp/train/19_C.bmp"
        string_val: "/Users/zkp/Desktop/for_zkp/train/5_7.bmp"
        string_val: "/Users/zkp/Desktop/for_zkp/train/5_V.bmp"
        string_val: "/Users/zkp/Desktop/for_zkp/train/19_5.bmp"
        string_val: "/Users/zkp/Desktop/for_zkp/train/19_T.bmp"
        string_val: "/Users/zkp/Desktop/for_zkp/train/5_A.bmp"
        string_val: "/Users/zkp/Desktop/for_zkp/train/43_D.bmp"
        string_val: "/Users/zkp/Desktop/for_zkp/train/33_M.bmp"
        string_val: "/Users/zkp/Desktop/for_zkp/train/20_G.bmp"
        string_val: "/Users/zkp/Desktop/for_zkp/train/15_N.bmp"
        string_val: "/Users/zkp/Desktop/for_zkp/train/50_N.bmp"
        string_val: "/Users/zkp/Desktop/for_zkp/train/9_L.bmp"
        string_val: "/Users/zkp/Desktop/for_zkp/train/43_2.bmp"
        string_val: "/Users/zkp/Desktop/for_zkp/train/43_S.bmp"
        string_val: "/Users/zkp/Desktop/for_zkp/train/33_Z.bmp"
        string_val: "/Users/zkp/Desktop/for_zkp/train/15_Y.bmp"
        string_val: "/Users/zkp/Desktop/for_zkp/train/15_8.bmp"
        string_val: "/Users/zkp/Desktop/for_zkp/train/20_1.bmp"
        string_val: "/Users/zkp/Desktop/for_zkp/train/20_P.bmp"
        string_val: "/Users/zkp/Desktop/for_zkp/train/50_Y.bmp"
        string_val: "/Users/zkp/Desktop/for_zkp/train/50_8.bmp"
        string_val: "/Users/zkp/Desktop/for_zkp/train/7_T.bmp"
        string_val: "/Users/zkp/Desktop/for_zkp/train/7_5.bmp"
        string_val: "/Users/zkp/Desktop/for_zkp/train/7_C.bmp"
        string_val: "/Users/zkp/Desktop/for_zkp/train/26_A.bmp"
        string_val: "/Users/zkp/Desktop/for_zkp/train/13_H.bmp"
        string_val: "/Users/zkp/Desktop/for_zkp/train/56_H.bmp"
        string_val: "/Users/zkp/Desktop/for_zkp/train/45_B.bmp"
        string_val: "/Users/zkp/Desktop/for_zkp/train/35_K.bmp"
        string_val: "/Users/zkp/Desktop/for_zkp/train/26_7.bmp"
        string_val: "/Users/zkp/Desktop/for_zkp/train/26_V.bmp"
        string_val: "/Users/zkp/Desktop/for_zkp/train/45_4.bmp"
        string_val: "/Users/zkp/Desktop/for_zkp/train/45_U.bmp"
        string_val: "/Users/zkp/Desktop/for_zkp/train/1_R.bmp"
        string_val: "/Users/zkp/Desktop/for_zkp/train/1_3.bmp"
        string_val: "/Users/zkp/Desktop/for_zkp/train/58_G.bmp"
        string_val: "/Users/zkp/Desktop/for_zkp/train/28_N.bmp"
        string_val: "/Users/zkp/Desktop/for_zkp/train/1_E.bmp"
        string_val: "/Users/zkp/Desktop/for_zkp/train/58_P.bmp"
        string_val: "/Users/zkp/Desktop/for_zkp/train/58_1.bmp"
        string_val: "/Users/zkp/Desktop/for_zkp/train/28_8.bmp"
        string_val: "/Users/zkp/Desktop/for_zkp/train/28_Y.bmp"
        string_val: "/Users/zkp/Desktop/for_zkp/train/54_J.bmp"
        string_val: "/Users/zkp/Desktop/for_zkp/train/11_J.bmp"
        string_val: "/Users/zkp/Desktop/for_zkp/train/24_C.bmp"
        string_val: "/Users/zkp/Desktop/for_zkp/train/37_I.bmp"
        string_val: "/Users/zkp/Desktop/for_zkp/train/24_T.bmp"
        string_val: "/Users/zkp/Desktop/for_zkp/train/24_5.bmp"
        string_val: "/Users/zkp/Desktop/for_zkp/train/47_W.bmp"
        string_val: "/Users/zkp/Desktop/for_zkp/train/47_6.bmp"
        string_val: "/Users/zkp/Desktop/for_zkp/train/3_1.bmp"
        string_val: "/Users/zkp/Desktop/for_zkp/train/3_P.bmp"
        string_val: "/Users/zkp/Desktop/for_zkp/train/49_O.bmp"
        string_val: "/Users/zkp/Desktop/for_zkp/train/39_F.bmp"
        string_val: "/Users/zkp/Desktop/for_zkp/train/49_X.bmp"
        string_val: "/Users/zkp/Desktop/for_zkp/train/49_9.bmp"
        string_val: "/Users/zkp/Desktop/for_zkp/train/3_G.bmp"
        string_val: "/Users/zkp/Desktop/for_zkp/train/39_0.bmp"
        string_val: "/Users/zkp/Desktop/for_zkp/train/39_Q.bmp"
        string_val: "/Users/zkp/Desktop/for_zkp/train/39_S.bmp"
        string_val: "/Users/zkp/Desktop/for_zkp/train/39_2.bmp"
        string_val: "/Users/zkp/Desktop/for_zkp/train/3_E.bmp"
        string_val: "/Users/zkp/Desktop/for_zkp/train/49_Z.bmp"
        string_val: "/Users/zkp/Desktop/for_zkp/train/39_D.bmp"
        string_val: "/Users/zkp/Desktop/for_zkp/train/49_M.bmp"
        string_val: "/Users/zkp/Desktop/for_zkp/train/3_R.bmp"
        string_val: "/Users/zkp/Desktop/for_zkp/train/3_3.bmp"
        string_val: "/Users/zkp/Desktop/for_zkp/train/24_7.bmp"
        string_val: "/Users/zkp/Desktop/for_zkp/train/24_V.bmp"
        string_val: "/Users/zkp/Desktop/for_zkp/train/47_4.bmp"
        string_val: "/Users/zkp/Desktop/for_zkp/train/47_U.bmp"
        string_val: "/Users/zkp/Desktop/for_zkp/train/24_A.bmp"
        string_val: "/Users/zkp/Desktop/for_zkp/train/11_H.bmp"
        string_val: "/Users/zkp/Desktop/for_zkp/train/54_H.bmp"
        string_val: "/Users/zkp/Desktop/for_zkp/train/47_B.bmp"
        string_val: "/Users/zkp/Desktop/for_zkp/train/37_K.bmp"
        string_val: "/Users/zkp/Desktop/for_zkp/train/1_G.bmp"
        string_val: "/Users/zkp/Desktop/for_zkp/train/58_3.bmp"
        string_val: "/Users/zkp/Desktop/for_zkp/train/58_R.bmp"
        string_val: "/Users/zkp/Desktop/for_zkp/train/1_1.bmp"
        string_val: "/Users/zkp/Desktop/for_zkp/train/1_P.bmp"
        string_val: "/Users/zkp/Desktop/for_zkp/train/28_L.bmp"
        string_val: "/Users/zkp/Desktop/for_zkp/train/58_E.bmp"
        string_val: "/Users/zkp/Desktop/for_zkp/train/26_T.bmp"
        string_val: "/Users/zkp/Desktop/for_zkp/train/26_5.bmp"
        string_val: "/Users/zkp/Desktop/for_zkp/train/45_W.bmp"
        string_val: "/Users/zkp/Desktop/for_zkp/train/45_6.bmp"
        string_val: "/Users/zkp/Desktop/for_zkp/train/56_J.bmp"
        string_val: "/Users/zkp/Desktop/for_zkp/train/13_J.bmp"
        string_val: "/Users/zkp/Desktop/for_zkp/train/26_C.bmp"
        string_val: "/Users/zkp/Desktop/for_zkp/train/35_I.bmp"
        string_val: "/Users/zkp/Desktop/for_zkp/train/7_A.bmp"
        string_val: "/Users/zkp/Desktop/for_zkp/train/7_7.bmp"
        string_val: "/Users/zkp/Desktop/for_zkp/train/7_V.bmp"
        string_val: "/Users/zkp/Desktop/for_zkp/train/33_9.bmp"
        string_val: "/Users/zkp/Desktop/for_zkp/train/33_X.bmp"
        string_val: "/Users/zkp/Desktop/for_zkp/train/43_Q.bmp"
        string_val: "/Users/zkp/Desktop/for_zkp/train/43_0.bmp"
        string_val: "/Users/zkp/Desktop/for_zkp/train/9_N.bmp"
        string_val: "/Users/zkp/Desktop/for_zkp/train/20_R.bmp"
        string_val: "/Users/zkp/Desktop/for_zkp/train/20_3.bmp"
        string_val: "/Users/zkp/Desktop/for_zkp/train/33_O.bmp"
        string_val: "/Users/zkp/Desktop/for_zkp/train/9_8.bmp"
        string_val: "/Users/zkp/Desktop/for_zkp/train/9_Y.bmp"
        string_val: "/Users/zkp/Desktop/for_zkp/train/43_F.bmp"
        string_val: "/Users/zkp/Desktop/for_zkp/train/50_L.bmp"
        string_val: "/Users/zkp/Desktop/for_zkp/train/15_L.bmp"
        string_val: "/Users/zkp/Desktop/for_zkp/train/20_E.bmp"
        string_val: "/Users/zkp/Desktop/for_zkp/train/19_V.bmp"
        string_val: "/Users/zkp/Desktop/for_zkp/train/19_7.bmp"
        string_val: "/Users/zkp/Desktop/for_zkp/train/5_C.bmp"
        string_val: "/Users/zkp/Desktop/for_zkp/train/19_A.bmp"
        string_val: "/Users/zkp/Desktop/for_zkp/train/5_T.bmp"
        string_val: "/Users/zkp/Desktop/for_zkp/train/5_5.bmp"
        string_val: "/Users/zkp/Desktop/for_zkp/train/41_2.bmp"
        string_val: "/Users/zkp/Desktop/for_zkp/train/41_S.bmp"
        string_val: "/Users/zkp/Desktop/for_zkp/train/31_Z.bmp"
        string_val: "/Users/zkp/Desktop/for_zkp/train/17_Y.bmp"
        string_val: "/Users/zkp/Desktop/for_zkp/train/17_8.bmp"
        string_val: "/Users/zkp/Desktop/for_zkp/train/22_1.bmp"
        string_val: "/Users/zkp/Desktop/for_zkp/train/22_P.bmp"
        string_val: "/Users/zkp/Desktop/for_zkp/train/52_Y.bmp"
        string_val: "/Users/zkp/Desktop/for_zkp/train/52_8.bmp"
        string_val: "/Users/zkp/Desktop/for_zkp/train/41_D.bmp"
        string_val: "/Users/zkp/Desktop/for_zkp/train/31_M.bmp"
        string_val: "/Users/zkp/Desktop/for_zkp/train/22_G.bmp"
        string_val: "/Users/zkp/Desktop/for_zkp/train/17_N.bmp"
        string_val: "/Users/zkp/Desktop/for_zkp/train/52_N.bmp"
        string_val: "/Users/zkp/Desktop/for_zkp/train/17_O.bmp"
        string_val: "/Users/zkp/Desktop/for_zkp/train/22_F.bmp"
        string_val: "/Users/zkp/Desktop/for_zkp/train/52_O.bmp"
        string_val: "/Users/zkp/Desktop/for_zkp/train/41_E.bmp"
        string_val: "/Users/zkp/Desktop/for_zkp/train/31_L.bmp"
        string_val: "/Users/zkp/Desktop/for_zkp/train/22_Q.bmp"
        string_val: "/Users/zkp/Desktop/for_zkp/train/22_0.bmp"
        string_val: "/Users/zkp/Desktop/for_zkp/train/17_9.bmp"
        string_val: "/Users/zkp/Desktop/for_zkp/train/17_X.bmp"
        string_val: "/Users/zkp/Desktop/for_zkp/train/52_9.bmp"
        string_val: "/Users/zkp/Desktop/for_zkp/train/52_X.bmp"
        string_val: "/Users/zkp/Desktop/for_zkp/train/41_R.bmp"
        string_val: "/Users/zkp/Desktop/for_zkp/train/41_3.bmp"
        string_val: "/Users/zkp/Desktop/for_zkp/train/5_4.bmp"
        string_val: "/Users/zkp/Desktop/for_zkp/train/5_U.bmp"
        string_val: "/Users/zkp/Desktop/for_zkp/train/5_B.bmp"
        string_val: "/Users/zkp/Desktop/for_zkp/train/19_6.bmp"
        string_val: "/Users/zkp/Desktop/for_zkp/train/19_W.bmp"
        string_val: "/Users/zkp/Desktop/for_zkp/train/50_M.bmp"
        string_val: "/Users/zkp/Desktop/for_zkp/train/20_D.bmp"
        string_val: "/Users/zkp/Desktop/for_zkp/train/15_M.bmp"
        string_val: "/Users/zkp/Desktop/for_zkp/train/33_N.bmp"
        string_val: "/Users/zkp/Desktop/for_zkp/train/43_G.bmp"
        string_val: "/Users/zkp/Desktop/for_zkp/train/9_X.bmp"
        string_val: "/Users/zkp/Desktop/for_zkp/train/9_9.bmp"
        string_val: "/Users/zkp/Desktop/for_zkp/train/50_Z.bmp"
        string_val: "/Users/zkp/Desktop/for_zkp/train/15_Z.bmp"
        string_val: "/Users/zkp/Desktop/for_zkp/train/20_2.bmp"
        string_val: "/Users/zkp/Desktop/for_zkp/train/20_S.bmp"
        string_val: "/Users/zkp/Desktop/for_zkp/train/33_Y.bmp"
        string_val: "/Users/zkp/Desktop/for_zkp/train/33_8.bmp"
        string_val: "/Users/zkp/Desktop/for_zkp/train/9_O.bmp"
        string_val: "/Users/zkp/Desktop/for_zkp/train/43_1.bmp"
        string_val: "/Users/zkp/Desktop/for_zkp/train/43_P.bmp"
        string_val: "/Users/zkp/Desktop/for_zkp/train/7_W.bmp"
        string_val: "/Users/zkp/Desktop/for_zkp/train/7_6.bmp"
        string_val: "/Users/zkp/Desktop/for_zkp/train/35_H.bmp"
        string_val: "/Users/zkp/Desktop/for_zkp/train/45_A.bmp"
        string_val: "/Users/zkp/Desktop/for_zkp/train/56_K.bmp"
        string_val: "/Users/zkp/Desktop/for_zkp/train/26_B.bmp"
        string_val: "/Users/zkp/Desktop/for_zkp/train/13_K.bmp"
        string_val: "/Users/zkp/Desktop/for_zkp/train/45_7.bmp"
        string_val: "/Users/zkp/Desktop/for_zkp/train/45_V.bmp"
        string_val: "/Users/zkp/Desktop/for_zkp/train/26_4.bmp"
        string_val: "/Users/zkp/Desktop/for_zkp/train/26_U.bmp"
        string_val: "/Users/zkp/Desktop/for_zkp/train/28_M.bmp"
        string_val: "/Users/zkp/Desktop/for_zkp/train/58_D.bmp"
        string_val: "/Users/zkp/Desktop/for_zkp/train/1_Q.bmp"
        string_val: "/Users/zkp/Desktop/for_zkp/train/1_0.bmp"
        string_val: "/Users/zkp/Desktop/for_zkp/train/28_Z.bmp"
        string_val: "/Users/zkp/Desktop/for_zkp/train/58_S.bmp"
        string_val: "/Users/zkp/Desktop/for_zkp/train/58_2.bmp"
        string_val: "/Users/zkp/Desktop/for_zkp/train/1_F.bmp"
        string_val: "/Users/zkp/Desktop/for_zkp/train/47_C.bmp"
        string_val: "/Users/zkp/Desktop/for_zkp/train/37_J.bmp"
        string_val: "/Users/zkp/Desktop/for_zkp/train/11_I.bmp"
        string_val: "/Users/zkp/Desktop/for_zkp/train/54_I.bmp"
        string_val: "/Users/zkp/Desktop/for_zkp/train/47_T.bmp"
        string_val: "/Users/zkp/Desktop/for_zkp/train/47_5.bmp"
        string_val: "/Users/zkp/Desktop/for_zkp/train/24_W.bmp"
        string_val: "/Users/zkp/Desktop/for_zkp/train/24_6.bmp"
        string_val: "/Users/zkp/Desktop/for_zkp/train/39_E.bmp"
        string_val: "/Users/zkp/Desktop/for_zkp/train/3_2.bmp"
        string_val: "/Users/zkp/Desktop/for_zkp/train/3_S.bmp"
        string_val: "/Users/zkp/Desktop/for_zkp/train/49_L.bmp"
        string_val: "/Users/zkp/Desktop/for_zkp/train/39_3.bmp"
        string_val: "/Users/zkp/Desktop/for_zkp/train/39_R.bmp"
        string_val: "/Users/zkp/Desktop/for_zkp/train/3_D.bmp"
        string_val: "/Users/zkp/Desktop/for_zkp/train/4_3.bmp"
        string_val: "/Users/zkp/Desktop/for_zkp/train/4_R.bmp"
        string_val: "/Users/zkp/Desktop/for_zkp/train/18_G.bmp"
        string_val: "/Users/zkp/Desktop/for_zkp/train/4_E.bmp"
        string_val: "/Users/zkp/Desktop/for_zkp/train/18_1.bmp"
        string_val: "/Users/zkp/Desktop/for_zkp/train/18_P.bmp"
        string_val: "/Users/zkp/Desktop/for_zkp/train/53_H.bmp"
        string_val: "/Users/zkp/Desktop/for_zkp/train/23_A.bmp"
        string_val: "/Users/zkp/Desktop/for_zkp/train/16_H.bmp"
        string_val: "/Users/zkp/Desktop/for_zkp/train/30_K.bmp"
        string_val: "/Users/zkp/Desktop/for_zkp/train/40_B.bmp"
        string_val: "/Users/zkp/Desktop/for_zkp/train/23_V.bmp"
        string_val: "/Users/zkp/Desktop/for_zkp/train/23_7.bmp"
        string_val: "/Users/zkp/Desktop/for_zkp/train/40_U.bmp"
        string_val: "/Users/zkp/Desktop/for_zkp/train/40_4.bmp"
        string_val: "/Users/zkp/Desktop/for_zkp/train/6_P.bmp"
        string_val: "/Users/zkp/Desktop/for_zkp/train/6_1.bmp"
        string_val: "/Users/zkp/Desktop/for_zkp/train/6_G.bmp"
        string_val: "/Users/zkp/Desktop/for_zkp/train/14_J.bmp"
        string_val: "/Users/zkp/Desktop/for_zkp/train/21_C.bmp"
        string_val: "/Users/zkp/Desktop/for_zkp/train/51_J.bmp"
        string_val: "/Users/zkp/Desktop/for_zkp/train/32_I.bmp"
        string_val: "/Users/zkp/Desktop/for_zkp/train/21_5.bmp"
        string_val: "/Users/zkp/Desktop/for_zkp/train/21_T.bmp"
        string_val: "/Users/zkp/Desktop/for_zkp/train/42_6.bmp"
        string_val: "/Users/zkp/Desktop/for_zkp/train/42_W.bmp"
        string_val: "/Users/zkp/Desktop/for_zkp/train/8_H.bmp"
        string_val: "/Users/zkp/Desktop/for_zkp/train/59_C.bmp"
        string_val: "/Users/zkp/Desktop/for_zkp/train/29_J.bmp"
        string_val: "/Users/zkp/Desktop/for_zkp/train/0_V.bmp"
        string_val: "/Users/zkp/Desktop/for_zkp/train/0_7.bmp"
        string_val: "/Users/zkp/Desktop/for_zkp/train/59_T.bmp"
        string_val: "/Users/zkp/Desktop/for_zkp/train/59_5.bmp"
        string_val: "/Users/zkp/Desktop/for_zkp/train/0_A.bmp"
        string_val: "/Users/zkp/Desktop/for_zkp/train/44_F.bmp"
        string_val: "/Users/zkp/Desktop/for_zkp/train/34_O.bmp"
        string_val: "/Users/zkp/Desktop/for_zkp/train/12_L.bmp"
        string_val: "/Users/zkp/Desktop/for_zkp/train/27_E.bmp"
        string_val: "/Users/zkp/Desktop/for_zkp/train/57_L.bmp"
        string_val: "/Users/zkp/Desktop/for_zkp/train/44_0.bmp"
        string_val: "/Users/zkp/Desktop/for_zkp/train/44_Q.bmp"
        string_val: "/Users/zkp/Desktop/for_zkp/train/34_X.bmp"
        string_val: "/Users/zkp/Desktop/for_zkp/train/34_9.bmp"
        string_val: "/Users/zkp/Desktop/for_zkp/train/27_3.bmp"
        string_val: "/Users/zkp/Desktop/for_zkp/train/27_R.bmp"
        string_val: "/Users/zkp/Desktop/for_zkp/train/48_K.bmp"
        string_val: "/Users/zkp/Desktop/for_zkp/train/2_5.bmp"
        string_val: "/Users/zkp/Desktop/for_zkp/train/2_T.bmp"
        string_val: "/Users/zkp/Desktop/for_zkp/train/38_B.bmp"
        string_val: "/Users/zkp/Desktop/for_zkp/train/2_C.bmp"
        string_val: "/Users/zkp/Desktop/for_zkp/train/38_4.bmp"
        string_val: "/Users/zkp/Desktop/for_zkp/train/38_U.bmp"
        string_val: "/Users/zkp/Desktop/for_zkp/train/36_M.bmp"
        string_val: "/Users/zkp/Desktop/for_zkp/train/46_D.bmp"
        string_val: "/Users/zkp/Desktop/for_zkp/train/55_N.bmp"
        string_val: "/Users/zkp/Desktop/for_zkp/train/25_G.bmp"
        string_val: "/Users/zkp/Desktop/for_zkp/train/10_N.bmp"
        string_val: "/Users/zkp/Desktop/for_zkp/train/36_Z.bmp"
        string_val: "/Users/zkp/Desktop/for_zkp/train/46_S.bmp"
        string_val: "/Users/zkp/Desktop/for_zkp/train/46_2.bmp"
        string_val: "/Users/zkp/Desktop/for_zkp/train/55_8.bmp"
        string_val: "/Users/zkp/Desktop/for_zkp/train/55_Y.bmp"
        string_val: "/Users/zkp/Desktop/for_zkp/train/10_8.bmp"
        string_val: "/Users/zkp/Desktop/for_zkp/train/10_Y.bmp"
        string_val: "/Users/zkp/Desktop/for_zkp/train/25_P.bmp"
        string_val: "/Users/zkp/Desktop/for_zkp/train/25_1.bmp"
        string_val: "/Users/zkp/Desktop/for_zkp/train/55_X.bmp"
        string_val: "/Users/zkp/Desktop/for_zkp/train/55_9.bmp"
        string_val: "/Users/zkp/Desktop/for_zkp/train/25_0.bmp"
        string_val: "/Users/zkp/Desktop/for_zkp/train/25_Q.bmp"
        string_val: "/Users/zkp/Desktop/for_zkp/train/10_X.bmp"
        string_val: "/Users/zkp/Desktop/for_zkp/train/10_9.bmp"
        string_val: "/Users/zkp/Desktop/for_zkp/train/46_3.bmp"
        string_val: "/Users/zkp/Desktop/for_zkp/train/46_R.bmp"
        string_val: "/Users/zkp/Desktop/for_zkp/train/55_O.bmp"
        string_val: "/Users/zkp/Desktop/for_zkp/train/10_O.bmp"
        string_val: "/Users/zkp/Desktop/for_zkp/train/25_F.bmp"
        string_val: "/Users/zkp/Desktop/for_zkp/train/36_L.bmp"
        string_val: "/Users/zkp/Desktop/for_zkp/train/46_E.bmp"
        string_val: "/Users/zkp/Desktop/for_zkp/train/2_B.bmp"
        string_val: "/Users/zkp/Desktop/for_zkp/train/38_T.bmp"
        string_val: "/Users/zkp/Desktop/for_zkp/train/38_5.bmp"
        string_val: "/Users/zkp/Desktop/for_zkp/train/2_U.bmp"
        string_val: "/Users/zkp/Desktop/for_zkp/train/2_4.bmp"
        string_val: "/Users/zkp/Desktop/for_zkp/train/48_J.bmp"
        string_val: "/Users/zkp/Desktop/for_zkp/train/38_C.bmp"
        string_val: "/Users/zkp/Desktop/for_zkp/train/12_Z.bmp"
        string_val: "/Users/zkp/Desktop/for_zkp/train/27_S.bmp"
        string_val: "/Users/zkp/Desktop/for_zkp/train/27_2.bmp"
        string_val: "/Users/zkp/Desktop/for_zkp/train/57_Z.bmp"
        string_val: "/Users/zkp/Desktop/for_zkp/train/44_P.bmp"
        string_val: "/Users/zkp/Desktop/for_zkp/train/44_1.bmp"
        string_val: "/Users/zkp/Desktop/for_zkp/train/34_8.bmp"
        string_val: "/Users/zkp/Desktop/for_zkp/train/34_Y.bmp"
        string_val: "/Users/zkp/Desktop/for_zkp/train/27_D.bmp"
        string_val: "/Users/zkp/Desktop/for_zkp/train/12_M.bmp"
        string_val: "/Users/zkp/Desktop/for_zkp/train/57_M.bmp"
        string_val: "/Users/zkp/Desktop/for_zkp/train/44_G.bmp"
        string_val: "/Users/zkp/Desktop/for_zkp/train/34_N.bmp"
        string_val: "/Users/zkp/Desktop/for_zkp/train/59_4.bmp"
        string_val: "/Users/zkp/Desktop/for_zkp/train/59_U.bmp"
        string_val: "/Users/zkp/Desktop/for_zkp/train/0_6.bmp"
        string_val: "/Users/zkp/Desktop/for_zkp/train/0_W.bmp"
        string_val: "/Users/zkp/Desktop/for_zkp/train/59_B.bmp"
        string_val: "/Users/zkp/Desktop/for_zkp/train/29_K.bmp"
        string_val: "/Users/zkp/Desktop/for_zkp/train/8_I.bmp"
        string_val: "/Users/zkp/Desktop/for_zkp/train/42_V.bmp"
        string_val: "/Users/zkp/Desktop/for_zkp/train/42_7.bmp"
        string_val: "/Users/zkp/Desktop/for_zkp/train/21_U.bmp"
        string_val: "/Users/zkp/Desktop/for_zkp/train/21_4.bmp"
        string_val: "/Users/zkp/Desktop/for_zkp/train/42_A.bmp"
        string_val: "/Users/zkp/Desktop/for_zkp/train/32_H.bmp"
        string_val: "/Users/zkp/Desktop/for_zkp/train/21_B.bmp"
        string_val: "/Users/zkp/Desktop/for_zkp/train/14_K.bmp"
        string_val: "/Users/zkp/Desktop/for_zkp/train/51_K.bmp"
        string_val: "/Users/zkp/Desktop/for_zkp/train/6_F.bmp"
        string_val: "/Users/zkp/Desktop/for_zkp/train/6_0.bmp"
        string_val: "/Users/zkp/Desktop/for_zkp/train/6_Q.bmp"
        string_val: "/Users/zkp/Desktop/for_zkp/train/40_5.bmp"
        string_val: "/Users/zkp/Desktop/for_zkp/train/40_T.bmp"
        string_val: "/Users/zkp/Desktop/for_zkp/train/23_6.bmp"
        string_val: "/Users/zkp/Desktop/for_zkp/train/23_W.bmp"
        string_val: "/Users/zkp/Desktop/for_zkp/train/30_J.bmp"
        string_val: "/Users/zkp/Desktop/for_zkp/train/40_C.bmp"
        string_val: "/Users/zkp/Desktop/for_zkp/train/53_I.bmp"
        string_val: "/Users/zkp/Desktop/for_zkp/train/16_I.bmp"
        string_val: "/Users/zkp/Desktop/for_zkp/train/18_Q.bmp"
        string_val: "/Users/zkp/Desktop/for_zkp/train/18_0.bmp"
        string_val: "/Users/zkp/Desktop/for_zkp/train/4_D.bmp"
        string_val: "/Users/zkp/Desktop/for_zkp/train/18_F.bmp"
        string_val: "/Users/zkp/Desktop/for_zkp/train/4_S.bmp"
        string_val: "/Users/zkp/Desktop/for_zkp/train/4_2.bmp"
        string_val: "/Users/zkp/Desktop/for_zkp/train/18_D.bmp"
        string_val: "/Users/zkp/Desktop/for_zkp/train/4_0.bmp"
        string_val: "/Users/zkp/Desktop/for_zkp/train/4_Q.bmp"
        string_val: "/Users/zkp/Desktop/for_zkp/train/18_2.bmp"
        string_val: "/Users/zkp/Desktop/for_zkp/train/18_S.bmp"
        string_val: "/Users/zkp/Desktop/for_zkp/train/4_F.bmp"
        string_val: "/Users/zkp/Desktop/for_zkp/train/40_A.bmp"
        string_val: "/Users/zkp/Desktop/for_zkp/train/30_H.bmp"
        string_val: "/Users/zkp/Desktop/for_zkp/train/23_B.bmp"
        string_val: "/Users/zkp/Desktop/for_zkp/train/16_K.bmp"
        string_val: "/Users/zkp/Desktop/for_zkp/train/53_K.bmp"
        string_val: "/Users/zkp/Desktop/for_zkp/train/40_V.bmp"
        string_val: "/Users/zkp/Desktop/for_zkp/train/40_7.bmp"
        string_val: "/Users/zkp/Desktop/for_zkp/train/23_U.bmp"
        string_val: "/Users/zkp/Desktop/for_zkp/train/23_4.bmp"
        string_val: "/Users/zkp/Desktop/for_zkp/train/6_S.bmp"
        string_val: "/Users/zkp/Desktop/for_zkp/train/6_2.bmp"
        string_val: "/Users/zkp/Desktop/for_zkp/train/6_D.bmp"
        string_val: "/Users/zkp/Desktop/for_zkp/train/32_J.bmp"
        string_val: "/Users/zkp/Desktop/for_zkp/train/42_C.bmp"
        string_val: "/Users/zkp/Desktop/for_zkp/train/51_I.bmp"
        string_val: "/Users/zkp/Desktop/for_zkp/train/14_I.bmp"
        string_val: "/Users/zkp/Desktop/for_zkp/train/42_5.bmp"
        string_val: "/Users/zkp/Desktop/for_zkp/train/42_T.bmp"
        string_val: "/Users/zkp/Desktop/for_zkp/train/8_K.bmp"
        string_val: "/Users/zkp/Desktop/for_zkp/train/21_6.bmp"
        string_val: "/Users/zkp/Desktop/for_zkp/train/21_W.bmp"
        string_val: "/Users/zkp/Desktop/for_zkp/train/0_U.bmp"
        string_val: "/Users/zkp/Desktop/for_zkp/train/0_4.bmp"
        string_val: "/Users/zkp/Desktop/for_zkp/train/29_I.bmp"
        string_val: "/Users/zkp/Desktop/for_zkp/train/0_B.bmp"
        string_val: "/Users/zkp/Desktop/for_zkp/train/59_W.bmp"
        string_val: "/Users/zkp/Desktop/for_zkp/train/59_6.bmp"
        string_val: "/Users/zkp/Desktop/for_zkp/train/57_O.bmp"
        string_val: "/Users/zkp/Desktop/for_zkp/train/12_O.bmp"
        string_val: "/Users/zkp/Desktop/for_zkp/train/27_F.bmp"
        string_val: "/Users/zkp/Desktop/for_zkp/train/34_L.bmp"
        string_val: "/Users/zkp/Desktop/for_zkp/train/44_E.bmp"
        string_val: "/Users/zkp/Desktop/for_zkp/train/57_X.bmp"
        string_val: "/Users/zkp/Desktop/for_zkp/train/57_9.bmp"
        string_val: "/Users/zkp/Desktop/for_zkp/train/27_0.bmp"
        string_val: "/Users/zkp/Desktop/for_zkp/train/27_Q.bmp"
        string_val: "/Users/zkp/Desktop/for_zkp/train/12_X.bmp"
        string_val: "/Users/zkp/Desktop/for_zkp/train/12_9.bmp"
        string_val: "/Users/zkp/Desktop/for_zkp/train/44_3.bmp"
        string_val: "/Users/zkp/Desktop/for_zkp/train/44_R.bmp"
        string_val: "/Users/zkp/Desktop/for_zkp/train/38_A.bmp"
        string_val: "/Users/zkp/Desktop/for_zkp/train/48_H.bmp"
        string_val: "/Users/zkp/Desktop/for_zkp/train/2_6.bmp"
        string_val: "/Users/zkp/Desktop/for_zkp/train/2_W.bmp"
        string_val: "/Users/zkp/Desktop/for_zkp/train/38_7.bmp"
        string_val: "/Users/zkp/Desktop/for_zkp/train/38_V.bmp"
        string_val: "/Users/zkp/Desktop/for_zkp/train/25_D.bmp"
        string_val: "/Users/zkp/Desktop/for_zkp/train/10_M.bmp"
        string_val: "/Users/zkp/Desktop/for_zkp/train/55_M.bmp"
        string_val: "/Users/zkp/Desktop/for_zkp/train/46_G.bmp"
        string_val: "/Users/zkp/Desktop/for_zkp/train/36_N.bmp"
        string_val: "/Users/zkp/Desktop/for_zkp/train/10_Z.bmp"
        string_val: "/Users/zkp/Desktop/for_zkp/train/25_S.bmp"
        string_val: "/Users/zkp/Desktop/for_zkp/train/25_2.bmp"
        string_val: "/Users/zkp/Desktop/for_zkp/train/55_Z.bmp"
        string_val: "/Users/zkp/Desktop/for_zkp/train/46_P.bmp"
        string_val: "/Users/zkp/Desktop/for_zkp/train/46_1.bmp"
        string_val: "/Users/zkp/Desktop/for_zkp/train/36_8.bmp"
        string_val: "/Users/zkp/Desktop/for_zkp/train/36_Y.bmp"
        string_val: "/Users/zkp/Desktop/for_zkp/train/46_0.bmp"
        string_val: "/Users/zkp/Desktop/for_zkp/train/46_Q.bmp"
        string_val: "/Users/zkp/Desktop/for_zkp/train/36_X.bmp"
        string_val: "/Users/zkp/Desktop/for_zkp/train/36_9.bmp"
        string_val: "/Users/zkp/Desktop/for_zkp/train/25_3.bmp"
        string_val: "/Users/zkp/Desktop/for_zkp/train/25_R.bmp"
        string_val: "/Users/zkp/Desktop/for_zkp/train/46_F.bmp"
        string_val: "/Users/zkp/Desktop/for_zkp/train/36_O.bmp"
        string_val: "/Users/zkp/Desktop/for_zkp/train/10_L.bmp"
        string_val: "/Users/zkp/Desktop/for_zkp/train/25_E.bmp"
        string_val: "/Users/zkp/Desktop/for_zkp/train/55_L.bmp"
        string_val: "/Users/zkp/Desktop/for_zkp/train/38_W.bmp"
        string_val: "/Users/zkp/Desktop/for_zkp/train/38_6.bmp"
        string_val: "/Users/zkp/Desktop/for_zkp/train/2_A.bmp"
        string_val: "/Users/zkp/Desktop/for_zkp/train/2_V.bmp"
        string_val: "/Users/zkp/Desktop/for_zkp/train/2_7.bmp"
        string_val: "/Users/zkp/Desktop/for_zkp/train/48_I.bmp"
        string_val: "/Users/zkp/Desktop/for_zkp/train/34_Z.bmp"
        string_val: "/Users/zkp/Desktop/for_zkp/train/44_S.bmp"
        string_val: "/Users/zkp/Desktop/for_zkp/train/44_2.bmp"
        string_val: "/Users/zkp/Desktop/for_zkp/train/57_8.bmp"
        string_val: "/Users/zkp/Desktop/for_zkp/train/57_Y.bmp"
        string_val: "/Users/zkp/Desktop/for_zkp/train/12_8.bmp"
        string_val: "/Users/zkp/Desktop/for_zkp/train/12_Y.bmp"
        string_val: "/Users/zkp/Desktop/for_zkp/train/27_P.bmp"
        string_val: "/Users/zkp/Desktop/for_zkp/train/27_1.bmp"
        string_val: "/Users/zkp/Desktop/for_zkp/train/34_M.bmp"
        string_val: "/Users/zkp/Desktop/for_zkp/train/44_D.bmp"
        string_val: "/Users/zkp/Desktop/for_zkp/train/57_N.bmp"
        string_val: "/Users/zkp/Desktop/for_zkp/train/27_G.bmp"
        string_val: "/Users/zkp/Desktop/for_zkp/train/12_N.bmp"
        string_val: "/Users/zkp/Desktop/for_zkp/train/59_7.bmp"
        string_val: "/Users/zkp/Desktop/for_zkp/train/59_V.bmp"
        string_val: "/Users/zkp/Desktop/for_zkp/train/0_C.bmp"
        string_val: "/Users/zkp/Desktop/for_zkp/train/29_H.bmp"
        string_val: "/Users/zkp/Desktop/for_zkp/train/59_A.bmp"
        string_val: "/Users/zkp/Desktop/for_zkp/train/0_5.bmp"
        string_val: "/Users/zkp/Desktop/for_zkp/train/0_T.bmp"
        string_val: "/Users/zkp/Desktop/for_zkp/train/21_V.bmp"
        string_val: "/Users/zkp/Desktop/for_zkp/train/21_7.bmp"
        string_val: "/Users/zkp/Desktop/for_zkp/train/8_J.bmp"
        string_val: "/Users/zkp/Desktop/for_zkp/train/42_U.bmp"
        string_val: "/Users/zkp/Desktop/for_zkp/train/42_4.bmp"
        string_val: "/Users/zkp/Desktop/for_zkp/train/51_H.bmp"
        string_val: "/Users/zkp/Desktop/for_zkp/train/21_A.bmp"
        string_val: "/Users/zkp/Desktop/for_zkp/train/14_H.bmp"
        string_val: "/Users/zkp/Desktop/for_zkp/train/32_K.bmp"
        string_val: "/Users/zkp/Desktop/for_zkp/train/42_B.bmp"
        string_val: "/Users/zkp/Desktop/for_zkp/train/6_E.bmp"
        string_val: "/Users/zkp/Desktop/for_zkp/train/6_3.bmp"
        string_val: "/Users/zkp/Desktop/for_zkp/train/6_R.bmp"
        string_val: "/Users/zkp/Desktop/for_zkp/train/23_5.bmp"
        string_val: "/Users/zkp/Desktop/for_zkp/train/23_T.bmp"
        string_val: "/Users/zkp/Desktop/for_zkp/train/40_6.bmp"
        string_val: "/Users/zkp/Desktop/for_zkp/train/40_W.bmp"
        string_val: "/Users/zkp/Desktop/for_zkp/train/16_J.bmp"
        string_val: "/Users/zkp/Desktop/for_zkp/train/23_C.bmp"
        string_val: "/Users/zkp/Desktop/for_zkp/train/53_J.bmp"
        string_val: "/Users/zkp/Desktop/for_zkp/train/30_I.bmp"
        string_val: "/Users/zkp/Desktop/for_zkp/train/4_G.bmp"
        string_val: "/Users/zkp/Desktop/for_zkp/train/18_R.bmp"
        string_val: "/Users/zkp/Desktop/for_zkp/train/18_3.bmp"
        string_val: "/Users/zkp/Desktop/for_zkp/train/4_P.bmp"
        string_val: "/Users/zkp/Desktop/for_zkp/train/4_1.bmp"
        string_val: "/Users/zkp/Desktop/for_zkp/train/18_E.bmp"
        string_val: "/Users/zkp/Desktop/for_zkp/train/18_7.bmp"
        string_val: "/Users/zkp/Desktop/for_zkp/train/18_V.bmp"
        string_val: "/Users/zkp/Desktop/for_zkp/train/4_C.bmp"
        string_val: "/Users/zkp/Desktop/for_zkp/train/18_A.bmp"
        string_val: "/Users/zkp/Desktop/for_zkp/train/4_5.bmp"
        string_val: "/Users/zkp/Desktop/for_zkp/train/4_T.bmp"
        string_val: "/Users/zkp/Desktop/for_zkp/train/30_Z.bmp"
        string_val: "/Users/zkp/Desktop/for_zkp/train/40_S.bmp"
        string_val: "/Users/zkp/Desktop/for_zkp/train/40_2.bmp"
        string_val: "/Users/zkp/Desktop/for_zkp/train/53_8.bmp"
        string_val: "/Users/zkp/Desktop/for_zkp/train/53_Y.bmp"
        string_val: "/Users/zkp/Desktop/for_zkp/train/16_8.bmp"
        string_val: "/Users/zkp/Desktop/for_zkp/train/16_Y.bmp"
        string_val: "/Users/zkp/Desktop/for_zkp/train/23_P.bmp"
        string_val: "/Users/zkp/Desktop/for_zkp/train/23_1.bmp"
        string_val: "/Users/zkp/Desktop/for_zkp/train/30_M.bmp"
        string_val: "/Users/zkp/Desktop/for_zkp/train/40_D.bmp"
        string_val: "/Users/zkp/Desktop/for_zkp/train/53_N.bmp"
        string_val: "/Users/zkp/Desktop/for_zkp/train/23_G.bmp"
        string_val: "/Users/zkp/Desktop/for_zkp/train/16_N.bmp"
        string_val: "/Users/zkp/Desktop/for_zkp/train/6_A.bmp"
        string_val: "/Users/zkp/Desktop/for_zkp/train/6_V.bmp"
        string_val: "/Users/zkp/Desktop/for_zkp/train/6_7.bmp"
        string_val: "/Users/zkp/Desktop/for_zkp/train/42_0.bmp"
        string_val: "/Users/zkp/Desktop/for_zkp/train/42_Q.bmp"
        string_val: "/Users/zkp/Desktop/for_zkp/train/8_N.bmp"
        string_val: "/Users/zkp/Desktop/for_zkp/train/32_X.bmp"
        string_val: "/Users/zkp/Desktop/for_zkp/train/32_9.bmp"
        string_val: "/Users/zkp/Desktop/for_zkp/train/21_3.bmp"
        string_val: "/Users/zkp/Desktop/for_zkp/train/21_R.bmp"
        string_val: "/Users/zkp/Desktop/for_zkp/train/8_Y.bmp"
        string_val: "/Users/zkp/Desktop/for_zkp/train/8_8.bmp"
        string_val: "/Users/zkp/Desktop/for_zkp/train/42_F.bmp"
        string_val: "/Users/zkp/Desktop/for_zkp/train/32_O.bmp"
        string_val: "/Users/zkp/Desktop/for_zkp/train/14_L.bmp"
        string_val: "/Users/zkp/Desktop/for_zkp/train/21_E.bmp"
        string_val: "/Users/zkp/Desktop/for_zkp/train/51_L.bmp"
        string_val: "/Users/zkp/Desktop/for_zkp/train/0_G.bmp"
        string_val: "/Users/zkp/Desktop/for_zkp/train/59_R.bmp"
        string_val: "/Users/zkp/Desktop/for_zkp/train/59_3.bmp"
        string_val: "/Users/zkp/Desktop/for_zkp/train/0_P.bmp"
        string_val: "/Users/zkp/Desktop/for_zkp/train/0_1.bmp"
        string_val: "/Users/zkp/Desktop/for_zkp/train/59_E.bmp"
        string_val: "/Users/zkp/Desktop/for_zkp/train/29_L.bmp"
        string_val: "/Users/zkp/Desktop/for_zkp/train/27_5.bmp"
        string_val: "/Users/zkp/Desktop/for_zkp/train/27_T.bmp"
        string_val: "/Users/zkp/Desktop/for_zkp/train/44_6.bmp"
        string_val: "/Users/zkp/Desktop/for_zkp/train/44_W.bmp"
        string_val: "/Users/zkp/Desktop/for_zkp/train/12_J.bmp"
        string_val: "/Users/zkp/Desktop/for_zkp/train/27_C.bmp"
        string_val: "/Users/zkp/Desktop/for_zkp/train/57_J.bmp"
        string_val: "/Users/zkp/Desktop/for_zkp/train/34_I.bmp"
        string_val: "/Users/zkp/Desktop/for_zkp/train/2_E.bmp"
        string_val: "/Users/zkp/Desktop/for_zkp/train/48_Z.bmp"
        string_val: "/Users/zkp/Desktop/for_zkp/train/38_2.bmp"
        string_val: "/Users/zkp/Desktop/for_zkp/train/38_S.bmp"
        string_val: "/Users/zkp/Desktop/for_zkp/train/48_M.bmp"
        string_val: "/Users/zkp/Desktop/for_zkp/train/2_3.bmp"
        string_val: "/Users/zkp/Desktop/for_zkp/train/2_R.bmp"
        string_val: "/Users/zkp/Desktop/for_zkp/train/38_D.bmp"
        string_val: "/Users/zkp/Desktop/for_zkp/train/25_V.bmp"
        string_val: "/Users/zkp/Desktop/for_zkp/train/25_7.bmp"
        string_val: "/Users/zkp/Desktop/for_zkp/train/46_U.bmp"
        string_val: "/Users/zkp/Desktop/for_zkp/train/46_4.bmp"
        string_val: "/Users/zkp/Desktop/for_zkp/train/55_H.bmp"
        string_val: "/Users/zkp/Desktop/for_zkp/train/25_A.bmp"
        string_val: "/Users/zkp/Desktop/for_zkp/train/10_H.bmp"
        string_val: "/Users/zkp/Desktop/for_zkp/train/36_K.bmp"
        string_val: "/Users/zkp/Desktop/for_zkp/train/46_B.bmp"
        string_val: "/Users/zkp/Desktop/for_zkp/train/36_J.bmp"
        string_val: "/Users/zkp/Desktop/for_zkp/train/46_C.bmp"
        string_val: "/Users/zkp/Desktop/for_zkp/train/55_I.bmp"
        string_val: "/Users/zkp/Desktop/for_zkp/train/10_I.bmp"
        string_val: "/Users/zkp/Desktop/for_zkp/train/46_5.bmp"
        string_val: "/Users/zkp/Desktop/for_zkp/train/46_T.bmp"
        string_val: "/Users/zkp/Desktop/for_zkp/train/25_6.bmp"
        string_val: "/Users/zkp/Desktop/for_zkp/train/25_W.bmp"
        string_val: "/Users/zkp/Desktop/for_zkp/train/2_S.bmp"
        string_val: "/Users/zkp/Desktop/for_zkp/train/2_2.bmp"
        string_val: "/Users/zkp/Desktop/for_zkp/train/48_L.bmp"
        string_val: "/Users/zkp/Desktop/for_zkp/train/38_E.bmp"
        string_val: "/Users/zkp/Desktop/for_zkp/train/2_D.bmp"
        string_val: "/Users/zkp/Desktop/for_zkp/train/38_R.bmp"
        string_val: "/Users/zkp/Desktop/for_zkp/train/38_3.bmp"
        string_val: "/Users/zkp/Desktop/for_zkp/train/44_A.bmp"
        string_val: "/Users/zkp/Desktop/for_zkp/train/34_H.bmp"
        string_val: "/Users/zkp/Desktop/for_zkp/train/27_B.bmp"
        string_val: "/Users/zkp/Desktop/for_zkp/train/12_K.bmp"
        string_val: "/Users/zkp/Desktop/for_zkp/train/57_K.bmp"
        string_val: "/Users/zkp/Desktop/for_zkp/train/44_V.bmp"
        string_val: "/Users/zkp/Desktop/for_zkp/train/44_7.bmp"
        string_val: "/Users/zkp/Desktop/for_zkp/train/27_U.bmp"
        string_val: "/Users/zkp/Desktop/for_zkp/train/27_4.bmp"
        string_val: "/Users/zkp/Desktop/for_zkp/train/59_D.bmp"
        string_val: "/Users/zkp/Desktop/for_zkp/train/29_M.bmp"
        string_val: "/Users/zkp/Desktop/for_zkp/train/0_0.bmp"
        string_val: "/Users/zkp/Desktop/for_zkp/train/0_Q.bmp"
        string_val: "/Users/zkp/Desktop/for_zkp/train/59_2.bmp"
        string_val: "/Users/zkp/Desktop/for_zkp/train/59_S.bmp"
        string_val: "/Users/zkp/Desktop/for_zkp/train/29_Z.bmp"
        string_val: "/Users/zkp/Desktop/for_zkp/train/0_F.bmp"
        string_val: "/Users/zkp/Desktop/for_zkp/train/21_D.bmp"
        string_val: "/Users/zkp/Desktop/for_zkp/train/14_M.bmp"
        string_val: "/Users/zkp/Desktop/for_zkp/train/51_M.bmp"
        string_val: "/Users/zkp/Desktop/for_zkp/train/42_G.bmp"
        string_val: "/Users/zkp/Desktop/for_zkp/train/8_9.bmp"
        string_val: "/Users/zkp/Desktop/for_zkp/train/8_X.bmp"
        string_val: "/Users/zkp/Desktop/for_zkp/train/32_N.bmp"
        string_val: "/Users/zkp/Desktop/for_zkp/train/14_Z.bmp"
        string_val: "/Users/zkp/Desktop/for_zkp/train/21_S.bmp"
        string_val: "/Users/zkp/Desktop/for_zkp/train/21_2.bmp"
        string_val: "/Users/zkp/Desktop/for_zkp/train/51_Z.bmp"
        string_val: "/Users/zkp/Desktop/for_zkp/train/8_O.bmp"
        string_val: "/Users/zkp/Desktop/for_zkp/train/42_P.bmp"
        string_val: "/Users/zkp/Desktop/for_zkp/train/42_1.bmp"
        string_val: "/Users/zkp/Desktop/for_zkp/train/32_8.bmp"
        string_val: "/Users/zkp/Desktop/for_zkp/train/32_Y.bmp"
        string_val: "/Users/zkp/Desktop/for_zkp/train/6_6.bmp"
        string_val: "/Users/zkp/Desktop/for_zkp/train/6_W.bmp"
        string_val: "/Users/zkp/Desktop/for_zkp/train/53_O.bmp"
        string_val: "/Users/zkp/Desktop/for_zkp/train/16_O.bmp"
        string_val: "/Users/zkp/Desktop/for_zkp/train/23_F.bmp"
        string_val: "/Users/zkp/Desktop/for_zkp/train/30_L.bmp"
        string_val: "/Users/zkp/Desktop/for_zkp/train/40_E.bmp"
        string_val: "/Users/zkp/Desktop/for_zkp/train/53_X.bmp"
        string_val: "/Users/zkp/Desktop/for_zkp/train/53_9.bmp"
        string_val: "/Users/zkp/Desktop/for_zkp/train/23_0.bmp"
        string_val: "/Users/zkp/Desktop/for_zkp/train/23_Q.bmp"
        string_val: "/Users/zkp/Desktop/for_zkp/train/16_X.bmp"
        string_val: "/Users/zkp/Desktop/for_zkp/train/16_9.bmp"
        string_val: "/Users/zkp/Desktop/for_zkp/train/40_3.bmp"
        string_val: "/Users/zkp/Desktop/for_zkp/train/40_R.bmp"
        string_val: "/Users/zkp/Desktop/for_zkp/train/4_U.bmp"
        string_val: "/Users/zkp/Desktop/for_zkp/train/4_4.bmp"
        string_val: "/Users/zkp/Desktop/for_zkp/train/4_B.bmp"
        string_val: "/Users/zkp/Desktop/for_zkp/train/18_W.bmp"
        string_val: "/Users/zkp/Desktop/for_zkp/train/18_6.bmp"
        string_val: "/Users/zkp/Desktop/for_zkp/train/18_4.bmp"
        string_val: "/Users/zkp/Desktop/for_zkp/train/18_U.bmp"
        string_val: "/Users/zkp/Desktop/for_zkp/train/4_6.bmp"
        string_val: "/Users/zkp/Desktop/for_zkp/train/4_W.bmp"
        string_val: "/Users/zkp/Desktop/for_zkp/train/18_B.bmp"
        string_val: "/Users/zkp/Desktop/for_zkp/train/16_Z.bmp"
        string_val: "/Users/zkp/Desktop/for_zkp/train/23_S.bmp"
        string_val: "/Users/zkp/Desktop/for_zkp/train/23_2.bmp"
        string_val: "/Users/zkp/Desktop/for_zkp/train/53_Z.bmp"
        string_val: "/Users/zkp/Desktop/for_zkp/train/40_P.bmp"
        string_val: "/Users/zkp/Desktop/for_zkp/train/40_1.bmp"
        string_val: "/Users/zkp/Desktop/for_zkp/train/30_8.bmp"
        string_val: "/Users/zkp/Desktop/for_zkp/train/30_Y.bmp"
        string_val: "/Users/zkp/Desktop/for_zkp/train/23_D.bmp"
        string_val: "/Users/zkp/Desktop/for_zkp/train/16_M.bmp"
        string_val: "/Users/zkp/Desktop/for_zkp/train/53_M.bmp"
        string_val: "/Users/zkp/Desktop/for_zkp/train/40_G.bmp"
        string_val: "/Users/zkp/Desktop/for_zkp/train/30_N.bmp"
        string_val: "/Users/zkp/Desktop/for_zkp/train/6_B.bmp"
        string_val: "/Users/zkp/Desktop/for_zkp/train/6_U.bmp"
        string_val: "/Users/zkp/Desktop/for_zkp/train/6_4.bmp"
        string_val: "/Users/zkp/Desktop/for_zkp/train/51_X.bmp"
        string_val: "/Users/zkp/Desktop/for_zkp/train/51_9.bmp"
        string_val: "/Users/zkp/Desktop/for_zkp/train/21_0.bmp"
        string_val: "/Users/zkp/Desktop/for_zkp/train/21_Q.bmp"
        string_val: "/Users/zkp/Desktop/for_zkp/train/14_X.bmp"
        string_val: "/Users/zkp/Desktop/for_zkp/train/14_9.bmp"
        string_val: "/Users/zkp/Desktop/for_zkp/train/42_3.bmp"
        string_val: "/Users/zkp/Desktop/for_zkp/train/42_R.bmp"
        string_val: "/Users/zkp/Desktop/for_zkp/train/8_M.bmp"
        string_val: "/Users/zkp/Desktop/for_zkp/train/51_O.bmp"
        string_val: "/Users/zkp/Desktop/for_zkp/train/14_O.bmp"
        string_val: "/Users/zkp/Desktop/for_zkp/train/21_F.bmp"
        string_val: "/Users/zkp/Desktop/for_zkp/train/32_L.bmp"
        string_val: "/Users/zkp/Desktop/for_zkp/train/8_Z.bmp"
        string_val: "/Users/zkp/Desktop/for_zkp/train/42_E.bmp"
        string_val: "/Users/zkp/Desktop/for_zkp/train/29_9.bmp"
        string_val: "/Users/zkp/Desktop/for_zkp/train/29_X.bmp"
        string_val: "/Users/zkp/Desktop/for_zkp/train/59_Q.bmp"
        string_val: "/Users/zkp/Desktop/for_zkp/train/59_0.bmp"
        string_val: "/Users/zkp/Desktop/for_zkp/train/0_D.bmp"
        string_val: "/Users/zkp/Desktop/for_zkp/train/29_O.bmp"
        string_val: "/Users/zkp/Desktop/for_zkp/train/59_F.bmp"
        string_val: "/Users/zkp/Desktop/for_zkp/train/0_S.bmp"
        string_val: "/Users/zkp/Desktop/for_zkp/train/0_2.bmp"
        string_val: "/Users/zkp/Desktop/for_zkp/train/44_5.bmp"
        string_val: "/Users/zkp/Desktop/for_zkp/train/44_T.bmp"
        string_val: "/Users/zkp/Desktop/for_zkp/train/27_6.bmp"
        string_val: "/Users/zkp/Desktop/for_zkp/train/27_W.bmp"
        string_val: "/Users/zkp/Desktop/for_zkp/train/34_J.bmp"
        string_val: "/Users/zkp/Desktop/for_zkp/train/44_C.bmp"
        string_val: "/Users/zkp/Desktop/for_zkp/train/57_I.bmp"
        string_val: "/Users/zkp/Desktop/for_zkp/train/12_I.bmp"
        string_val: "/Users/zkp/Desktop/for_zkp/train/38_1.bmp"
        string_val: "/Users/zkp/Desktop/for_zkp/train/38_P.bmp"
        string_val: "/Users/zkp/Desktop/for_zkp/train/2_F.bmp"
        string_val: "/Users/zkp/Desktop/for_zkp/train/48_Y.bmp"
        string_val: "/Users/zkp/Desktop/for_zkp/train/48_8.bmp"
        string_val: "/Users/zkp/Desktop/for_zkp/train/38_G.bmp"
        string_val: "/Users/zkp/Desktop/for_zkp/train/48_N.bmp"
        string_val: "/Users/zkp/Desktop/for_zkp/train/2_0.bmp"
        string_val: "/Users/zkp/Desktop/for_zkp/train/2_Q.bmp"
        string_val: "/Users/zkp/Desktop/for_zkp/train/46_V.bmp"
        string_val: "/Users/zkp/Desktop/for_zkp/train/46_7.bmp"
        string_val: "/Users/zkp/Desktop/for_zkp/train/25_U.bmp"
        string_val: "/Users/zkp/Desktop/for_zkp/train/25_4.bmp"
        string_val: "/Users/zkp/Desktop/for_zkp/train/46_A.bmp"
        string_val: "/Users/zkp/Desktop/for_zkp/train/36_H.bmp"
        string_val: "/Users/zkp/Desktop/for_zkp/train/25_B.bmp"
        string_val: "/Users/zkp/Desktop/for_zkp/train/10_K.bmp"
        string_val: "/Users/zkp/Desktop/for_zkp/train/55_K.bmp"
        string_val: "/Users/zkp/Desktop/for_zkp/train/10_J.bmp"
        string_val: "/Users/zkp/Desktop/for_zkp/train/25_C.bmp"
        string_val: "/Users/zkp/Desktop/for_zkp/train/55_J.bmp"
        string_val: "/Users/zkp/Desktop/for_zkp/train/36_I.bmp"
        string_val: "/Users/zkp/Desktop/for_zkp/train/25_5.bmp"
        string_val: "/Users/zkp/Desktop/for_zkp/train/25_T.bmp"
        string_val: "/Users/zkp/Desktop/for_zkp/train/46_6.bmp"
        string_val: "/Users/zkp/Desktop/for_zkp/train/46_W.bmp"
        string_val: "/Users/zkp/Desktop/for_zkp/train/38_F.bmp"
        string_val: "/Users/zkp/Desktop/for_zkp/train/2_P.bmp"
        string_val: "/Users/zkp/Desktop/for_zkp/train/2_1.bmp"
        string_val: "/Users/zkp/Desktop/for_zkp/train/48_O.bmp"
        string_val: "/Users/zkp/Desktop/for_zkp/train/38_Q.bmp"
        string_val: "/Users/zkp/Desktop/for_zkp/train/38_0.bmp"
        string_val: "/Users/zkp/Desktop/for_zkp/train/48_9.bmp"
        string_val: "/Users/zkp/Desktop/for_zkp/train/48_X.bmp"
        string_val: "/Users/zkp/Desktop/for_zkp/train/2_G.bmp"
        string_val: "/Users/zkp/Desktop/for_zkp/train/57_H.bmp"
        string_val: "/Users/zkp/Desktop/for_zkp/train/27_A.bmp"
        string_val: "/Users/zkp/Desktop/for_zkp/train/12_H.bmp"
        string_val: "/Users/zkp/Desktop/for_zkp/train/34_K.bmp"
        string_val: "/Users/zkp/Desktop/for_zkp/train/44_B.bmp"
        string_val: "/Users/zkp/Desktop/for_zkp/train/27_V.bmp"
        string_val: "/Users/zkp/Desktop/for_zkp/train/27_7.bmp"
        string_val: "/Users/zkp/Desktop/for_zkp/train/44_U.bmp"
        string_val: "/Users/zkp/Desktop/for_zkp/train/44_4.bmp"
        string_val: "/Users/zkp/Desktop/for_zkp/train/0_3.bmp"
        string_val: "/Users/zkp/Desktop/for_zkp/train/0_R.bmp"
        string_val: "/Users/zkp/Desktop/for_zkp/train/29_N.bmp"
        string_val: "/Users/zkp/Desktop/for_zkp/train/59_G.bmp"
        string_val: "/Users/zkp/Desktop/for_zkp/train/0_E.bmp"
        string_val: "/Users/zkp/Desktop/for_zkp/train/29_Y.bmp"
        string_val: "/Users/zkp/Desktop/for_zkp/train/29_8.bmp"
        string_val: "/Users/zkp/Desktop/for_zkp/train/59_1.bmp"
        string_val: "/Users/zkp/Desktop/for_zkp/train/59_P.bmp"
        string_val: "/Users/zkp/Desktop/for_zkp/train/32_M.bmp"
        string_val: "/Users/zkp/Desktop/for_zkp/train/42_D.bmp"
        string_val: "/Users/zkp/Desktop/for_zkp/train/51_N.bmp"
        string_val: "/Users/zkp/Desktop/for_zkp/train/21_G.bmp"
        string_val: "/Users/zkp/Desktop/for_zkp/train/14_N.bmp"
        string_val: "/Users/zkp/Desktop/for_zkp/train/32_Z.bmp"
        string_val: "/Users/zkp/Desktop/for_zkp/train/8_L.bmp"
        string_val: "/Users/zkp/Desktop/for_zkp/train/42_S.bmp"
        string_val: "/Users/zkp/Desktop/for_zkp/train/42_2.bmp"
        string_val: "/Users/zkp/Desktop/for_zkp/train/51_8.bmp"
        string_val: "/Users/zkp/Desktop/for_zkp/train/51_Y.bmp"
        string_val: "/Users/zkp/Desktop/for_zkp/train/14_8.bmp"
        string_val: "/Users/zkp/Desktop/for_zkp/train/14_Y.bmp"
        string_val: "/Users/zkp/Desktop/for_zkp/train/21_P.bmp"
        string_val: "/Users/zkp/Desktop/for_zkp/train/21_1.bmp"
        string_val: "/Users/zkp/Desktop/for_zkp/train/6_5.bmp"
        string_val: "/Users/zkp/Desktop/for_zkp/train/6_T.bmp"
        string_val: "/Users/zkp/Desktop/for_zkp/train/6_C.bmp"
        string_val: "/Users/zkp/Desktop/for_zkp/train/40_F.bmp"
        string_val: "/Users/zkp/Desktop/for_zkp/train/30_O.bmp"
        string_val: "/Users/zkp/Desktop/for_zkp/train/16_L.bmp"
        string_val: "/Users/zkp/Desktop/for_zkp/train/23_E.bmp"
        string_val: "/Users/zkp/Desktop/for_zkp/train/53_L.bmp"
        string_val: "/Users/zkp/Desktop/for_zkp/train/40_0.bmp"
        string_val: "/Users/zkp/Desktop/for_zkp/train/40_Q.bmp"
        string_val: "/Users/zkp/Desktop/for_zkp/train/30_X.bmp"
        string_val: "/Users/zkp/Desktop/for_zkp/train/30_9.bmp"
        string_val: "/Users/zkp/Desktop/for_zkp/train/23_3.bmp"
        string_val: "/Users/zkp/Desktop/for_zkp/train/23_R.bmp"
        string_val: "/Users/zkp/Desktop/for_zkp/train/18_C.bmp"
        string_val: "/Users/zkp/Desktop/for_zkp/train/4_V.bmp"
        string_val: "/Users/zkp/Desktop/for_zkp/train/4_7.bmp"
        string_val: "/Users/zkp/Desktop/for_zkp/train/18_T.bmp"
        string_val: "/Users/zkp/Desktop/for_zkp/train/18_5.bmp"
        string_val: "/Users/zkp/Desktop/for_zkp/train/4_A.bmp"
        string_val: "/Users/zkp/Desktop/for_zkp/train/18_8.bmp"
        string_val: "/Users/zkp/Desktop/for_zkp/train/18_Y.bmp"
        string_val: "/Users/zkp/Desktop/for_zkp/train/4_L.bmp"
        string_val: "/Users/zkp/Desktop/for_zkp/train/18_N.bmp"
        string_val: "/Users/zkp/Desktop/for_zkp/train/30_4.bmp"
        string_val: "/Users/zkp/Desktop/for_zkp/train/30_U.bmp"
        string_val: "/Users/zkp/Desktop/for_zkp/train/16_7.bmp"
        string_val: "/Users/zkp/Desktop/for_zkp/train/16_V.bmp"
        string_val: "/Users/zkp/Desktop/for_zkp/train/53_7.bmp"
        string_val: "/Users/zkp/Desktop/for_zkp/train/53_V.bmp"
        string_val: "/Users/zkp/Desktop/for_zkp/train/40_K.bmp"
        string_val: "/Users/zkp/Desktop/for_zkp/train/30_B.bmp"
        string_val: "/Users/zkp/Desktop/for_zkp/train/16_A.bmp"
        string_val: "/Users/zkp/Desktop/for_zkp/train/23_H.bmp"
        string_val: "/Users/zkp/Desktop/for_zkp/train/53_A.bmp"
        string_val: "/Users/zkp/Desktop/for_zkp/train/6_N.bmp"
        string_val: "/Users/zkp/Desktop/for_zkp/train/6_Y.bmp"
        string_val: "/Users/zkp/Desktop/for_zkp/train/6_8.bmp"
        string_val: "/Users/zkp/Desktop/for_zkp/train/32_W.bmp"
        string_val: "/Users/zkp/Desktop/for_zkp/train/32_6.bmp"
        string_val: "/Users/zkp/Desktop/for_zkp/train/8_A.bmp"
        string_val: "/Users/zkp/Desktop/for_zkp/train/51_T.bmp"
        string_val: "/Users/zkp/Desktop/for_zkp/train/51_5.bmp"
        string_val: "/Users/zkp/Desktop/for_zkp/train/14_T.bmp"
        string_val: "/Users/zkp/Desktop/for_zkp/train/14_5.bmp"
        string_val: "/Users/zkp/Desktop/for_zkp/train/42_I.bmp"
        string_val: "/Users/zkp/Desktop/for_zkp/train/8_V.bmp"
        string_val: "/Users/zkp/Desktop/for_zkp/train/8_7.bmp"
        string_val: "/Users/zkp/Desktop/for_zkp/train/51_C.bmp"
        string_val: "/Users/zkp/Desktop/for_zkp/train/21_J.bmp"
        string_val: "/Users/zkp/Desktop/for_zkp/train/14_C.bmp"
        string_val: "/Users/zkp/Desktop/for_zkp/train/0_H.bmp"
        string_val: "/Users/zkp/Desktop/for_zkp/train/29_5.bmp"
        string_val: "/Users/zkp/Desktop/for_zkp/train/29_T.bmp"
        string_val: "/Users/zkp/Desktop/for_zkp/train/29_C.bmp"
        string_val: "/Users/zkp/Desktop/for_zkp/train/59_J.bmp"
        string_val: "/Users/zkp/Desktop/for_zkp/train/57_R.bmp"
        string_val: "/Users/zkp/Desktop/for_zkp/train/57_3.bmp"
        string_val: "/Users/zkp/Desktop/for_zkp/train/12_R.bmp"
        string_val: "/Users/zkp/Desktop/for_zkp/train/12_3.bmp"
        string_val: "/Users/zkp/Desktop/for_zkp/train/34_Q.bmp"
        string_val: "/Users/zkp/Desktop/for_zkp/train/34_0.bmp"
        string_val: "/Users/zkp/Desktop/for_zkp/train/44_9.bmp"
        string_val: "/Users/zkp/Desktop/for_zkp/train/44_X.bmp"
        string_val: "/Users/zkp/Desktop/for_zkp/train/57_E.bmp"
        string_val: "/Users/zkp/Desktop/for_zkp/train/27_L.bmp"
        string_val: "/Users/zkp/Desktop/for_zkp/train/12_E.bmp"
        string_val: "/Users/zkp/Desktop/for_zkp/train/34_F.bmp"
        string_val: "/Users/zkp/Desktop/for_zkp/train/44_O.bmp"
        string_val: "/Users/zkp/Desktop/for_zkp/train/48_U.bmp"
        string_val: "/Users/zkp/Desktop/for_zkp/train/48_4.bmp"
        string_val: "/Users/zkp/Desktop/for_zkp/train/2_J.bmp"
        string_val: "/Users/zkp/Desktop/for_zkp/train/38_K.bmp"
        string_val: "/Users/zkp/Desktop/for_zkp/train/48_B.bmp"
        string_val: "/Users/zkp/Desktop/for_zkp/train/25_Y.bmp"
        string_val: "/Users/zkp/Desktop/for_zkp/train/25_8.bmp"
        string_val: "/Users/zkp/Desktop/for_zkp/train/10_1.bmp"
        string_val: "/Users/zkp/Desktop/for_zkp/train/10_P.bmp"
        string_val: "/Users/zkp/Desktop/for_zkp/train/55_1.bmp"
        string_val: "/Users/zkp/Desktop/for_zkp/train/55_P.bmp"
        string_val: "/Users/zkp/Desktop/for_zkp/train/46_Z.bmp"
        string_val: "/Users/zkp/Desktop/for_zkp/train/36_2.bmp"
        string_val: "/Users/zkp/Desktop/for_zkp/train/36_S.bmp"
        string_val: "/Users/zkp/Desktop/for_zkp/train/10_G.bmp"
        string_val: "/Users/zkp/Desktop/for_zkp/train/25_N.bmp"
        string_val: "/Users/zkp/Desktop/for_zkp/train/55_G.bmp"
        string_val: "/Users/zkp/Desktop/for_zkp/train/46_M.bmp"
        string_val: "/Users/zkp/Desktop/for_zkp/train/36_D.bmp"
        string_val: "/Users/zkp/Desktop/for_zkp/train/46_L.bmp"
        string_val: "/Users/zkp/Desktop/for_zkp/train/36_E.bmp"
        string_val: "/Users/zkp/Desktop/for_zkp/train/25_O.bmp"
        string_val: "/Users/zkp/Desktop/for_zkp/train/10_F.bmp"
        string_val: "/Users/zkp/Desktop/for_zkp/train/55_F.bmp"
        string_val: "/Users/zkp/Desktop/for_zkp/train/36_R.bmp"
        string_val: "/Users/zkp/Desktop/for_zkp/train/36_3.bmp"
        string_val: "/Users/zkp/Desktop/for_zkp/train/10_Q.bmp"
        string_val: "/Users/zkp/Desktop/for_zkp/train/10_0.bmp"
        string_val: "/Users/zkp/Desktop/for_zkp/train/25_9.bmp"
        string_val: "/Users/zkp/Desktop/for_zkp/train/25_X.bmp"
        string_val: "/Users/zkp/Desktop/for_zkp/train/55_Q.bmp"
        string_val: "/Users/zkp/Desktop/for_zkp/train/55_0.bmp"
        string_val: "/Users/zkp/Desktop/for_zkp/train/38_J.bmp"
        string_val: "/Users/zkp/Desktop/for_zkp/train/48_C.bmp"
        string_val: "/Users/zkp/Desktop/for_zkp/train/2_K.bmp"
        string_val: "/Users/zkp/Desktop/for_zkp/train/48_5.bmp"
        string_val: "/Users/zkp/Desktop/for_zkp/train/48_T.bmp"
        string_val: "/Users/zkp/Desktop/for_zkp/train/34_G.bmp"
        string_val: "/Users/zkp/Desktop/for_zkp/train/44_N.bmp"
        string_val: "/Users/zkp/Desktop/for_zkp/train/57_D.bmp"
        string_val: "/Users/zkp/Desktop/for_zkp/train/12_D.bmp"
        string_val: "/Users/zkp/Desktop/for_zkp/train/27_M.bmp"
        string_val: "/Users/zkp/Desktop/for_zkp/train/34_1.bmp"
        string_val: "/Users/zkp/Desktop/for_zkp/train/34_P.bmp"
        string_val: "/Users/zkp/Desktop/for_zkp/train/44_Y.bmp"
        string_val: "/Users/zkp/Desktop/for_zkp/train/44_8.bmp"
        string_val: "/Users/zkp/Desktop/for_zkp/train/57_2.bmp"
        string_val: "/Users/zkp/Desktop/for_zkp/train/57_S.bmp"
        string_val: "/Users/zkp/Desktop/for_zkp/train/27_Z.bmp"
        string_val: "/Users/zkp/Desktop/for_zkp/train/12_2.bmp"
        string_val: "/Users/zkp/Desktop/for_zkp/train/12_S.bmp"
        string_val: "/Users/zkp/Desktop/for_zkp/train/29_B.bmp"
        string_val: "/Users/zkp/Desktop/for_zkp/train/59_K.bmp"
        string_val: "/Users/zkp/Desktop/for_zkp/train/29_U.bmp"
        string_val: "/Users/zkp/Desktop/for_zkp/train/29_4.bmp"
        string_val: "/Users/zkp/Desktop/for_zkp/train/0_I.bmp"
        string_val: "/Users/zkp/Desktop/for_zkp/train/51_B.bmp"
        string_val: "/Users/zkp/Desktop/for_zkp/train/14_B.bmp"
        string_val: "/Users/zkp/Desktop/for_zkp/train/21_K.bmp"
        string_val: "/Users/zkp/Desktop/for_zkp/train/32_A.bmp"
        string_val: "/Users/zkp/Desktop/for_zkp/train/8_6.bmp"
        string_val: "/Users/zkp/Desktop/for_zkp/train/8_W.bmp"
        string_val: "/Users/zkp/Desktop/for_zkp/train/42_H.bmp"
        string_val: "/Users/zkp/Desktop/for_zkp/train/51_4.bmp"
        string_val: "/Users/zkp/Desktop/for_zkp/train/51_U.bmp"
        string_val: "/Users/zkp/Desktop/for_zkp/train/14_4.bmp"
        string_val: "/Users/zkp/Desktop/for_zkp/train/14_U.bmp"
        string_val: "/Users/zkp/Desktop/for_zkp/train/32_7.bmp"
        string_val: "/Users/zkp/Desktop/for_zkp/train/32_V.bmp"
        string_val: "/Users/zkp/Desktop/for_zkp/train/6_9.bmp"
        string_val: "/Users/zkp/Desktop/for_zkp/train/6_X.bmp"
        string_val: "/Users/zkp/Desktop/for_zkp/train/6_O.bmp"
        string_val: "/Users/zkp/Desktop/for_zkp/train/23_I.bmp"
        string_val: "/Users/zkp/Desktop/for_zkp/train/40_J.bmp"
        string_val: "/Users/zkp/Desktop/for_zkp/train/30_C.bmp"
        string_val: "/Users/zkp/Desktop/for_zkp/train/16_W.bmp"
        string_val: "/Users/zkp/Desktop/for_zkp/train/16_6.bmp"
        string_val: "/Users/zkp/Desktop/for_zkp/train/53_W.bmp"
        string_val: "/Users/zkp/Desktop/for_zkp/train/53_6.bmp"
        string_val: "/Users/zkp/Desktop/for_zkp/train/30_T.bmp"
        string_val: "/Users/zkp/Desktop/for_zkp/train/30_5.bmp"
        string_val: "/Users/zkp/Desktop/for_zkp/train/4_Z.bmp"
        string_val: "/Users/zkp/Desktop/for_zkp/train/18_O.bmp"
        string_val: "/Users/zkp/Desktop/for_zkp/train/4_M.bmp"
        string_val: "/Users/zkp/Desktop/for_zkp/train/18_X.bmp"
        string_val: "/Users/zkp/Desktop/for_zkp/train/18_9.bmp"
        string_val: "/Users/zkp/Desktop/for_zkp/train/4_O.bmp"
        string_val: "/Users/zkp/Desktop/for_zkp/train/18_Z.bmp"
        string_val: "/Users/zkp/Desktop/for_zkp/train/4_9.bmp"
        string_val: "/Users/zkp/Desktop/for_zkp/train/4_X.bmp"
        string_val: "/Users/zkp/Desktop/for_zkp/train/18_M.bmp"
        string_val: "/Users/zkp/Desktop/for_zkp/train/53_4.bmp"
        string_val: "/Users/zkp/Desktop/for_zkp/train/53_U.bmp"
        string_val: "/Users/zkp/Desktop/for_zkp/train/16_4.bmp"
        string_val: "/Users/zkp/Desktop/for_zkp/train/16_U.bmp"
        string_val: "/Users/zkp/Desktop/for_zkp/train/30_7.bmp"
        string_val: "/Users/zkp/Desktop/for_zkp/train/30_V.bmp"
        string_val: "/Users/zkp/Desktop/for_zkp/train/53_B.bmp"
        string_val: "/Users/zkp/Desktop/for_zkp/train/16_B.bmp"
        string_val: "/Users/zkp/Desktop/for_zkp/train/23_K.bmp"
        string_val: "/Users/zkp/Desktop/for_zkp/train/30_A.bmp"
        string_val: "/Users/zkp/Desktop/for_zkp/train/40_H.bmp"
        string_val: "/Users/zkp/Desktop/for_zkp/train/6_M.bmp"
        string_val: "/Users/zkp/Desktop/for_zkp/train/6_Z.bmp"
        string_val: "/Users/zkp/Desktop/for_zkp/train/14_W.bmp"
        string_val: "/Users/zkp/Desktop/for_zkp/train/14_6.bmp"
        string_val: "/Users/zkp/Desktop/for_zkp/train/51_W.bmp"
        string_val: "/Users/zkp/Desktop/for_zkp/train/51_6.bmp"
        string_val: "/Users/zkp/Desktop/for_zkp/train/8_B.bmp"
        string_val: "/Users/zkp/Desktop/for_zkp/train/32_T.bmp"
        string_val: "/Users/zkp/Desktop/for_zkp/train/32_5.bmp"
        string_val: "/Users/zkp/Desktop/for_zkp/train/21_I.bmp"
        string_val: "/Users/zkp/Desktop/for_zkp/train/42_J.bmp"
        string_val: "/Users/zkp/Desktop/for_zkp/train/8_U.bmp"
        string_val: "/Users/zkp/Desktop/for_zkp/train/8_4.bmp"
        string_val: "/Users/zkp/Desktop/for_zkp/train/32_C.bmp"
        string_val: "/Users/zkp/Desktop/for_zkp/train/29_6.bmp"
        string_val: "/Users/zkp/Desktop/for_zkp/train/29_W.bmp"
        string_val: "/Users/zkp/Desktop/for_zkp/train/0_K.bmp"
        string_val: "/Users/zkp/Desktop/for_zkp/train/59_I.bmp"
        string_val: "/Users/zkp/Desktop/for_zkp/train/34_R.bmp"
        string_val: "/Users/zkp/Desktop/for_zkp/train/34_3.bmp"
        string_val: "/Users/zkp/Desktop/for_zkp/train/12_Q.bmp"
        string_val: "/Users/zkp/Desktop/for_zkp/train/12_0.bmp"
        string_val: "/Users/zkp/Desktop/for_zkp/train/27_9.bmp"
        string_val: "/Users/zkp/Desktop/for_zkp/train/27_X.bmp"
        string_val: "/Users/zkp/Desktop/for_zkp/train/57_Q.bmp"
        string_val: "/Users/zkp/Desktop/for_zkp/train/57_0.bmp"
        string_val: "/Users/zkp/Desktop/for_zkp/train/44_L.bmp"
        string_val: "/Users/zkp/Desktop/for_zkp/train/34_E.bmp"
        string_val: "/Users/zkp/Desktop/for_zkp/train/27_O.bmp"
        string_val: "/Users/zkp/Desktop/for_zkp/train/12_F.bmp"
        string_val: "/Users/zkp/Desktop/for_zkp/train/57_F.bmp"
        string_val: "/Users/zkp/Desktop/for_zkp/train/48_V.bmp"
        string_val: "/Users/zkp/Desktop/for_zkp/train/48_7.bmp"
        string_val: "/Users/zkp/Desktop/for_zkp/train/2_I.bmp"
        string_val: "/Users/zkp/Desktop/for_zkp/train/48_A.bmp"
        string_val: "/Users/zkp/Desktop/for_zkp/train/38_H.bmp"
        string_val: "/Users/zkp/Desktop/for_zkp/train/36_1.bmp"
        string_val: "/Users/zkp/Desktop/for_zkp/train/36_P.bmp"
        string_val: "/Users/zkp/Desktop/for_zkp/train/46_Y.bmp"
        string_val: "/Users/zkp/Desktop/for_zkp/train/46_8.bmp"
        string_val: "/Users/zkp/Desktop/for_zkp/train/55_2.bmp"
        string_val: "/Users/zkp/Desktop/for_zkp/train/55_S.bmp"
        string_val: "/Users/zkp/Desktop/for_zkp/train/25_Z.bmp"
        string_val: "/Users/zkp/Desktop/for_zkp/train/10_2.bmp"
        string_val: "/Users/zkp/Desktop/for_zkp/train/10_S.bmp"
        string_val: "/Users/zkp/Desktop/for_zkp/train/36_G.bmp"
        string_val: "/Users/zkp/Desktop/for_zkp/train/46_N.bmp"
        string_val: "/Users/zkp/Desktop/for_zkp/train/55_D.bmp"
        string_val: "/Users/zkp/Desktop/for_zkp/train/10_D.bmp"
        string_val: "/Users/zkp/Desktop/for_zkp/train/25_M.bmp"
        string_val: "/Users/zkp/Desktop/for_zkp/train/55_E.bmp"
        string_val: "/Users/zkp/Desktop/for_zkp/train/25_L.bmp"
        string_val: "/Users/zkp/Desktop/for_zkp/train/10_E.bmp"
        string_val: "/Users/zkp/Desktop/for_zkp/train/36_F.bmp"
        string_val: "/Users/zkp/Desktop/for_zkp/train/46_O.bmp"
        string_val: "/Users/zkp/Desktop/for_zkp/train/55_R.bmp"
        string_val: "/Users/zkp/Desktop/for_zkp/train/55_3.bmp"
        string_val: "/Users/zkp/Desktop/for_zkp/train/10_R.bmp"
        string_val: "/Users/zkp/Desktop/for_zkp/train/10_3.bmp"
        string_val: "/Users/zkp/Desktop/for_zkp/train/36_Q.bmp"
        string_val: "/Users/zkp/Desktop/for_zkp/train/36_0.bmp"
        string_val: "/Users/zkp/Desktop/for_zkp/train/46_9.bmp"
        string_val: "/Users/zkp/Desktop/for_zkp/train/46_X.bmp"
        string_val: "/Users/zkp/Desktop/for_zkp/train/38_I.bmp"
        string_val: "/Users/zkp/Desktop/for_zkp/train/2_H.bmp"
        string_val: "/Users/zkp/Desktop/for_zkp/train/48_6.bmp"
        string_val: "/Users/zkp/Desktop/for_zkp/train/48_W.bmp"
        string_val: "/Users/zkp/Desktop/for_zkp/train/12_G.bmp"
        string_val: "/Users/zkp/Desktop/for_zkp/train/27_N.bmp"
        string_val: "/Users/zkp/Desktop/for_zkp/train/57_G.bmp"
        string_val: "/Users/zkp/Desktop/for_zkp/train/44_M.bmp"
        string_val: "/Users/zkp/Desktop/for_zkp/train/34_D.bmp"
        string_val: "/Users/zkp/Desktop/for_zkp/train/27_Y.bmp"
        string_val: "/Users/zkp/Desktop/for_zkp/train/27_8.bmp"
        string_val: "/Users/zkp/Desktop/for_zkp/train/12_1.bmp"
        string_val: "/Users/zkp/Desktop/for_zkp/train/12_P.bmp"
        string_val: "/Users/zkp/Desktop/for_zkp/train/57_1.bmp"
        string_val: "/Users/zkp/Desktop/for_zkp/train/57_P.bmp"
        string_val: "/Users/zkp/Desktop/for_zkp/train/44_Z.bmp"
        string_val: "/Users/zkp/Desktop/for_zkp/train/34_2.bmp"
        string_val: "/Users/zkp/Desktop/for_zkp/train/34_S.bmp"
        string_val: "/Users/zkp/Desktop/for_zkp/train/59_H.bmp"
        string_val: "/Users/zkp/Desktop/for_zkp/train/29_A.bmp"
        string_val: "/Users/zkp/Desktop/for_zkp/train/0_J.bmp"
        string_val: "/Users/zkp/Desktop/for_zkp/train/29_V.bmp"
        string_val: "/Users/zkp/Desktop/for_zkp/train/29_7.bmp"
        string_val: "/Users/zkp/Desktop/for_zkp/train/8_5.bmp"
        string_val: "/Users/zkp/Desktop/for_zkp/train/8_T.bmp"
        string_val: "/Users/zkp/Desktop/for_zkp/train/42_K.bmp"
        string_val: "/Users/zkp/Desktop/for_zkp/train/32_B.bmp"
        string_val: "/Users/zkp/Desktop/for_zkp/train/14_A.bmp"
        string_val: "/Users/zkp/Desktop/for_zkp/train/21_H.bmp"
        string_val: "/Users/zkp/Desktop/for_zkp/train/51_A.bmp"
        string_val: "/Users/zkp/Desktop/for_zkp/train/8_C.bmp"
        string_val: "/Users/zkp/Desktop/for_zkp/train/32_4.bmp"
        string_val: "/Users/zkp/Desktop/for_zkp/train/32_U.bmp"
        string_val: "/Users/zkp/Desktop/for_zkp/train/14_7.bmp"
        string_val: "/Users/zkp/Desktop/for_zkp/train/14_V.bmp"
        string_val: "/Users/zkp/Desktop/for_zkp/train/51_7.bmp"
        string_val: "/Users/zkp/Desktop/for_zkp/train/51_V.bmp"
        string_val: "/Users/zkp/Desktop/for_zkp/train/6_L.bmp"
        string_val: "/Users/zkp/Desktop/for_zkp/train/40_I.bmp"
        string_val: "/Users/zkp/Desktop/for_zkp/train/53_C.bmp"
        string_val: "/Users/zkp/Desktop/for_zkp/train/23_J.bmp"
        string_val: "/Users/zkp/Desktop/for_zkp/train/16_C.bmp"
        string_val: "/Users/zkp/Desktop/for_zkp/train/30_W.bmp"
        string_val: "/Users/zkp/Desktop/for_zkp/train/30_6.bmp"
        string_val: "/Users/zkp/Desktop/for_zkp/train/53_T.bmp"
        string_val: "/Users/zkp/Desktop/for_zkp/train/53_5.bmp"
        string_val: "/Users/zkp/Desktop/for_zkp/train/16_T.bmp"
        string_val: "/Users/zkp/Desktop/for_zkp/train/16_5.bmp"
        string_val: "/Users/zkp/Desktop/for_zkp/train/18_L.bmp"
        string_val: "/Users/zkp/Desktop/for_zkp/train/4_Y.bmp"
        string_val: "/Users/zkp/Desktop/for_zkp/train/4_8.bmp"
        string_val: "/Users/zkp/Desktop/for_zkp/train/4_N.bmp"
        string_val: "/Users/zkp/Desktop/for_zkp/train/18_H.bmp"
        string_val: "/Users/zkp/Desktop/for_zkp/train/4_J.bmp"
        string_val: "/Users/zkp/Desktop/for_zkp/train/16_G.bmp"
        string_val: "/Users/zkp/Desktop/for_zkp/train/23_N.bmp"
        string_val: "/Users/zkp/Desktop/for_zkp/train/53_G.bmp"
        string_val: "/Users/zkp/Desktop/for_zkp/train/40_M.bmp"
        string_val: "/Users/zkp/Desktop/for_zkp/train/30_D.bmp"
        string_val: "/Users/zkp/Desktop/for_zkp/train/23_Y.bmp"
        string_val: "/Users/zkp/Desktop/for_zkp/train/23_8.bmp"
        string_val: "/Users/zkp/Desktop/for_zkp/train/16_1.bmp"
        string_val: "/Users/zkp/Desktop/for_zkp/train/16_P.bmp"
        string_val: "/Users/zkp/Desktop/for_zkp/train/53_1.bmp"
        string_val: "/Users/zkp/Desktop/for_zkp/train/53_P.bmp"
        string_val: "/Users/zkp/Desktop/for_zkp/train/40_Z.bmp"
        string_val: "/Users/zkp/Desktop/for_zkp/train/30_2.bmp"
        string_val: "/Users/zkp/Desktop/for_zkp/train/30_S.bmp"
        string_val: "/Users/zkp/Desktop/for_zkp/train/6_H.bmp"
        string_val: "/Users/zkp/Desktop/for_zkp/train/51_E.bmp"
        string_val: "/Users/zkp/Desktop/for_zkp/train/21_L.bmp"
        string_val: "/Users/zkp/Desktop/for_zkp/train/14_E.bmp"
        string_val: "/Users/zkp/Desktop/for_zkp/train/32_F.bmp"
        string_val: "/Users/zkp/Desktop/for_zkp/train/42_O.bmp"
        string_val: "/Users/zkp/Desktop/for_zkp/train/8_P.bmp"
        string_val: "/Users/zkp/Desktop/for_zkp/train/8_1.bmp"
        string_val: "/Users/zkp/Desktop/for_zkp/train/51_R.bmp"
        string_val: "/Users/zkp/Desktop/for_zkp/train/51_3.bmp"
        string_val: "/Users/zkp/Desktop/for_zkp/train/14_R.bmp"
        string_val: "/Users/zkp/Desktop/for_zkp/train/14_3.bmp"
        string_val: "/Users/zkp/Desktop/for_zkp/train/32_Q.bmp"
        string_val: "/Users/zkp/Desktop/for_zkp/train/32_0.bmp"
        string_val: "/Users/zkp/Desktop/for_zkp/train/8_G.bmp"
        string_val: "/Users/zkp/Desktop/for_zkp/train/42_9.bmp"
        string_val: "/Users/zkp/Desktop/for_zkp/train/42_X.bmp"
        string_val: "/Users/zkp/Desktop/for_zkp/train/29_E.bmp"
        string_val: "/Users/zkp/Desktop/for_zkp/train/59_L.bmp"
        string_val: "/Users/zkp/Desktop/for_zkp/train/0_Y.bmp"
        string_val: "/Users/zkp/Desktop/for_zkp/train/0_8.bmp"
        string_val: "/Users/zkp/Desktop/for_zkp/train/29_3.bmp"
        string_val: "/Users/zkp/Desktop/for_zkp/train/29_R.bmp"
        string_val: "/Users/zkp/Desktop/for_zkp/train/0_N.bmp"
        string_val: "/Users/zkp/Desktop/for_zkp/train/44_I.bmp"
        string_val: "/Users/zkp/Desktop/for_zkp/train/57_C.bmp"
        string_val: "/Users/zkp/Desktop/for_zkp/train/27_J.bmp"
        string_val: "/Users/zkp/Desktop/for_zkp/train/12_C.bmp"
        string_val: "/Users/zkp/Desktop/for_zkp/train/34_W.bmp"
        string_val: "/Users/zkp/Desktop/for_zkp/train/34_6.bmp"
        string_val: "/Users/zkp/Desktop/for_zkp/train/57_T.bmp"
        string_val: "/Users/zkp/Desktop/for_zkp/train/57_5.bmp"
        string_val: "/Users/zkp/Desktop/for_zkp/train/12_T.bmp"
        string_val: "/Users/zkp/Desktop/for_zkp/train/12_5.bmp"
        string_val: "/Users/zkp/Desktop/for_zkp/train/38_M.bmp"
        string_val: "/Users/zkp/Desktop/for_zkp/train/48_D.bmp"
        string_val: "/Users/zkp/Desktop/for_zkp/train/38_Z.bmp"
        string_val: "/Users/zkp/Desktop/for_zkp/train/48_S.bmp"
        string_val: "/Users/zkp/Desktop/for_zkp/train/48_2.bmp"
        string_val: "/Users/zkp/Desktop/for_zkp/train/2_L.bmp"
        string_val: "/Users/zkp/Desktop/for_zkp/train/46_K.bmp"
        string_val: "/Users/zkp/Desktop/for_zkp/train/36_B.bmp"
        string_val: "/Users/zkp/Desktop/for_zkp/train/10_A.bmp"
        string_val: "/Users/zkp/Desktop/for_zkp/train/25_H.bmp"
        string_val: "/Users/zkp/Desktop/for_zkp/train/55_A.bmp"
        string_val: "/Users/zkp/Desktop/for_zkp/train/36_4.bmp"
        string_val: "/Users/zkp/Desktop/for_zkp/train/36_U.bmp"
        string_val: "/Users/zkp/Desktop/for_zkp/train/10_7.bmp"
        string_val: "/Users/zkp/Desktop/for_zkp/train/10_V.bmp"
        string_val: "/Users/zkp/Desktop/for_zkp/train/55_7.bmp"
        string_val: "/Users/zkp/Desktop/for_zkp/train/55_V.bmp"
        string_val: "/Users/zkp/Desktop/for_zkp/train/10_W.bmp"
        string_val: "/Users/zkp/Desktop/for_zkp/train/10_6.bmp"
        string_val: "/Users/zkp/Desktop/for_zkp/train/55_W.bmp"
        string_val: "/Users/zkp/Desktop/for_zkp/train/55_6.bmp"
        string_val: "/Users/zkp/Desktop/for_zkp/train/36_T.bmp"
        string_val: "/Users/zkp/Desktop/for_zkp/train/36_5.bmp"
        string_val: "/Users/zkp/Desktop/for_zkp/train/25_I.bmp"
        string_val: "/Users/zkp/Desktop/for_zkp/train/46_J.bmp"
        string_val: "/Users/zkp/Desktop/for_zkp/train/36_C.bmp"
        string_val: "/Users/zkp/Desktop/for_zkp/train/2_M.bmp"
        string_val: "/Users/zkp/Desktop/for_zkp/train/48_3.bmp"
        string_val: "/Users/zkp/Desktop/for_zkp/train/48_R.bmp"
        string_val: "/Users/zkp/Desktop/for_zkp/train/38_L.bmp"
        string_val: "/Users/zkp/Desktop/for_zkp/train/48_E.bmp"
        string_val: "/Users/zkp/Desktop/for_zkp/train/2_Z.bmp"
        string_val: "/Users/zkp/Desktop/for_zkp/train/57_4.bmp"
        string_val: "/Users/zkp/Desktop/for_zkp/train/57_U.bmp"
        string_val: "/Users/zkp/Desktop/for_zkp/train/12_4.bmp"
        string_val: "/Users/zkp/Desktop/for_zkp/train/12_U.bmp"
        string_val: "/Users/zkp/Desktop/for_zkp/train/34_7.bmp"
        string_val: "/Users/zkp/Desktop/for_zkp/train/34_V.bmp"
        string_val: "/Users/zkp/Desktop/for_zkp/train/57_B.bmp"
        string_val: "/Users/zkp/Desktop/for_zkp/train/12_B.bmp"
        string_val: "/Users/zkp/Desktop/for_zkp/train/27_K.bmp"
        string_val: "/Users/zkp/Desktop/for_zkp/train/34_A.bmp"
        string_val: "/Users/zkp/Desktop/for_zkp/train/44_H.bmp"
        string_val: "/Users/zkp/Desktop/for_zkp/train/0_O.bmp"
        string_val: "/Users/zkp/Desktop/for_zkp/train/29_S.bmp"
        string_val: "/Users/zkp/Desktop/for_zkp/train/29_2.bmp"
        string_val: "/Users/zkp/Desktop/for_zkp/train/59_Z.bmp"
        string_val: "/Users/zkp/Desktop/for_zkp/train/0_9.bmp"
        string_val: "/Users/zkp/Desktop/for_zkp/train/0_X.bmp"
        string_val: "/Users/zkp/Desktop/for_zkp/train/29_D.bmp"
        string_val: "/Users/zkp/Desktop/for_zkp/train/59_M.bmp"
        string_val: "/Users/zkp/Desktop/for_zkp/train/32_1.bmp"
        string_val: "/Users/zkp/Desktop/for_zkp/train/32_P.bmp"
        string_val: "/Users/zkp/Desktop/for_zkp/train/42_Y.bmp"
        string_val: "/Users/zkp/Desktop/for_zkp/train/42_8.bmp"
        string_val: "/Users/zkp/Desktop/for_zkp/train/8_F.bmp"
        string_val: "/Users/zkp/Desktop/for_zkp/train/51_2.bmp"
        string_val: "/Users/zkp/Desktop/for_zkp/train/51_S.bmp"
        string_val: "/Users/zkp/Desktop/for_zkp/train/21_Z.bmp"
        string_val: "/Users/zkp/Desktop/for_zkp/train/14_2.bmp"
        string_val: "/Users/zkp/Desktop/for_zkp/train/14_S.bmp"
        string_val: "/Users/zkp/Desktop/for_zkp/train/32_G.bmp"
        string_val: "/Users/zkp/Desktop/for_zkp/train/8_0.bmp"
        string_val: "/Users/zkp/Desktop/for_zkp/train/8_Q.bmp"
        string_val: "/Users/zkp/Desktop/for_zkp/train/42_N.bmp"
        string_val: "/Users/zkp/Desktop/for_zkp/train/51_D.bmp"
        string_val: "/Users/zkp/Desktop/for_zkp/train/14_D.bmp"
        string_val: "/Users/zkp/Desktop/for_zkp/train/21_M.bmp"
        string_val: "/Users/zkp/Desktop/for_zkp/train/6_I.bmp"
        string_val: "/Users/zkp/Desktop/for_zkp/train/30_R.bmp"
        string_val: "/Users/zkp/Desktop/for_zkp/train/30_3.bmp"
        string_val: "/Users/zkp/Desktop/for_zkp/train/16_Q.bmp"
        string_val: "/Users/zkp/Desktop/for_zkp/train/16_0.bmp"
        string_val: "/Users/zkp/Desktop/for_zkp/train/23_9.bmp"
        string_val: "/Users/zkp/Desktop/for_zkp/train/23_X.bmp"
        string_val: "/Users/zkp/Desktop/for_zkp/train/53_Q.bmp"
        string_val: "/Users/zkp/Desktop/for_zkp/train/53_0.bmp"
        string_val: "/Users/zkp/Desktop/for_zkp/train/40_L.bmp"
        string_val: "/Users/zkp/Desktop/for_zkp/train/30_E.bmp"
        string_val: "/Users/zkp/Desktop/for_zkp/train/23_O.bmp"
        string_val: "/Users/zkp/Desktop/for_zkp/train/16_F.bmp"
        string_val: "/Users/zkp/Desktop/for_zkp/train/53_F.bmp"
        string_val: "/Users/zkp/Desktop/for_zkp/train/4_K.bmp"
        string_val: "/Users/zkp/Desktop/for_zkp/train/18_I.bmp"
        string_val: "/Users/zkp/Desktop/for_zkp/train/18_K.bmp"
        string_val: "/Users/zkp/Desktop/for_zkp/train/4_I.bmp"
        string_val: "/Users/zkp/Desktop/for_zkp/train/30_G.bmp"
        string_val: "/Users/zkp/Desktop/for_zkp/train/40_N.bmp"
        string_val: "/Users/zkp/Desktop/for_zkp/train/53_D.bmp"
        string_val: "/Users/zkp/Desktop/for_zkp/train/16_D.bmp"
        string_val: "/Users/zkp/Desktop/for_zkp/train/23_M.bmp"
        string_val: "/Users/zkp/Desktop/for_zkp/train/30_1.bmp"
        string_val: "/Users/zkp/Desktop/for_zkp/train/30_P.bmp"
        string_val: "/Users/zkp/Desktop/for_zkp/train/40_Y.bmp"
        string_val: "/Users/zkp/Desktop/for_zkp/train/40_8.bmp"
        string_val: "/Users/zkp/Desktop/for_zkp/train/53_2.bmp"
        string_val: "/Users/zkp/Desktop/for_zkp/train/53_S.bmp"
        string_val: "/Users/zkp/Desktop/for_zkp/train/23_Z.bmp"
        string_val: "/Users/zkp/Desktop/for_zkp/train/16_2.bmp"
        string_val: "/Users/zkp/Desktop/for_zkp/train/16_S.bmp"
        string_val: "/Users/zkp/Desktop/for_zkp/train/6_K.bmp"
        string_val: "/Users/zkp/Desktop/for_zkp/train/42_L.bmp"
        string_val: "/Users/zkp/Desktop/for_zkp/train/8_S.bmp"
        string_val: "/Users/zkp/Desktop/for_zkp/train/8_2.bmp"
        string_val: "/Users/zkp/Desktop/for_zkp/train/32_E.bmp"
        string_val: "/Users/zkp/Desktop/for_zkp/train/21_O.bmp"
        string_val: "/Users/zkp/Desktop/for_zkp/train/14_F.bmp"
        string_val: "/Users/zkp/Desktop/for_zkp/train/51_F.bmp"
        string_val: "/Users/zkp/Desktop/for_zkp/train/8_D.bmp"
        string_val: "/Users/zkp/Desktop/for_zkp/train/32_R.bmp"
        string_val: "/Users/zkp/Desktop/for_zkp/train/32_3.bmp"
        string_val: "/Users/zkp/Desktop/for_zkp/train/14_Q.bmp"
        string_val: "/Users/zkp/Desktop/for_zkp/train/14_0.bmp"
        string_val: "/Users/zkp/Desktop/for_zkp/train/21_9.bmp"
        string_val: "/Users/zkp/Desktop/for_zkp/train/21_X.bmp"
        string_val: "/Users/zkp/Desktop/for_zkp/train/51_Q.bmp"
        string_val: "/Users/zkp/Desktop/for_zkp/train/51_0.bmp"
        string_val: "/Users/zkp/Desktop/for_zkp/train/0_Z.bmp"
        string_val: "/Users/zkp/Desktop/for_zkp/train/59_O.bmp"
        string_val: "/Users/zkp/Desktop/for_zkp/train/29_F.bmp"
        string_val: "/Users/zkp/Desktop/for_zkp/train/0_M.bmp"
        string_val: "/Users/zkp/Desktop/for_zkp/train/59_X.bmp"
        string_val: "/Users/zkp/Desktop/for_zkp/train/59_9.bmp"
        string_val: "/Users/zkp/Desktop/for_zkp/train/29_0.bmp"
        string_val: "/Users/zkp/Desktop/for_zkp/train/29_Q.bmp"
        string_val: "/Users/zkp/Desktop/for_zkp/train/27_I.bmp"
        string_val: "/Users/zkp/Desktop/for_zkp/train/44_J.bmp"
        string_val: "/Users/zkp/Desktop/for_zkp/train/34_C.bmp"
        string_val: "/Users/zkp/Desktop/for_zkp/train/12_W.bmp"
        string_val: "/Users/zkp/Desktop/for_zkp/train/12_6.bmp"
        string_val: "/Users/zkp/Desktop/for_zkp/train/57_W.bmp"
        string_val: "/Users/zkp/Desktop/for_zkp/train/57_6.bmp"
        string_val: "/Users/zkp/Desktop/for_zkp/train/34_T.bmp"
        string_val: "/Users/zkp/Desktop/for_zkp/train/34_5.bmp"
        string_val: "/Users/zkp/Desktop/for_zkp/train/2_9.bmp"
        string_val: "/Users/zkp/Desktop/for_zkp/train/2_X.bmp"
        string_val: "/Users/zkp/Desktop/for_zkp/train/48_G.bmp"
        string_val: "/Users/zkp/Desktop/for_zkp/train/38_N.bmp"
        string_val: "/Users/zkp/Desktop/for_zkp/train/48_P.bmp"
        string_val: "/Users/zkp/Desktop/for_zkp/train/48_1.bmp"
        string_val: "/Users/zkp/Desktop/for_zkp/train/2_O.bmp"
        string_val: "/Users/zkp/Desktop/for_zkp/train/38_8.bmp"
        string_val: "/Users/zkp/Desktop/for_zkp/train/38_Y.bmp"
        string_val: "/Users/zkp/Desktop/for_zkp/train/55_B.bmp"
        string_val: "/Users/zkp/Desktop/for_zkp/train/10_B.bmp"
        string_val: "/Users/zkp/Desktop/for_zkp/train/25_K.bmp"
        string_val: "/Users/zkp/Desktop/for_zkp/train/36_A.bmp"
        string_val: "/Users/zkp/Desktop/for_zkp/train/46_H.bmp"
        string_val: "/Users/zkp/Desktop/for_zkp/train/55_4.bmp"
        string_val: "/Users/zkp/Desktop/for_zkp/train/55_U.bmp"
        string_val: "/Users/zkp/Desktop/for_zkp/train/10_4.bmp"
        string_val: "/Users/zkp/Desktop/for_zkp/train/10_U.bmp"
        string_val: "/Users/zkp/Desktop/for_zkp/train/36_7.bmp"
        string_val: "/Users/zkp/Desktop/for_zkp/train/36_V.bmp"
        string_val: "/Users/zkp/Desktop/for_zkp/train/36_W.bmp"
        string_val: "/Users/zkp/Desktop/for_zkp/train/36_6.bmp"
        string_val: "/Users/zkp/Desktop/for_zkp/train/55_T.bmp"
        string_val: "/Users/zkp/Desktop/for_zkp/train/55_5.bmp"
        string_val: "/Users/zkp/Desktop/for_zkp/train/10_T.bmp"
        string_val: "/Users/zkp/Desktop/for_zkp/train/10_5.bmp"
        string_val: "/Users/zkp/Desktop/for_zkp/train/46_I.bmp"
        string_val: "/Users/zkp/Desktop/for_zkp/train/55_C.bmp"
        string_val: "/Users/zkp/Desktop/for_zkp/train/25_J.bmp"
        string_val: "/Users/zkp/Desktop/for_zkp/train/10_C.bmp"
        string_val: "/Users/zkp/Desktop/for_zkp/train/2_N.bmp"
        string_val: "/Users/zkp/Desktop/for_zkp/train/48_0.bmp"
        string_val: "/Users/zkp/Desktop/for_zkp/train/48_Q.bmp"
        string_val: "/Users/zkp/Desktop/for_zkp/train/38_X.bmp"
        string_val: "/Users/zkp/Desktop/for_zkp/train/38_9.bmp"
        string_val: "/Users/zkp/Desktop/for_zkp/train/48_F.bmp"
        string_val: "/Users/zkp/Desktop/for_zkp/train/2_Y.bmp"
        string_val: "/Users/zkp/Desktop/for_zkp/train/2_8.bmp"
        string_val: "/Users/zkp/Desktop/for_zkp/train/38_O.bmp"
        string_val: "/Users/zkp/Desktop/for_zkp/train/34_4.bmp"
        string_val: "/Users/zkp/Desktop/for_zkp/train/34_U.bmp"
        string_val: "/Users/zkp/Desktop/for_zkp/train/12_7.bmp"
        string_val: "/Users/zkp/Desktop/for_zkp/train/12_V.bmp"
        string_val: "/Users/zkp/Desktop/for_zkp/train/57_7.bmp"
        string_val: "/Users/zkp/Desktop/for_zkp/train/57_V.bmp"
        string_val: "/Users/zkp/Desktop/for_zkp/train/44_K.bmp"
        string_val: "/Users/zkp/Desktop/for_zkp/train/34_B.bmp"
        string_val: "/Users/zkp/Desktop/for_zkp/train/12_A.bmp"
        string_val: "/Users/zkp/Desktop/for_zkp/train/27_H.bmp"
        string_val: "/Users/zkp/Desktop/for_zkp/train/57_A.bmp"
        string_val: "/Users/zkp/Desktop/for_zkp/train/59_8.bmp"
        string_val: "/Users/zkp/Desktop/for_zkp/train/59_Y.bmp"
        string_val: "/Users/zkp/Desktop/for_zkp/train/29_P.bmp"
        string_val: "/Users/zkp/Desktop/for_zkp/train/29_1.bmp"
        string_val: "/Users/zkp/Desktop/for_zkp/train/0_L.bmp"
        string_val: "/Users/zkp/Desktop/for_zkp/train/59_N.bmp"
        string_val: "/Users/zkp/Desktop/for_zkp/train/29_G.bmp"
        string_val: "/Users/zkp/Desktop/for_zkp/train/21_Y.bmp"
        string_val: "/Users/zkp/Desktop/for_zkp/train/21_8.bmp"
        string_val: "/Users/zkp/Desktop/for_zkp/train/14_1.bmp"
        string_val: "/Users/zkp/Desktop/for_zkp/train/14_P.bmp"
        string_val: "/Users/zkp/Desktop/for_zkp/train/51_1.bmp"
        string_val: "/Users/zkp/Desktop/for_zkp/train/51_P.bmp"
        string_val: "/Users/zkp/Desktop/for_zkp/train/42_Z.bmp"
        string_val: "/Users/zkp/Desktop/for_zkp/train/8_E.bmp"
        string_val: "/Users/zkp/Desktop/for_zkp/train/32_2.bmp"
        string_val: "/Users/zkp/Desktop/for_zkp/train/32_S.bmp"
        string_val: "/Users/zkp/Desktop/for_zkp/train/14_G.bmp"
        string_val: "/Users/zkp/Desktop/for_zkp/train/21_N.bmp"
        string_val: "/Users/zkp/Desktop/for_zkp/train/51_G.bmp"
        string_val: "/Users/zkp/Desktop/for_zkp/train/8_3.bmp"
        string_val: "/Users/zkp/Desktop/for_zkp/train/8_R.bmp"
        string_val: "/Users/zkp/Desktop/for_zkp/train/42_M.bmp"
        string_val: "/Users/zkp/Desktop/for_zkp/train/32_D.bmp"
        string_val: "/Users/zkp/Desktop/for_zkp/train/6_J.bmp"
        string_val: "/Users/zkp/Desktop/for_zkp/train/53_R.bmp"
        string_val: "/Users/zkp/Desktop/for_zkp/train/53_3.bmp"
        string_val: "/Users/zkp/Desktop/for_zkp/train/16_R.bmp"
        string_val: "/Users/zkp/Desktop/for_zkp/train/16_3.bmp"
        string_val: "/Users/zkp/Desktop/for_zkp/train/30_Q.bmp"
        string_val: "/Users/zkp/Desktop/for_zkp/train/30_0.bmp"
        string_val: "/Users/zkp/Desktop/for_zkp/train/40_9.bmp"
        string_val: "/Users/zkp/Desktop/for_zkp/train/40_X.bmp"
        string_val: "/Users/zkp/Desktop/for_zkp/train/53_E.bmp"
        string_val: "/Users/zkp/Desktop/for_zkp/train/23_L.bmp"
        string_val: "/Users/zkp/Desktop/for_zkp/train/16_E.bmp"
        string_val: "/Users/zkp/Desktop/for_zkp/train/30_F.bmp"
        string_val: "/Users/zkp/Desktop/for_zkp/train/40_O.bmp"
        string_val: "/Users/zkp/Desktop/for_zkp/train/4_H.bmp"
        string_val: "/Users/zkp/Desktop/for_zkp/train/18_J.bmp"
        string_val: "/Users/zkp/Desktop/for_zkp/train/49_7.bmp"
        string_val: "/Users/zkp/Desktop/for_zkp/train/49_V.bmp"
        string_val: "/Users/zkp/Desktop/for_zkp/train/3_I.bmp"
        string_val: "/Users/zkp/Desktop/for_zkp/train/39_H.bmp"
        string_val: "/Users/zkp/Desktop/for_zkp/train/49_A.bmp"
        string_val: "/Users/zkp/Desktop/for_zkp/train/47_8.bmp"
        string_val: "/Users/zkp/Desktop/for_zkp/train/47_Y.bmp"
        string_val: "/Users/zkp/Desktop/for_zkp/train/37_P.bmp"
        string_val: "/Users/zkp/Desktop/for_zkp/train/37_1.bmp"
        string_val: "/Users/zkp/Desktop/for_zkp/train/24_Z.bmp"
        string_val: "/Users/zkp/Desktop/for_zkp/train/11_S.bmp"
        string_val: "/Users/zkp/Desktop/for_zkp/train/11_2.bmp"
        string_val: "/Users/zkp/Desktop/for_zkp/train/54_S.bmp"
        string_val: "/Users/zkp/Desktop/for_zkp/train/54_2.bmp"
        string_val: "/Users/zkp/Desktop/for_zkp/train/47_N.bmp"
        string_val: "/Users/zkp/Desktop/for_zkp/train/37_G.bmp"
        string_val: "/Users/zkp/Desktop/for_zkp/train/11_D.bmp"
        string_val: "/Users/zkp/Desktop/for_zkp/train/24_M.bmp"
        string_val: "/Users/zkp/Desktop/for_zkp/train/54_D.bmp"
        string_val: "/Users/zkp/Desktop/for_zkp/train/28_W.bmp"
        string_val: "/Users/zkp/Desktop/for_zkp/train/28_6.bmp"
        string_val: "/Users/zkp/Desktop/for_zkp/train/1_K.bmp"
        string_val: "/Users/zkp/Desktop/for_zkp/train/58_I.bmp"
        string_val: "/Users/zkp/Desktop/for_zkp/train/35_3.bmp"
        string_val: "/Users/zkp/Desktop/for_zkp/train/35_R.bmp"
        string_val: "/Users/zkp/Desktop/for_zkp/train/56_0.bmp"
        string_val: "/Users/zkp/Desktop/for_zkp/train/56_Q.bmp"
        string_val: "/Users/zkp/Desktop/for_zkp/train/13_0.bmp"
        string_val: "/Users/zkp/Desktop/for_zkp/train/13_Q.bmp"
        string_val: "/Users/zkp/Desktop/for_zkp/train/26_X.bmp"
        string_val: "/Users/zkp/Desktop/for_zkp/train/26_9.bmp"
        string_val: "/Users/zkp/Desktop/for_zkp/train/35_E.bmp"
        string_val: "/Users/zkp/Desktop/for_zkp/train/45_L.bmp"
        string_val: "/Users/zkp/Desktop/for_zkp/train/56_F.bmp"
        string_val: "/Users/zkp/Desktop/for_zkp/train/26_O.bmp"
        string_val: "/Users/zkp/Desktop/for_zkp/train/13_F.bmp"
        string_val: "/Users/zkp/Desktop/for_zkp/train/7_M.bmp"
        string_val: "/Users/zkp/Desktop/for_zkp/train/7_Z.bmp"
        string_val: "/Users/zkp/Desktop/for_zkp/train/50_6.bmp"
        string_val: "/Users/zkp/Desktop/for_zkp/train/50_W.bmp"
        string_val: "/Users/zkp/Desktop/for_zkp/train/15_6.bmp"
        string_val: "/Users/zkp/Desktop/for_zkp/train/15_W.bmp"
        string_val: "/Users/zkp/Desktop/for_zkp/train/33_5.bmp"
        string_val: "/Users/zkp/Desktop/for_zkp/train/33_T.bmp"
        string_val: "/Users/zkp/Desktop/for_zkp/train/9_B.bmp"
        string_val: "/Users/zkp/Desktop/for_zkp/train/20_I.bmp"
        string_val: "/Users/zkp/Desktop/for_zkp/train/33_C.bmp"
        string_val: "/Users/zkp/Desktop/for_zkp/train/43_J.bmp"
        string_val: "/Users/zkp/Desktop/for_zkp/train/9_4.bmp"
        string_val: "/Users/zkp/Desktop/for_zkp/train/9_U.bmp"
        string_val: "/Users/zkp/Desktop/for_zkp/train/5_O.bmp"
        string_val: "/Users/zkp/Desktop/for_zkp/train/19_Z.bmp"
        string_val: "/Users/zkp/Desktop/for_zkp/train/5_X.bmp"
        string_val: "/Users/zkp/Desktop/for_zkp/train/5_9.bmp"
        string_val: "/Users/zkp/Desktop/for_zkp/train/19_M.bmp"
        string_val: "/Users/zkp/Desktop/for_zkp/train/17_U.bmp"
        string_val: "/Users/zkp/Desktop/for_zkp/train/17_4.bmp"
        string_val: "/Users/zkp/Desktop/for_zkp/train/52_U.bmp"
        string_val: "/Users/zkp/Desktop/for_zkp/train/52_4.bmp"
        string_val: "/Users/zkp/Desktop/for_zkp/train/31_V.bmp"
        string_val: "/Users/zkp/Desktop/for_zkp/train/31_7.bmp"
        string_val: "/Users/zkp/Desktop/for_zkp/train/17_B.bmp"
        string_val: "/Users/zkp/Desktop/for_zkp/train/22_K.bmp"
        string_val: "/Users/zkp/Desktop/for_zkp/train/52_B.bmp"
        string_val: "/Users/zkp/Desktop/for_zkp/train/41_H.bmp"
        string_val: "/Users/zkp/Desktop/for_zkp/train/31_A.bmp"
        string_val: "/Users/zkp/Desktop/for_zkp/train/41_I.bmp"
        string_val: "/Users/zkp/Desktop/for_zkp/train/22_J.bmp"
        string_val: "/Users/zkp/Desktop/for_zkp/train/17_C.bmp"
        string_val: "/Users/zkp/Desktop/for_zkp/train/52_C.bmp"
        string_val: "/Users/zkp/Desktop/for_zkp/train/31_6.bmp"
        string_val: "/Users/zkp/Desktop/for_zkp/train/31_W.bmp"
        string_val: "/Users/zkp/Desktop/for_zkp/train/17_5.bmp"
        string_val: "/Users/zkp/Desktop/for_zkp/train/17_T.bmp"
        string_val: "/Users/zkp/Desktop/for_zkp/train/52_5.bmp"
        string_val: "/Users/zkp/Desktop/for_zkp/train/52_T.bmp"
        string_val: "/Users/zkp/Desktop/for_zkp/train/19_L.bmp"
        string_val: "/Users/zkp/Desktop/for_zkp/train/5_8.bmp"
        string_val: "/Users/zkp/Desktop/for_zkp/train/5_Y.bmp"
        string_val: "/Users/zkp/Desktop/for_zkp/train/5_N.bmp"
        string_val: "/Users/zkp/Desktop/for_zkp/train/33_B.bmp"
        string_val: "/Users/zkp/Desktop/for_zkp/train/9_T.bmp"
        string_val: "/Users/zkp/Desktop/for_zkp/train/9_5.bmp"
        string_val: "/Users/zkp/Desktop/for_zkp/train/43_K.bmp"
        string_val: "/Users/zkp/Desktop/for_zkp/train/50_A.bmp"
        string_val: "/Users/zkp/Desktop/for_zkp/train/15_A.bmp"
        string_val: "/Users/zkp/Desktop/for_zkp/train/20_H.bmp"
        string_val: "/Users/zkp/Desktop/for_zkp/train/33_U.bmp"
        string_val: "/Users/zkp/Desktop/for_zkp/train/33_4.bmp"
        string_val: "/Users/zkp/Desktop/for_zkp/train/9_C.bmp"
        string_val: "/Users/zkp/Desktop/for_zkp/train/50_V.bmp"
        string_val: "/Users/zkp/Desktop/for_zkp/train/50_7.bmp"
        string_val: "/Users/zkp/Desktop/for_zkp/train/15_V.bmp"
        string_val: "/Users/zkp/Desktop/for_zkp/train/15_7.bmp"
        string_val: "/Users/zkp/Desktop/for_zkp/train/7_L.bmp"
        string_val: "/Users/zkp/Desktop/for_zkp/train/56_G.bmp"
        string_val: "/Users/zkp/Desktop/for_zkp/train/13_G.bmp"
        string_val: "/Users/zkp/Desktop/for_zkp/train/26_N.bmp"
        string_val: "/Users/zkp/Desktop/for_zkp/train/35_D.bmp"
        string_val: "/Users/zkp/Desktop/for_zkp/train/45_M.bmp"
        string_val: "/Users/zkp/Desktop/for_zkp/train/56_P.bmp"
        string_val: "/Users/zkp/Desktop/for_zkp/train/56_1.bmp"
        string_val: "/Users/zkp/Desktop/for_zkp/train/26_8.bmp"
        string_val: "/Users/zkp/Desktop/for_zkp/train/26_Y.bmp"
        string_val: "/Users/zkp/Desktop/for_zkp/train/13_P.bmp"
        string_val: "/Users/zkp/Desktop/for_zkp/train/13_1.bmp"
        string_val: "/Users/zkp/Desktop/for_zkp/train/35_S.bmp"
        string_val: "/Users/zkp/Desktop/for_zkp/train/35_2.bmp"
        string_val: "/Users/zkp/Desktop/for_zkp/train/45_Z.bmp"
        string_val: "/Users/zkp/Desktop/for_zkp/train/28_A.bmp"
        string_val: "/Users/zkp/Desktop/for_zkp/train/58_H.bmp"
        string_val: "/Users/zkp/Desktop/for_zkp/train/1_J.bmp"
        string_val: "/Users/zkp/Desktop/for_zkp/train/28_7.bmp"
        string_val: "/Users/zkp/Desktop/for_zkp/train/28_V.bmp"
        string_val: "/Users/zkp/Desktop/for_zkp/train/24_L.bmp"
        string_val: "/Users/zkp/Desktop/for_zkp/train/11_E.bmp"
        string_val: "/Users/zkp/Desktop/for_zkp/train/54_E.bmp"
        string_val: "/Users/zkp/Desktop/for_zkp/train/47_O.bmp"
        string_val: "/Users/zkp/Desktop/for_zkp/train/37_F.bmp"
        string_val: "/Users/zkp/Desktop/for_zkp/train/11_3.bmp"
        string_val: "/Users/zkp/Desktop/for_zkp/train/11_R.bmp"
        string_val: "/Users/zkp/Desktop/for_zkp/train/54_3.bmp"
        string_val: "/Users/zkp/Desktop/for_zkp/train/54_R.bmp"
        string_val: "/Users/zkp/Desktop/for_zkp/train/47_X.bmp"
        string_val: "/Users/zkp/Desktop/for_zkp/train/47_9.bmp"
        string_val: "/Users/zkp/Desktop/for_zkp/train/37_0.bmp"
        string_val: "/Users/zkp/Desktop/for_zkp/train/37_Q.bmp"
        string_val: "/Users/zkp/Desktop/for_zkp/train/39_I.bmp"
        string_val: "/Users/zkp/Desktop/for_zkp/train/3_H.bmp"
        string_val: "/Users/zkp/Desktop/for_zkp/train/49_W.bmp"
        string_val: "/Users/zkp/Desktop/for_zkp/train/49_6.bmp"
        string_val: "/Users/zkp/Desktop/for_zkp/train/49_4.bmp"
        string_val: "/Users/zkp/Desktop/for_zkp/train/49_U.bmp"
        string_val: "/Users/zkp/Desktop/for_zkp/train/3_J.bmp"
        string_val: "/Users/zkp/Desktop/for_zkp/train/49_B.bmp"
        string_val: "/Users/zkp/Desktop/for_zkp/train/39_K.bmp"
        string_val: "/Users/zkp/Desktop/for_zkp/train/54_P.bmp"
        string_val: "/Users/zkp/Desktop/for_zkp/train/54_1.bmp"
        string_val: "/Users/zkp/Desktop/for_zkp/train/24_8.bmp"
        string_val: "/Users/zkp/Desktop/for_zkp/train/24_Y.bmp"
        string_val: "/Users/zkp/Desktop/for_zkp/train/11_P.bmp"
        string_val: "/Users/zkp/Desktop/for_zkp/train/11_1.bmp"
        string_val: "/Users/zkp/Desktop/for_zkp/train/37_S.bmp"
        string_val: "/Users/zkp/Desktop/for_zkp/train/37_2.bmp"
        string_val: "/Users/zkp/Desktop/for_zkp/train/47_Z.bmp"
        string_val: "/Users/zkp/Desktop/for_zkp/train/54_G.bmp"
        string_val: "/Users/zkp/Desktop/for_zkp/train/11_G.bmp"
        string_val: "/Users/zkp/Desktop/for_zkp/train/24_N.bmp"
        string_val: "/Users/zkp/Desktop/for_zkp/train/37_D.bmp"
        string_val: "/Users/zkp/Desktop/for_zkp/train/47_M.bmp"
        string_val: "/Users/zkp/Desktop/for_zkp/train/1_H.bmp"
        string_val: "/Users/zkp/Desktop/for_zkp/train/28_T.bmp"
        string_val: "/Users/zkp/Desktop/for_zkp/train/28_5.bmp"
        string_val: "/Users/zkp/Desktop/for_zkp/train/58_J.bmp"
        string_val: "/Users/zkp/Desktop/for_zkp/train/28_C.bmp"
        string_val: "/Users/zkp/Desktop/for_zkp/train/13_3.bmp"
        string_val: "/Users/zkp/Desktop/for_zkp/train/13_R.bmp"
        string_val: "/Users/zkp/Desktop/for_zkp/train/56_3.bmp"
        string_val: "/Users/zkp/Desktop/for_zkp/train/56_R.bmp"
        string_val: "/Users/zkp/Desktop/for_zkp/train/45_X.bmp"
        string_val: "/Users/zkp/Desktop/for_zkp/train/45_9.bmp"
        string_val: "/Users/zkp/Desktop/for_zkp/train/35_0.bmp"
        string_val: "/Users/zkp/Desktop/for_zkp/train/35_Q.bmp"
        string_val: "/Users/zkp/Desktop/for_zkp/train/26_L.bmp"
        string_val: "/Users/zkp/Desktop/for_zkp/train/13_E.bmp"
        string_val: "/Users/zkp/Desktop/for_zkp/train/56_E.bmp"
        string_val: "/Users/zkp/Desktop/for_zkp/train/45_O.bmp"
        string_val: "/Users/zkp/Desktop/for_zkp/train/35_F.bmp"
        string_val: "/Users/zkp/Desktop/for_zkp/train/7_N.bmp"
        string_val: "/Users/zkp/Desktop/for_zkp/train/7_8.bmp"
        string_val: "/Users/zkp/Desktop/for_zkp/train/7_Y.bmp"
        string_val: "/Users/zkp/Desktop/for_zkp/train/9_A.bmp"
        string_val: "/Users/zkp/Desktop/for_zkp/train/33_6.bmp"
        string_val: "/Users/zkp/Desktop/for_zkp/train/33_W.bmp"
        string_val: "/Users/zkp/Desktop/for_zkp/train/15_5.bmp"
        string_val: "/Users/zkp/Desktop/for_zkp/train/15_T.bmp"
        string_val: "/Users/zkp/Desktop/for_zkp/train/50_5.bmp"
        string_val: "/Users/zkp/Desktop/for_zkp/train/50_T.bmp"
        string_val: "/Users/zkp/Desktop/for_zkp/train/43_I.bmp"
        string_val: "/Users/zkp/Desktop/for_zkp/train/9_7.bmp"
        string_val: "/Users/zkp/Desktop/for_zkp/train/9_V.bmp"
        string_val: "/Users/zkp/Desktop/for_zkp/train/20_J.bmp"
        string_val: "/Users/zkp/Desktop/for_zkp/train/15_C.bmp"
        string_val: "/Users/zkp/Desktop/for_zkp/train/50_C.bmp"
        string_val: "/Users/zkp/Desktop/for_zkp/train/19_Y.bmp"
        string_val: "/Users/zkp/Desktop/for_zkp/train/19_8.bmp"
        string_val: "/Users/zkp/Desktop/for_zkp/train/5_L.bmp"
        string_val: "/Users/zkp/Desktop/for_zkp/train/19_N.bmp"
        string_val: "/Users/zkp/Desktop/for_zkp/train/31_U.bmp"
        string_val: "/Users/zkp/Desktop/for_zkp/train/31_4.bmp"
        string_val: "/Users/zkp/Desktop/for_zkp/train/52_V.bmp"
        string_val: "/Users/zkp/Desktop/for_zkp/train/52_7.bmp"
        string_val: "/Users/zkp/Desktop/for_zkp/train/17_V.bmp"
        string_val: "/Users/zkp/Desktop/for_zkp/train/17_7.bmp"
        string_val: "/Users/zkp/Desktop/for_zkp/train/31_B.bmp"
        string_val: "/Users/zkp/Desktop/for_zkp/train/41_K.bmp"
        string_val: "/Users/zkp/Desktop/for_zkp/train/52_A.bmp"
        string_val: "/Users/zkp/Desktop/for_zkp/train/17_A.bmp"
        string_val: "/Users/zkp/Desktop/for_zkp/train/22_H.bmp"
        string_val: "/Users/zkp/Desktop/for_zkp/train/22_I.bmp"
        string_val: "/Users/zkp/Desktop/for_zkp/train/31_C.bmp"
        string_val: "/Users/zkp/Desktop/for_zkp/train/41_J.bmp"
        string_val: "/Users/zkp/Desktop/for_zkp/train/52_6.bmp"
        string_val: "/Users/zkp/Desktop/for_zkp/train/52_W.bmp"
        string_val: "/Users/zkp/Desktop/for_zkp/train/17_6.bmp"
        string_val: "/Users/zkp/Desktop/for_zkp/train/17_W.bmp"
        string_val: "/Users/zkp/Desktop/for_zkp/train/31_5.bmp"
        string_val: "/Users/zkp/Desktop/for_zkp/train/31_T.bmp"
        string_val: "/Users/zkp/Desktop/for_zkp/train/5_Z.bmp"
        string_val: "/Users/zkp/Desktop/for_zkp/train/19_O.bmp"
        string_val: "/Users/zkp/Desktop/for_zkp/train/5_M.bmp"
        string_val: "/Users/zkp/Desktop/for_zkp/train/19_9.bmp"
        string_val: "/Users/zkp/Desktop/for_zkp/train/19_X.bmp"
        string_val: "/Users/zkp/Desktop/for_zkp/train/15_B.bmp"
        string_val: "/Users/zkp/Desktop/for_zkp/train/20_K.bmp"
        string_val: "/Users/zkp/Desktop/for_zkp/train/50_B.bmp"
        string_val: "/Users/zkp/Desktop/for_zkp/train/9_W.bmp"
        string_val: "/Users/zkp/Desktop/for_zkp/train/9_6.bmp"
        string_val: "/Users/zkp/Desktop/for_zkp/train/43_H.bmp"
        string_val: "/Users/zkp/Desktop/for_zkp/train/33_A.bmp"
        string_val: "/Users/zkp/Desktop/for_zkp/train/15_U.bmp"
        string_val: "/Users/zkp/Desktop/for_zkp/train/15_4.bmp"
        string_val: "/Users/zkp/Desktop/for_zkp/train/50_U.bmp"
        string_val: "/Users/zkp/Desktop/for_zkp/train/50_4.bmp"
        string_val: "/Users/zkp/Desktop/for_zkp/train/33_V.bmp"
        string_val: "/Users/zkp/Desktop/for_zkp/train/33_7.bmp"
        string_val: "/Users/zkp/Desktop/for_zkp/train/7_X.bmp"
        string_val: "/Users/zkp/Desktop/for_zkp/train/7_9.bmp"
        string_val: "/Users/zkp/Desktop/for_zkp/train/7_O.bmp"
        string_val: "/Users/zkp/Desktop/for_zkp/train/45_N.bmp"
        string_val: "/Users/zkp/Desktop/for_zkp/train/35_G.bmp"
        string_val: "/Users/zkp/Desktop/for_zkp/train/13_D.bmp"
        string_val: "/Users/zkp/Desktop/for_zkp/train/26_M.bmp"
        string_val: "/Users/zkp/Desktop/for_zkp/train/56_D.bmp"
        string_val: "/Users/zkp/Desktop/for_zkp/train/45_8.bmp"
        string_val: "/Users/zkp/Desktop/for_zkp/train/45_Y.bmp"
        string_val: "/Users/zkp/Desktop/for_zkp/train/35_P.bmp"
        string_val: "/Users/zkp/Desktop/for_zkp/train/35_1.bmp"
        string_val: "/Users/zkp/Desktop/for_zkp/train/26_Z.bmp"
        string_val: "/Users/zkp/Desktop/for_zkp/train/13_S.bmp"
        string_val: "/Users/zkp/Desktop/for_zkp/train/13_2.bmp"
        string_val: "/Users/zkp/Desktop/for_zkp/train/56_S.bmp"
        string_val: "/Users/zkp/Desktop/for_zkp/train/56_2.bmp"
        string_val: "/Users/zkp/Desktop/for_zkp/train/58_K.bmp"
        string_val: "/Users/zkp/Desktop/for_zkp/train/28_B.bmp"
        string_val: "/Users/zkp/Desktop/for_zkp/train/28_4.bmp"
        string_val: "/Users/zkp/Desktop/for_zkp/train/28_U.bmp"
        string_val: "/Users/zkp/Desktop/for_zkp/train/1_I.bmp"
        string_val: "/Users/zkp/Desktop/for_zkp/train/37_E.bmp"
        string_val: "/Users/zkp/Desktop/for_zkp/train/47_L.bmp"
        string_val: "/Users/zkp/Desktop/for_zkp/train/54_F.bmp"
        string_val: "/Users/zkp/Desktop/for_zkp/train/24_O.bmp"
        string_val: "/Users/zkp/Desktop/for_zkp/train/11_F.bmp"
        string_val: "/Users/zkp/Desktop/for_zkp/train/37_3.bmp"
        string_val: "/Users/zkp/Desktop/for_zkp/train/37_R.bmp"
        string_val: "/Users/zkp/Desktop/for_zkp/train/54_0.bmp"
        string_val: "/Users/zkp/Desktop/for_zkp/train/54_Q.bmp"
        string_val: "/Users/zkp/Desktop/for_zkp/train/11_0.bmp"
        string_val: "/Users/zkp/Desktop/for_zkp/train/11_Q.bmp"
        string_val: "/Users/zkp/Desktop/for_zkp/train/24_X.bmp"
        string_val: "/Users/zkp/Desktop/for_zkp/train/24_9.bmp"
        string_val: "/Users/zkp/Desktop/for_zkp/train/49_C.bmp"
        string_val: "/Users/zkp/Desktop/for_zkp/train/39_J.bmp"
        string_val: "/Users/zkp/Desktop/for_zkp/train/3_K.bmp"
        string_val: "/Users/zkp/Desktop/for_zkp/train/49_T.bmp"
        string_val: "/Users/zkp/Desktop/for_zkp/train/49_5.bmp"
        string_val: "/Users/zkp/Desktop/for_zkp/train/39_N.bmp"
        string_val: "/Users/zkp/Desktop/for_zkp/train/3_X.bmp"
        string_val: "/Users/zkp/Desktop/for_zkp/train/3_9.bmp"
        string_val: "/Users/zkp/Desktop/for_zkp/train/49_G.bmp"
        string_val: "/Users/zkp/Desktop/for_zkp/train/39_Y.bmp"
        string_val: "/Users/zkp/Desktop/for_zkp/train/39_8.bmp"
        string_val: "/Users/zkp/Desktop/for_zkp/train/49_1.bmp"
        string_val: "/Users/zkp/Desktop/for_zkp/train/49_P.bmp"
        string_val: "/Users/zkp/Desktop/for_zkp/train/3_O.bmp"
        string_val: "/Users/zkp/Desktop/for_zkp/train/11_B.bmp"
        string_val: "/Users/zkp/Desktop/for_zkp/train/24_K.bmp"
        string_val: "/Users/zkp/Desktop/for_zkp/train/54_B.bmp"
        string_val: "/Users/zkp/Desktop/for_zkp/train/47_H.bmp"
        string_val: "/Users/zkp/Desktop/for_zkp/train/37_A.bmp"
        string_val: "/Users/zkp/Desktop/for_zkp/train/11_U.bmp"
        string_val: "/Users/zkp/Desktop/for_zkp/train/11_4.bmp"
        string_val: "/Users/zkp/Desktop/for_zkp/train/54_U.bmp"
        string_val: "/Users/zkp/Desktop/for_zkp/train/54_4.bmp"
        string_val: "/Users/zkp/Desktop/for_zkp/train/37_V.bmp"
        string_val: "/Users/zkp/Desktop/for_zkp/train/37_7.bmp"
        string_val: "/Users/zkp/Desktop/for_zkp/train/1_Z.bmp"
        string_val: "/Users/zkp/Desktop/for_zkp/train/28_F.bmp"
        string_val: "/Users/zkp/Desktop/for_zkp/train/58_O.bmp"
        string_val: "/Users/zkp/Desktop/for_zkp/train/1_M.bmp"
        string_val: "/Users/zkp/Desktop/for_zkp/train/28_Q.bmp"
        string_val: "/Users/zkp/Desktop/for_zkp/train/28_0.bmp"
        string_val: "/Users/zkp/Desktop/for_zkp/train/58_9.bmp"
        string_val: "/Users/zkp/Desktop/for_zkp/train/58_X.bmp"
        string_val: "/Users/zkp/Desktop/for_zkp/train/26_I.bmp"
        string_val: "/Users/zkp/Desktop/for_zkp/train/35_C.bmp"
        string_val: "/Users/zkp/Desktop/for_zkp/train/45_J.bmp"
        string_val: "/Users/zkp/Desktop/for_zkp/train/56_6.bmp"
        string_val: "/Users/zkp/Desktop/for_zkp/train/56_W.bmp"
        string_val: "/Users/zkp/Desktop/for_zkp/train/13_6.bmp"
        string_val: "/Users/zkp/Desktop/for_zkp/train/13_W.bmp"
        string_val: "/Users/zkp/Desktop/for_zkp/train/35_5.bmp"
        string_val: "/Users/zkp/Desktop/for_zkp/train/35_T.bmp"
        string_val: "/Users/zkp/Desktop/for_zkp/train/7_K.bmp"
        string_val: "/Users/zkp/Desktop/for_zkp/train/33_E.bmp"
        string_val: "/Users/zkp/Desktop/for_zkp/train/43_L.bmp"
        string_val: "/Users/zkp/Desktop/for_zkp/train/9_2.bmp"
        string_val: "/Users/zkp/Desktop/for_zkp/train/9_S.bmp"
        string_val: "/Users/zkp/Desktop/for_zkp/train/50_F.bmp"
        string_val: "/Users/zkp/Desktop/for_zkp/train/20_O.bmp"
        string_val: "/Users/zkp/Desktop/for_zkp/train/15_F.bmp"
        string_val: "/Users/zkp/Desktop/for_zkp/train/33_3.bmp"
        string_val: "/Users/zkp/Desktop/for_zkp/train/33_R.bmp"
        string_val: "/Users/zkp/Desktop/for_zkp/train/9_D.bmp"
        string_val: "/Users/zkp/Desktop/for_zkp/train/50_0.bmp"
        string_val: "/Users/zkp/Desktop/for_zkp/train/50_Q.bmp"
        string_val: "/Users/zkp/Desktop/for_zkp/train/15_0.bmp"
        string_val: "/Users/zkp/Desktop/for_zkp/train/15_Q.bmp"
        string_val: "/Users/zkp/Desktop/for_zkp/train/20_X.bmp"
        string_val: "/Users/zkp/Desktop/for_zkp/train/20_9.bmp"
        string_val: "/Users/zkp/Desktop/for_zkp/train/19_K.bmp"
        string_val: "/Users/zkp/Desktop/for_zkp/train/5_I.bmp"
        string_val: "/Users/zkp/Desktop/for_zkp/train/41_N.bmp"
        string_val: "/Users/zkp/Desktop/for_zkp/train/31_G.bmp"
        string_val: "/Users/zkp/Desktop/for_zkp/train/17_D.bmp"
        string_val: "/Users/zkp/Desktop/for_zkp/train/22_M.bmp"
        string_val: "/Users/zkp/Desktop/for_zkp/train/52_D.bmp"
        string_val: "/Users/zkp/Desktop/for_zkp/train/41_8.bmp"
        string_val: "/Users/zkp/Desktop/for_zkp/train/41_Y.bmp"
        string_val: "/Users/zkp/Desktop/for_zkp/train/31_P.bmp"
        string_val: "/Users/zkp/Desktop/for_zkp/train/31_1.bmp"
        string_val: "/Users/zkp/Desktop/for_zkp/train/22_Z.bmp"
        string_val: "/Users/zkp/Desktop/for_zkp/train/17_S.bmp"
        string_val: "/Users/zkp/Desktop/for_zkp/train/17_2.bmp"
        string_val: "/Users/zkp/Desktop/for_zkp/train/52_S.bmp"
        string_val: "/Users/zkp/Desktop/for_zkp/train/52_2.bmp"
        string_val: "/Users/zkp/Desktop/for_zkp/train/17_3.bmp"
        string_val: "/Users/zkp/Desktop/for_zkp/train/17_R.bmp"
        string_val: "/Users/zkp/Desktop/for_zkp/train/52_3.bmp"
        string_val: "/Users/zkp/Desktop/for_zkp/train/52_R.bmp"
        string_val: "/Users/zkp/Desktop/for_zkp/train/41_X.bmp"
        string_val: "/Users/zkp/Desktop/for_zkp/train/41_9.bmp"
        string_val: "/Users/zkp/Desktop/for_zkp/train/31_0.bmp"
        string_val: "/Users/zkp/Desktop/for_zkp/train/31_Q.bmp"
        string_val: "/Users/zkp/Desktop/for_zkp/train/22_L.bmp"
        string_val: "/Users/zkp/Desktop/for_zkp/train/17_E.bmp"
        string_val: "/Users/zkp/Desktop/for_zkp/train/52_E.bmp"
        string_val: "/Users/zkp/Desktop/for_zkp/train/41_O.bmp"
        string_val: "/Users/zkp/Desktop/for_zkp/train/31_F.bmp"
        string_val: "/Users/zkp/Desktop/for_zkp/train/5_H.bmp"
        string_val: "/Users/zkp/Desktop/for_zkp/train/19_J.bmp"
        string_val: "/Users/zkp/Desktop/for_zkp/train/50_P.bmp"
        string_val: "/Users/zkp/Desktop/for_zkp/train/50_1.bmp"
        string_val: "/Users/zkp/Desktop/for_zkp/train/20_8.bmp"
        string_val: "/Users/zkp/Desktop/for_zkp/train/20_Y.bmp"
        string_val: "/Users/zkp/Desktop/for_zkp/train/15_P.bmp"
        string_val: "/Users/zkp/Desktop/for_zkp/train/15_1.bmp"
        string_val: "/Users/zkp/Desktop/for_zkp/train/33_S.bmp"
        string_val: "/Users/zkp/Desktop/for_zkp/train/33_2.bmp"
        string_val: "/Users/zkp/Desktop/for_zkp/train/43_Z.bmp"
        string_val: "/Users/zkp/Desktop/for_zkp/train/9_E.bmp"
        string_val: "/Users/zkp/Desktop/for_zkp/train/50_G.bmp"
        string_val: "/Users/zkp/Desktop/for_zkp/train/15_G.bmp"
        string_val: "/Users/zkp/Desktop/for_zkp/train/20_N.bmp"
        string_val: "/Users/zkp/Desktop/for_zkp/train/33_D.bmp"
        string_val: "/Users/zkp/Desktop/for_zkp/train/9_R.bmp"
        string_val: "/Users/zkp/Desktop/for_zkp/train/9_3.bmp"
        string_val: "/Users/zkp/Desktop/for_zkp/train/43_M.bmp"
        string_val: "/Users/zkp/Desktop/for_zkp/train/7_J.bmp"
        string_val: "/Users/zkp/Desktop/for_zkp/train/35_U.bmp"
        string_val: "/Users/zkp/Desktop/for_zkp/train/35_4.bmp"
        string_val: "/Users/zkp/Desktop/for_zkp/train/56_V.bmp"
        string_val: "/Users/zkp/Desktop/for_zkp/train/56_7.bmp"
        string_val: "/Users/zkp/Desktop/for_zkp/train/13_V.bmp"
        string_val: "/Users/zkp/Desktop/for_zkp/train/13_7.bmp"
        string_val: "/Users/zkp/Desktop/for_zkp/train/35_B.bmp"
        string_val: "/Users/zkp/Desktop/for_zkp/train/45_K.bmp"
        string_val: "/Users/zkp/Desktop/for_zkp/train/56_A.bmp"
        string_val: "/Users/zkp/Desktop/for_zkp/train/13_A.bmp"
        string_val: "/Users/zkp/Desktop/for_zkp/train/26_H.bmp"
        string_val: "/Users/zkp/Desktop/for_zkp/train/28_1.bmp"
        string_val: "/Users/zkp/Desktop/for_zkp/train/28_P.bmp"
        string_val: "/Users/zkp/Desktop/for_zkp/train/58_Y.bmp"
        string_val: "/Users/zkp/Desktop/for_zkp/train/58_8.bmp"
        string_val: "/Users/zkp/Desktop/for_zkp/train/1_L.bmp"
        string_val: "/Users/zkp/Desktop/for_zkp/train/28_G.bmp"
        string_val: "/Users/zkp/Desktop/for_zkp/train/58_N.bmp"
        string_val: "/Users/zkp/Desktop/for_zkp/train/37_6.bmp"
        string_val: "/Users/zkp/Desktop/for_zkp/train/37_W.bmp"
        string_val: "/Users/zkp/Desktop/for_zkp/train/11_5.bmp"
        string_val: "/Users/zkp/Desktop/for_zkp/train/11_T.bmp"
        string_val: "/Users/zkp/Desktop/for_zkp/train/54_5.bmp"
        string_val: "/Users/zkp/Desktop/for_zkp/train/54_T.bmp"
        string_val: "/Users/zkp/Desktop/for_zkp/train/47_I.bmp"
        string_val: "/Users/zkp/Desktop/for_zkp/train/24_J.bmp"
        string_val: "/Users/zkp/Desktop/for_zkp/train/11_C.bmp"
        string_val: "/Users/zkp/Desktop/for_zkp/train/54_C.bmp"
        string_val: "/Users/zkp/Desktop/for_zkp/train/39_9.bmp"
        string_val: "/Users/zkp/Desktop/for_zkp/train/39_X.bmp"
        string_val: "/Users/zkp/Desktop/for_zkp/train/3_N.bmp"
        string_val: "/Users/zkp/Desktop/for_zkp/train/49_Q.bmp"
        string_val: "/Users/zkp/Desktop/for_zkp/train/49_0.bmp"
        string_val: "/Users/zkp/Desktop/for_zkp/train/39_O.bmp"
        string_val: "/Users/zkp/Desktop/for_zkp/train/49_F.bmp"
        string_val: "/Users/zkp/Desktop/for_zkp/train/3_8.bmp"
        string_val: "/Users/zkp/Desktop/for_zkp/train/3_Y.bmp"
        string_val: "/Users/zkp/Desktop/for_zkp/train/49_D.bmp"
        string_val: "/Users/zkp/Desktop/for_zkp/train/39_M.bmp"
        string_val: "/Users/zkp/Desktop/for_zkp/train/49_2.bmp"
        string_val: "/Users/zkp/Desktop/for_zkp/train/49_S.bmp"
        string_val: "/Users/zkp/Desktop/for_zkp/train/3_L.bmp"
        string_val: "/Users/zkp/Desktop/for_zkp/train/39_Z.bmp"
        string_val: "/Users/zkp/Desktop/for_zkp/train/37_B.bmp"
        string_val: "/Users/zkp/Desktop/for_zkp/train/47_K.bmp"
        string_val: "/Users/zkp/Desktop/for_zkp/train/54_A.bmp"
        string_val: "/Users/zkp/Desktop/for_zkp/train/11_A.bmp"
        string_val: "/Users/zkp/Desktop/for_zkp/train/24_H.bmp"
        string_val: "/Users/zkp/Desktop/for_zkp/train/37_U.bmp"
        string_val: "/Users/zkp/Desktop/for_zkp/train/37_4.bmp"
        string_val: "/Users/zkp/Desktop/for_zkp/train/54_V.bmp"
        string_val: "/Users/zkp/Desktop/for_zkp/train/54_7.bmp"
        string_val: "/Users/zkp/Desktop/for_zkp/train/11_V.bmp"
        string_val: "/Users/zkp/Desktop/for_zkp/train/11_7.bmp"
        string_val: "/Users/zkp/Desktop/for_zkp/train/58_L.bmp"
        string_val: "/Users/zkp/Desktop/for_zkp/train/28_E.bmp"
        string_val: "/Users/zkp/Desktop/for_zkp/train/1_8.bmp"
        string_val: "/Users/zkp/Desktop/for_zkp/train/1_Y.bmp"
        string_val: "/Users/zkp/Desktop/for_zkp/train/28_R.bmp"
        string_val: "/Users/zkp/Desktop/for_zkp/train/28_3.bmp"
        string_val: "/Users/zkp/Desktop/for_zkp/train/1_N.bmp"
        string_val: "/Users/zkp/Desktop/for_zkp/train/45_I.bmp"
        string_val: "/Users/zkp/Desktop/for_zkp/train/26_J.bmp"
        string_val: "/Users/zkp/Desktop/for_zkp/train/13_C.bmp"
        string_val: "/Users/zkp/Desktop/for_zkp/train/56_C.bmp"
        string_val: "/Users/zkp/Desktop/for_zkp/train/35_6.bmp"
        string_val: "/Users/zkp/Desktop/for_zkp/train/35_W.bmp"
        string_val: "/Users/zkp/Desktop/for_zkp/train/13_5.bmp"
        string_val: "/Users/zkp/Desktop/for_zkp/train/13_T.bmp"
        string_val: "/Users/zkp/Desktop/for_zkp/train/56_5.bmp"
        string_val: "/Users/zkp/Desktop/for_zkp/train/56_T.bmp"
        string_val: "/Users/zkp/Desktop/for_zkp/train/7_H.bmp"
        string_val: "/Users/zkp/Desktop/for_zkp/train/20_L.bmp"
        string_val: "/Users/zkp/Desktop/for_zkp/train/15_E.bmp"
        string_val: "/Users/zkp/Desktop/for_zkp/train/50_E.bmp"
        string_val: "/Users/zkp/Desktop/for_zkp/train/43_O.bmp"
        string_val: "/Users/zkp/Desktop/for_zkp/train/9_1.bmp"
        string_val: "/Users/zkp/Desktop/for_zkp/train/9_P.bmp"
        string_val: "/Users/zkp/Desktop/for_zkp/train/33_F.bmp"
        string_val: "/Users/zkp/Desktop/for_zkp/train/15_3.bmp"
        string_val: "/Users/zkp/Desktop/for_zkp/train/15_R.bmp"
        string_val: "/Users/zkp/Desktop/for_zkp/train/50_3.bmp"
        string_val: "/Users/zkp/Desktop/for_zkp/train/50_R.bmp"
        string_val: "/Users/zkp/Desktop/for_zkp/train/9_G.bmp"
        string_val: "/Users/zkp/Desktop/for_zkp/train/43_X.bmp"
        string_val: "/Users/zkp/Desktop/for_zkp/train/43_9.bmp"
        string_val: "/Users/zkp/Desktop/for_zkp/train/33_0.bmp"
        string_val: "/Users/zkp/Desktop/for_zkp/train/33_Q.bmp"
        string_val: "/Users/zkp/Desktop/for_zkp/train/19_H.bmp"
        string_val: "/Users/zkp/Desktop/for_zkp/train/5_J.bmp"
        string_val: "/Users/zkp/Desktop/for_zkp/train/52_G.bmp"
        string_val: "/Users/zkp/Desktop/for_zkp/train/17_G.bmp"
        string_val: "/Users/zkp/Desktop/for_zkp/train/22_N.bmp"
        string_val: "/Users/zkp/Desktop/for_zkp/train/31_D.bmp"
        string_val: "/Users/zkp/Desktop/for_zkp/train/41_M.bmp"
        string_val: "/Users/zkp/Desktop/for_zkp/train/52_P.bmp"
        string_val: "/Users/zkp/Desktop/for_zkp/train/52_1.bmp"
        string_val: "/Users/zkp/Desktop/for_zkp/train/22_8.bmp"
        string_val: "/Users/zkp/Desktop/for_zkp/train/22_Y.bmp"
        string_val: "/Users/zkp/Desktop/for_zkp/train/17_P.bmp"
        string_val: "/Users/zkp/Desktop/for_zkp/train/17_1.bmp"
        string_val: "/Users/zkp/Desktop/for_zkp/train/31_S.bmp"
        string_val: "/Users/zkp/Desktop/for_zkp/train/31_2.bmp"
        string_val: "/Users/zkp/Desktop/for_zkp/train/41_Z.bmp"
        string_val: "/Users/zkp/Desktop/for_zkp/train/31_3.bmp"
        string_val: "/Users/zkp/Desktop/for_zkp/train/31_R.bmp"
        string_val: "/Users/zkp/Desktop/for_zkp/train/52_0.bmp"
        string_val: "/Users/zkp/Desktop/for_zkp/train/52_Q.bmp"
        string_val: "/Users/zkp/Desktop/for_zkp/train/17_0.bmp"
        string_val: "/Users/zkp/Desktop/for_zkp/train/17_Q.bmp"
        string_val: "/Users/zkp/Desktop/for_zkp/train/22_X.bmp"
        string_val: "/Users/zkp/Desktop/for_zkp/train/22_9.bmp"
        string_val: "/Users/zkp/Desktop/for_zkp/train/31_E.bmp"
        string_val: "/Users/zkp/Desktop/for_zkp/train/41_L.bmp"
        string_val: "/Users/zkp/Desktop/for_zkp/train/52_F.bmp"
        string_val: "/Users/zkp/Desktop/for_zkp/train/22_O.bmp"
        string_val: "/Users/zkp/Desktop/for_zkp/train/17_F.bmp"
        string_val: "/Users/zkp/Desktop/for_zkp/train/5_K.bmp"
        string_val: "/Users/zkp/Desktop/for_zkp/train/19_I.bmp"
        string_val: "/Users/zkp/Desktop/for_zkp/train/43_8.bmp"
        string_val: "/Users/zkp/Desktop/for_zkp/train/43_Y.bmp"
        string_val: "/Users/zkp/Desktop/for_zkp/train/9_F.bmp"
        string_val: "/Users/zkp/Desktop/for_zkp/train/33_P.bmp"
        string_val: "/Users/zkp/Desktop/for_zkp/train/33_1.bmp"
        string_val: "/Users/zkp/Desktop/for_zkp/train/20_Z.bmp"
        string_val: "/Users/zkp/Desktop/for_zkp/train/15_S.bmp"
        string_val: "/Users/zkp/Desktop/for_zkp/train/15_2.bmp"
        string_val: "/Users/zkp/Desktop/for_zkp/train/50_S.bmp"
        string_val: "/Users/zkp/Desktop/for_zkp/train/50_2.bmp"
        string_val: "/Users/zkp/Desktop/for_zkp/train/9_Q.bmp"
        string_val: "/Users/zkp/Desktop/for_zkp/train/9_0.bmp"
        string_val: "/Users/zkp/Desktop/for_zkp/train/43_N.bmp"
        string_val: "/Users/zkp/Desktop/for_zkp/train/33_G.bmp"
        string_val: "/Users/zkp/Desktop/for_zkp/train/15_D.bmp"
        string_val: "/Users/zkp/Desktop/for_zkp/train/20_M.bmp"
        string_val: "/Users/zkp/Desktop/for_zkp/train/50_D.bmp"
        string_val: "/Users/zkp/Desktop/for_zkp/train/7_I.bmp"
        string_val: "/Users/zkp/Desktop/for_zkp/train/13_U.bmp"
        string_val: "/Users/zkp/Desktop/for_zkp/train/13_4.bmp"
        string_val: "/Users/zkp/Desktop/for_zkp/train/56_U.bmp"
        string_val: "/Users/zkp/Desktop/for_zkp/train/56_4.bmp"
        string_val: "/Users/zkp/Desktop/for_zkp/train/35_V.bmp"
        string_val: "/Users/zkp/Desktop/for_zkp/train/35_7.bmp"
        string_val: "/Users/zkp/Desktop/for_zkp/train/13_B.bmp"
        string_val: "/Users/zkp/Desktop/for_zkp/train/26_K.bmp"
        string_val: "/Users/zkp/Desktop/for_zkp/train/56_B.bmp"
        string_val: "/Users/zkp/Desktop/for_zkp/train/45_H.bmp"
        string_val: "/Users/zkp/Desktop/for_zkp/train/35_A.bmp"
        string_val: "/Users/zkp/Desktop/for_zkp/train/1_O.bmp"
        string_val: "/Users/zkp/Desktop/for_zkp/train/58_Z.bmp"
        string_val: "/Users/zkp/Desktop/for_zkp/train/28_2.bmp"
        string_val: "/Users/zkp/Desktop/for_zkp/train/28_S.bmp"
        string_val: "/Users/zkp/Desktop/for_zkp/train/1_X.bmp"
        string_val: "/Users/zkp/Desktop/for_zkp/train/1_9.bmp"
        string_val: "/Users/zkp/Desktop/for_zkp/train/58_M.bmp"
        string_val: "/Users/zkp/Desktop/for_zkp/train/28_D.bmp"
        string_val: "/Users/zkp/Desktop/for_zkp/train/54_6.bmp"
        string_val: "/Users/zkp/Desktop/for_zkp/train/54_W.bmp"
        string_val: "/Users/zkp/Desktop/for_zkp/train/11_6.bmp"
        string_val: "/Users/zkp/Desktop/for_zkp/train/11_W.bmp"
        string_val: "/Users/zkp/Desktop/for_zkp/train/37_5.bmp"
        string_val: "/Users/zkp/Desktop/for_zkp/train/37_T.bmp"
        string_val: "/Users/zkp/Desktop/for_zkp/train/24_I.bmp"
        string_val: "/Users/zkp/Desktop/for_zkp/train/37_C.bmp"
        string_val: "/Users/zkp/Desktop/for_zkp/train/47_J.bmp"
        string_val: "/Users/zkp/Desktop/for_zkp/train/3_M.bmp"
        string_val: "/Users/zkp/Desktop/for_zkp/train/49_R.bmp"
        string_val: "/Users/zkp/Desktop/for_zkp/train/49_3.bmp"
        string_val: "/Users/zkp/Desktop/for_zkp/train/49_E.bmp"
        string_val: "/Users/zkp/Desktop/for_zkp/train/3_Z.bmp"
        string_val: "/Users/zkp/Desktop/for_zkp/train/39_L.bmp"
      }
    }
  }
}
node {
  name: "Const_1"
  op: "Const"
  device: "/device:CPU:0"
  attr {
    key: "_output_shapes"
    value {
      list {
        shape {
          dim {
            size: 2160
          }
        }
      }
    }
  }
  attr {
    key: "dtype"
    value {
      type: DT_INT32
    }
  }
  attr {
    key: "value"
    value {
      tensor {
        dtype: DT_INT32
        tensor_shape {
          dim {
            size: 2160
          }
        }
        tensor_content: "…"
      }
    }
  }
}
node {
  name: "buffer_size"
  op: "Const"
  device: "/device:CPU:0"
  attr {
    key: "_output_shapes"
    value {
      list {
        shape {
        }
      }
    }
  }
  attr {
    key: "dtype"
    value {
      type: DT_INT64
    }
  }
  attr {
    key: "value"
    value {
      tensor {
        dtype: DT_INT64
        tensor_shape {
        }
        int64_val: 10000
      }
    }
  }
}
node {
  name: "seed"
  op: "Const"
  device: "/device:CPU:0"
  attr {
    key: "_output_shapes"
    value {
      list {
        shape {
        }
      }
    }
  }
  attr {
    key: "dtype"
    value {
      type: DT_INT64
    }
  }
  attr {
    key: "value"
    value {
      tensor {
        dtype: DT_INT64
        tensor_shape {
        }
        int64_val: 0
      }
    }
  }
}
node {
  name: "seed2"
  op: "Const"
  device: "/device:CPU:0"
  attr {
    key: "_output_shapes"
    value {
      list {
        shape {
        }
      }
    }
  }
  attr {
    key: "dtype"
    value {
      type: DT_INT64
    }
  }
  attr {
    key: "value"
    value {
      tensor {
        dtype: DT_INT64
        tensor_shape {
        }
        int64_val: 0
      }
    }
  }
}
node {
  name: "batch_size"
  op: "Const"
  device: "/device:CPU:0"
  attr {
    key: "_output_shapes"
    value {
      list {
        shape {
        }
      }
    }
  }
  attr {
    key: "dtype"
    value {
      type: DT_INT64
    }
  }
  attr {
    key: "value"
    value {
      tensor {
        dtype: DT_INT64
        tensor_shape {
        }
        int64_val: 100
      }
    }
  }
}
node {
  name: "count"
  op: "Const"
  device: "/device:CPU:0"
  attr {
    key: "_output_shapes"
    value {
      list {
        shape {
        }
      }
    }
  }
  attr {
    key: "dtype"
    value {
      type: DT_INT64
    }
  }
  attr {
    key: "value"
    value {
      tensor {
        dtype: DT_INT64
        tensor_shape {
        }
        int64_val: 100
      }
    }
  }
}
node {
  name: "OneShotIterator"
  op: "OneShotIterator"
  device: "/device:CPU:0"
  attr {
    key: "_output_shapes"
    value {
      list {
        shape {
        }
      }
    }
  }
  attr {
    key: "container"
    value {
      s: ""
    }
  }
  attr {
    key: "dataset_factory"
    value {
      func {
        name: "_make_dataset_IODSIuVmqfI"
      }
    }
  }
  attr {
    key: "output_shapes"
    value {
      list {
        shape {
          dim {
            size: -1
          }
          dim {
            size: 28
          }
          dim {
            size: 28
          }
          dim {
            size: 1
          }
        }
        shape {
          dim {
            size: -1
          }
        }
      }
    }
  }
  attr {
    key: "output_types"
    value {
      list {
        type: DT_FLOAT
        type: DT_INT32
      }
    }
  }
  attr {
    key: "shared_name"
    value {
      s: ""
    }
  }
}
node {
  name: "IteratorToStringHandle"
  op: "IteratorToStringHandle"
  input: "OneShotIterator"
  device: "/device:CPU:0"
  attr {
    key: "_output_shapes"
    value {
      list {
        shape {
        }
      }
    }
  }
}
node {
  name: "IteratorGetNext"
  op: "IteratorGetNext"
  input: "OneShotIterator"
  device: "/device:CPU:0"
  attr {
    key: "_output_shapes"
    value {
      list {
        shape {
          dim {
            size: -1
          }
          dim {
            size: 28
          }
          dim {
            size: 28
          }
          dim {
            size: 1
          }
        }
        shape {
          dim {
            size: -1
          }
        }
      }
    }
  }
  attr {
    key: "output_shapes"
    value {
      list {
        shape {
          dim {
            size: -1
          }
          dim {
            size: 28
          }
          dim {
            size: 28
          }
          dim {
            size: 1
          }
        }
        shape {
          dim {
            size: -1
          }
        }
      }
    }
  }
  attr {
    key: "output_types"
    value {
      list {
        type: DT_FLOAT
        type: DT_INT32
      }
    }
  }
}
node {
  name: "Reshape/shape"
  op: "Const"
  attr {
    key: "_output_shapes"
    value {
      list {
        shape {
          dim {
            size: 4
          }
        }
      }
    }
  }
  attr {
    key: "dtype"
    value {
      type: DT_INT32
    }
  }
  attr {
    key: "value"
    value {
      tensor {
        dtype: DT_INT32
        tensor_shape {
          dim {
            size: 4
          }
        }
        tensor_content: "\377\377\377\377\034\000\000\000\034\000\000\000\001\000\000\000"
      }
    }
  }
}
node {
  name: "Reshape"
  op: "Reshape"
  input: "IteratorGetNext"
  input: "Reshape/shape"
  attr {
    key: "T"
    value {
      type: DT_FLOAT
    }
  }
  attr {
    key: "Tshape"
    value {
      type: DT_INT32
    }
  }
  attr {
    key: "_output_shapes"
    value {
      list {
        shape {
          dim {
            size: -1
          }
          dim {
            size: 28
          }
          dim {
            size: 28
          }
          dim {
            size: 1
          }
        }
      }
    }
  }
}
node {
  name: "conv2d/kernel/Initializer/random_uniform/shape"
  op: "Const"
  attr {
    key: "_class"
    value {
      list {
        s: "loc:@conv2d/kernel"
      }
    }
  }
  attr {
    key: "_output_shapes"
    value {
      list {
        shape {
          dim {
            size: 4
          }
        }
      }
    }
  }
  attr {
    key: "dtype"
    value {
      type: DT_INT32
    }
  }
  attr {
    key: "value"
…
            string_val: "/Users/zkp/Desktop/for_zkp/train/29_Q.bmp"
            string_val: "/Users/zkp/Desktop/for_zkp/train/27_I.bmp"
            string_val: "/Users/zkp/Desktop/for_zkp/train/44_J.bmp"
            string_val: "/Users/zkp/Desktop/for_zkp/train/34_C.bmp"
            string_val: "/Users/zkp/Desktop/for_zkp/train/12_W.bmp"
            string_val: "/Users/zkp/Desktop/for_zkp/train/12_6.bmp"
            string_val: "/Users/zkp/Desktop/for_zkp/train/57_W.bmp"
            string_val: "/Users/zkp/Desktop/for_zkp/train/57_6.bmp"
            string_val: "/Users/zkp/Desktop/for_zkp/train/34_T.bmp"
            string_val: "/Users/zkp/Desktop/for_zkp/train/34_5.bmp"
            string_val: "/Users/zkp/Desktop/for_zkp/train/2_9.bmp"
            string_val: "/Users/zkp/Desktop/for_zkp/train/2_X.bmp"
            string_val: "/Users/zkp/Desktop/for_zkp/train/48_G.bmp"
            string_val: "/Users/zkp/Desktop/for_zkp/train/38_N.bmp"
            string_val: "/Users/zkp/Desktop/for_zkp/train/48_P.bmp"
            string_val: "/Users/zkp/Desktop/for_zkp/train/48_1.bmp"
            string_val: "/Users/zkp/Desktop/for_zkp/train/2_O.bmp"
            string_val: "/Users/zkp/Desktop/for_zkp/train/38_8.bmp"
            string_val: "/Users/zkp/Desktop/for_zkp/train/38_Y.bmp"
            string_val: "/Users/zkp/Desktop/for_zkp/train/55_B.bmp"
            string_val: "/Users/zkp/Desktop/for_zkp/train/10_B.bmp"
            string_val: "/Users/zkp/Desktop/for_zkp/train/25_K.bmp"
            string_val: "/Users/zkp/Desktop/for_zkp/train/36_A.bmp"
            string_val: "/Users/zkp/Desktop/for_zkp/train/46_H.bmp"
            string_val: "/Users/zkp/Desktop/for_zkp/train/55_4.bmp"
            string_val: "/Users/zkp/Desktop/for_zkp/train/55_U.bmp"
            string_val: "/Users/zkp/Desktop/for_zkp/train/10_4.bmp"
            string_val: "/Users/zkp/Desktop/for_zkp/train/10_U.bmp"
            string_val: "/Users/zkp/Desktop/for_zkp/train/36_7.bmp"
            string_val: "/Users/zkp/Desktop/for_zkp/train/36_V.bmp"
            string_val: "/Users/zkp/Desktop/for_zkp/train/36_W.bmp"
            string_val: "/Users/zkp/Desktop/for_zkp/train/36_6.bmp"
            string_val: "/Users/zkp/Desktop/for_zkp/train/55_T.bmp"
            string_val: "/Users/zkp/Desktop/for_zkp/train/55_5.bmp"
            string_val: "/Users/zkp/Desktop/for_zkp/train/10_T.bmp"
            string_val: "/Users/zkp/Desktop/for_zkp/train/10_5.bmp"
            string_val: "/Users/zkp/Desktop/for_zkp/train/46_I.bmp"
            string_val: "/Users/zkp/Desktop/for_zkp/train/55_C.bmp"
            string_val: "/Users/zkp/Desktop/for_zkp/train/25_J.bmp"
            string_val: "/Users/zkp/Desktop/for_zkp/train/10_C.bmp"
            string_val: "/Users/zkp/Desktop/for_zkp/train/2_N.bmp"
            string_val: "/Users/zkp/Desktop/for_zkp/train/48_0.bmp"
            string_val: "/Users/zkp/Desktop/for_zkp/train/48_Q.bmp"
            string_val: "/Users/zkp/Desktop/for_zkp/train/38_X.bmp"
            string_val: "/Users/zkp/Desktop/for_zkp/train/38_9.bmp"
            string_val: "/Users/zkp/Desktop/for_zkp/train/48_F.bmp"
            string_val: "/Users/zkp/Desktop/for_zkp/train/2_Y.bmp"
            string_val: "/Users/zkp/Desktop/for_zkp/train/2_8.bmp"
            string_val: "/Users/zkp/Desktop/for_zkp/train/38_O.bmp"
            string_val: "/Users/zkp/Desktop/for_zkp/train/34_4.bmp"
            string_val: "/Users/zkp/Desktop/for_zkp/train/34_U.bmp"
            string_val: "/Users/zkp/Desktop/for_zkp/train/12_7.bmp"
            string_val: "/Users/zkp/Desktop/for_zkp/train/12_V.bmp"
            string_val: "/Users/zkp/Desktop/for_zkp/train/57_7.bmp"
            string_val: "/Users/zkp/Desktop/for_zkp/train/57_V.bmp"
            string_val: "/Users/zkp/Desktop/for_zkp/train/44_K.bmp"
            string_val: "/Users/zkp/Desktop/for_zkp/train/34_B.bmp"
            string_val: "/Users/zkp/Desktop/for_zkp/train/12_A.bmp"
            string_val: "/Users/zkp/Desktop/for_zkp/train/27_H.bmp"
            string_val: "/Users/zkp/Desktop/for_zkp/train/57_A.bmp"
            string_val: "/Users/zkp/Desktop/for_zkp/train/59_8.bmp"
            string_val: "/Users/zkp/Desktop/for_zkp/train/59_Y.bmp"
            string_val: "/Users/zkp/Desktop/for_zkp/train/29_P.bmp"
            string_val: "/Users/zkp/Desktop/for_zkp/train/29_1.bmp"
            string_val: "/Users/zkp/Desktop/for_zkp/train/0_L.bmp"
            string_val: "/Users/zkp/Desktop/for_zkp/train/59_N.bmp"
            string_val: "/Users/zkp/Desktop/for_zkp/train/29_G.bmp"
            string_val: "/Users/zkp/Desktop/for_zkp/train/21_Y.bmp"
            string_val: "/Users/zkp/Desktop/for_zkp/train/21_8.bmp"
            string_val: "/Users/zkp/Desktop/for_zkp/train/14_1.bmp"
            string_val: "/Users/zkp/Desktop/for_zkp/train/14_P.bmp"
            string_val: "/Users/zkp/Desktop/for_zkp/train/51_1.bmp"
            string_val: "/Users/zkp/Desktop/for_zkp/train/51_P.bmp"
            string_val: "/Users/zkp/Desktop/for_zkp/train/42_Z.bmp"
            string_val: "/Users/zkp/Desktop/for_zkp/train/8_E.bmp"
            string_val: "/Users/zkp/Desktop/for_zkp/train/32_2.bmp"
            string_val: "/Users/zkp/Desktop/for_zkp/train/32_S.bmp"
            string_val: "/Users/zkp/Desktop/for_zkp/train/14_G.bmp"
            string_val: "/Users/zkp/Desktop/for_zkp/train/21_N.bmp"
            string_val: "/Users/zkp/Desktop/for_zkp/train/51_G.bmp"
            string_val: "/Users/zkp/Desktop/for_zkp/train/8_3.bmp"
            string_val: "/Users/zkp/Desktop/for_zkp/train/8_R.bmp"
            string_val: "/Users/zkp/Desktop/for_zkp/train/42_M.bmp"
            string_val: "/Users/zkp/Desktop/for_zkp/train/32_D.bmp"
            string_val: "/Users/zkp/Desktop/for_zkp/train/6_J.bmp"
            string_val: "/Users/zkp/Desktop/for_zkp/train/53_R.bmp"
            string_val: "/Users/zkp/Desktop/for_zkp/train/53_3.bmp"
            string_val: "/Users/zkp/Desktop/for_zkp/train/16_R.bmp"
            string_val: "/Users/zkp/Desktop/for_zkp/train/16_3.bmp"
            string_val: "/Users/zkp/Desktop/for_zkp/train/30_Q.bmp"
            string_val: "/Users/zkp/Desktop/for_zkp/train/30_0.bmp"
            string_val: "/Users/zkp/Desktop/for_zkp/train/40_9.bmp"
            string_val: "/Users/zkp/Desktop/for_zkp/train/40_X.bmp"
            string_val: "/Users/zkp/Desktop/for_zkp/train/53_E.bmp"
            string_val: "/Users/zkp/Desktop/for_zkp/train/23_L.bmp"
            string_val: "/Users/zkp/Desktop/for_zkp/train/16_E.bmp"
            string_val: "/Users/zkp/Desktop/for_zkp/train/30_F.bmp"
            string_val: "/Users/zkp/Desktop/for_zkp/train/40_O.bmp"
            string_val: "/Users/zkp/Desktop/for_zkp/train/4_H.bmp"
            string_val: "/Users/zkp/Desktop/for_zkp/train/18_J.bmp"
            string_val: "/Users/zkp/Desktop/for_zkp/train/49_7.bmp"
            string_val: "/Users/zkp/Desktop/for_zkp/train/49_V.bmp"
            string_val: "/Users/zkp/Desktop/for_zkp/train/3_I.bmp"
            string_val: "/Users/zkp/Desktop/for_zkp/train/39_H.bmp"
            string_val: "/Users/zkp/Desktop/for_zkp/train/49_A.bmp"
            string_val: "/Users/zkp/Desktop/for_zkp/train/47_8.bmp"
            string_val: "/Users/zkp/Desktop/for_zkp/train/47_Y.bmp"
            string_val: "/Users/zkp/Desktop/for_zkp/train/37_P.bmp"
            string_val: "/Users/zkp/Desktop/for_zkp/train/37_1.bmp"
            string_val: "/Users/zkp/Desktop/for_zkp/train/24_Z.bmp"
            string_val: "/Users/zkp/Desktop/for_zkp/train/11_S.bmp"
            string_val: "/Users/zkp/Desktop/for_zkp/train/11_2.bmp"
            string_val: "/Users/zkp/Desktop/for_zkp/train/54_S.bmp"
            string_val: "/Users/zkp/Desktop/for_zkp/train/54_2.bmp"
            string_val: "/Users/zkp/Desktop/for_zkp/train/47_N.bmp"
            string_val: "/Users/zkp/Desktop/for_zkp/train/37_G.bmp"
            string_val: "/Users/zkp/Desktop/for_zkp/train/11_D.bmp"
            string_val: "/Users/zkp/Desktop/for_zkp/train/24_M.bmp"
            string_val: "/Users/zkp/Desktop/for_zkp/train/54_D.bmp"
            string_val: "/Users/zkp/Desktop/for_zkp/train/28_W.bmp"
            string_val: "/Users/zkp/Desktop/for_zkp/train/28_6.bmp"
            string_val: "/Users/zkp/Desktop/for_zkp/train/1_K.bmp"
            string_val: "/Users/zkp/Desktop/for_zkp/train/58_I.bmp"
            string_val: "/Users/zkp/Desktop/for_zkp/train/35_3.bmp"
            string_val: "/Users/zkp/Desktop/for_zkp/train/35_R.bmp"
            string_val: "/Users/zkp/Desktop/for_zkp/train/56_0.bmp"
            string_val: "/Users/zkp/Desktop/for_zkp/train/56_Q.bmp"
            string_val: "/Users/zkp/Desktop/for_zkp/train/13_0.bmp"
            string_val: "/Users/zkp/Desktop/for_zkp/train/13_Q.bmp"
            string_val: "/Users/zkp/Desktop/for_zkp/train/26_X.bmp"
            string_val: "/Users/zkp/Desktop/for_zkp/train/26_9.bmp"
            string_val: "/Users/zkp/Desktop/for_zkp/train/35_E.bmp"
            string_val: "/Users/zkp/Desktop/for_zkp/train/45_L.bmp"
            string_val: "/Users/zkp/Desktop/for_zkp/train/56_F.bmp"
            string_val: "/Users/zkp/Desktop/for_zkp/train/26_O.bmp"
            string_val: "/Users/zkp/Desktop/for_zkp/train/13_F.bmp"
            string_val: "/Users/zkp/Desktop/for_zkp/train/7_M.bmp"
            string_val: "/Users/zkp/Desktop/for_zkp/train/7_Z.bmp"
            string_val: "/Users/zkp/Desktop/for_zkp/train/50_6.bmp"
            string_val: "/Users/zkp/Desktop/for_zkp/train/50_W.bmp"
            string_val: "/Users/zkp/Desktop/for_zkp/train/15_6.bmp"
            string_val: "/Users/zkp/Desktop/for_zkp/train/15_W.bmp"
            string_val: "/Users/zkp/Desktop/for_zkp/train/33_5.bmp"
            string_val: "/Users/zkp/Desktop/for_zkp/train/33_T.bmp"
            string_val: "/Users/zkp/Desktop/for_zkp/train/9_B.bmp"
            string_val: "/Users/zkp/Desktop/for_zkp/train/20_I.bmp"
            string_val: "/Users/zkp/Desktop/for_zkp/train/33_C.bmp"
            string_val: "/Users/zkp/Desktop/for_zkp/train/43_J.bmp"
            string_val: "/Users/zkp/Desktop/for_zkp/train/9_4.bmp"
            string_val: "/Users/zkp/Desktop/for_zkp/train/9_U.bmp"
            string_val: "/Users/zkp/Desktop/for_zkp/train/5_O.bmp"
            string_val: "/Users/zkp/Desktop/for_zkp/train/19_Z.bmp"
            string_val: "/Users/zkp/Desktop/for_zkp/train/5_X.bmp"
            string_val: "/Users/zkp/Desktop/for_zkp/train/5_9.bmp"
            string_val: "/Users/zkp/Desktop/for_zkp/train/19_M.bmp"
            string_val: "/Users/zkp/Desktop/for_zkp/train/17_U.bmp"
            string_val: "/Users/zkp/Desktop/for_zkp/train/17_4.bmp"
            string_val: "/Users/zkp/Desktop/for_zkp/train/52_U.bmp"
            string_val: "/Users/zkp/Desktop/for_zkp/train/52_4.bmp"
            string_val: "/Users/zkp/Desktop/for_zkp/train/31_V.bmp"
            string_val: "/Users/zkp/Desktop/for_zkp/train/31_7.bmp"
            string_val: "/Users/zkp/Desktop/for_zkp/train/17_B.bmp"
            string_val: "/Users/zkp/Desktop/for_zkp/train/22_K.bmp"
            string_val: "/Users/zkp/Desktop/for_zkp/train/52_B.bmp"
            string_val: "/Users/zkp/Desktop/for_zkp/train/41_H.bmp"
            string_val: "/Users/zkp/Desktop/for_zkp/train/31_A.bmp"
            string_val: "/Users/zkp/Desktop/for_zkp/train/41_I.bmp"
            string_val: "/Users/zkp/Desktop/for_zkp/train/22_J.bmp"
            string_val: "/Users/zkp/Desktop/for_zkp/train/17_C.bmp"
            string_val: "/Users/zkp/Desktop/for_zkp/train/52_C.bmp"
            string_val: "/Users/zkp/Desktop/for_zkp/train/31_6.bmp"
            string_val: "/Users/zkp/Desktop/for_zkp/train/31_W.bmp"
            string_val: "/Users/zkp/Desktop/for_zkp/train/17_5.bmp"
            string_val: "/Users/zkp/Desktop/for_zkp/train/17_T.bmp"
            string_val: "/Users/zkp/Desktop/for_zkp/train/52_5.bmp"
            string_val: "/Users/zkp/Desktop/for_zkp/train/52_T.bmp"
            string_val: "/Users/zkp/Desktop/for_zkp/train/19_L.bmp"
            string_val: "/Users/zkp/Desktop/for_zkp/train/5_8.bmp"
            string_val: "/Users/zkp/Desktop/for_zkp/train/5_Y.bmp"
            string_val: "/Users/zkp/Desktop/for_zkp/train/5_N.bmp"
            string_val: "/Users/zkp/Desktop/for_zkp/train/33_B.bmp"
            string_val: "/Users/zkp/Desktop/for_zkp/train/9_T.bmp"
            string_val: "/Users/zkp/Desktop/for_zkp/train/9_5.bmp"
            string_val: "/Users/zkp/Desktop/for_zkp/train/43_K.bmp"
            string_val: "/Users/zkp/Desktop/for_zkp/train/50_A.bmp"
            string_val: "/Users/zkp/Desktop/for_zkp/train/15_A.bmp"
            string_val: "/Users/zkp/Desktop/for_zkp/train/20_H.bmp"
            string_val: "/Users/zkp/Desktop/for_zkp/train/33_U.bmp"
            string_val: "/Users/zkp/Desktop/for_zkp/train/33_4.bmp"
            string_val: "/Users/zkp/Desktop/for_zkp/train/9_C.bmp"
            string_val: "/Users/zkp/Desktop/for_zkp/train/50_V.bmp"
            string_val: "/Users/zkp/Desktop/for_zkp/train/50_7.bmp"
            string_val: "/Users/zkp/Desktop/for_zkp/train/15_V.bmp"
            string_val: "/Users/zkp/Desktop/for_zkp/train/15_7.bmp"
            string_val: "/Users/zkp/Desktop/for_zkp/train/7_L.bmp"
            string_val: "/Users/zkp/Desktop/for_zkp/train/56_G.bmp"
            string_val: "/Users/zkp/Desktop/for_zkp/train/13_G.bmp"
            string_val: "/Users/zkp/Desktop/for_zkp/train/26_N.bmp"
            string_val: "/Users/zkp/Desktop/for_zkp/train/35_D.bmp"
            string_val: "/Users/zkp/Desktop/for_zkp/train/45_M.bmp"
            string_val: "/Users/zkp/Desktop/for_zkp/train/56_P.bmp"
            string_val: "/Users/zkp/Desktop/for_zkp/train/56_1.bmp"
            string_val: "/Users/zkp/Desktop/for_zkp/train/26_8.bmp"
            string_val: "/Users/zkp/Desktop/for_zkp/train/26_Y.bmp"
            string_val: "/Users/zkp/Desktop/for_zkp/train/13_P.bmp"
            string_val: "/Users/zkp/Desktop/for_zkp/train/13_1.bmp"
            string_val: "/Users/zkp/Desktop/for_zkp/train/35_S.bmp"
            string_val: "/Users/zkp/Desktop/for_zkp/train/35_2.bmp"
            string_val: "/Users/zkp/Desktop/for_zkp/train/45_Z.bmp"
            string_val: "/Users/zkp/Desktop/for_zkp/train/28_A.bmp"
            string_val: "/Users/zkp/Desktop/for_zkp/train/58_H.bmp"
            string_val: "/Users/zkp/Desktop/for_zkp/train/1_J.bmp"
            string_val: "/Users/zkp/Desktop/for_zkp/train/28_7.bmp"
            string_val: "/Users/zkp/Desktop/for_zkp/train/28_V.bmp"
            string_val: "/Users/zkp/Desktop/for_zkp/train/24_L.bmp"
            string_val: "/Users/zkp/Desktop/for_zkp/train/11_E.bmp"
            string_val: "/Users/zkp/Desktop/for_zkp/train/54_E.bmp"
            string_val: "/Users/zkp/Desktop/for_zkp/train/47_O.bmp"
            string_val: "/Users/zkp/Desktop/for_zkp/train/37_F.bmp"
            string_val: "/Users/zkp/Desktop/for_zkp/train/11_3.bmp"
            string_val: "/Users/zkp/Desktop/for_zkp/train/11_R.bmp"
            string_val: "/Users/zkp/Desktop/for_zkp/train/54_3.bmp"
            string_val: "/Users/zkp/Desktop/for_zkp/train/54_R.bmp"
            string_val: "/Users/zkp/Desktop/for_zkp/train/47_X.bmp"
            string_val: "/Users/zkp/Desktop/for_zkp/train/47_9.bmp"
            string_val: "/Users/zkp/Desktop/for_zkp/train/37_0.bmp"
            string_val: "/Users/zkp/Desktop/for_zkp/train/37_Q.bmp"
            string_val: "/Users/zkp/Desktop/for_zkp/train/39_I.bmp"
            string_val: "/Users/zkp/Desktop/for_zkp/train/3_H.bmp"
            string_val: "/Users/zkp/Desktop/for_zkp/train/49_W.bmp"
            string_val: "/Users/zkp/Desktop/for_zkp/train/49_6.bmp"
            string_val: "/Users/zkp/Desktop/for_zkp/train/49_4.bmp"
            string_val: "/Users/zkp/Desktop/for_zkp/train/49_U.bmp"
            string_val: "/Users/zkp/Desktop/for_zkp/train/3_J.bmp"
            string_val: "/Users/zkp/Desktop/for_zkp/train/49_B.bmp"
            string_val: "/Users/zkp/Desktop/for_zkp/train/39_K.bmp"
            string_val: "/Users/zkp/Desktop/for_zkp/train/54_P.bmp"
            string_val: "/Users/zkp/Desktop/for_zkp/train/54_1.bmp"
            string_val: "/Users/zkp/Desktop/for_zkp/train/24_8.bmp"
            string_val: "/Users/zkp/Desktop/for_zkp/train/24_Y.bmp"
            string_val: "/Users/zkp/Desktop/for_zkp/train/11_P.bmp"
            string_val: "/Users/zkp/Desktop/for_zkp/train/11_1.bmp"
            string_val: "/Users/zkp/Desktop/for_zkp/train/37_S.bmp"
            string_val: "/Users/zkp/Desktop/for_zkp/train/37_2.bmp"
            string_val: "/Users/zkp/Desktop/for_zkp/train/47_Z.bmp"
            string_val: "/Users/zkp/Desktop/for_zkp/train/54_G.bmp"
            string_val: "/Users/zkp/Desktop/for_zkp/train/11_G.bmp"
            string_val: "/Users/zkp/Desktop/for_zkp/train/24_N.bmp"
            string_val: "/Users/zkp/Desktop/for_zkp/train/37_D.bmp"
            string_val: "/Users/zkp/Desktop/for_zkp/train/47_M.bmp"
            string_val: "/Users/zkp/Desktop/for_zkp/train/1_H.bmp"
            string_val: "/Users/zkp/Desktop/for_zkp/train/28_T.bmp"
            string_val: "/Users/zkp/Desktop/for_zkp/train/28_5.bmp"
            string_val: "/Users/zkp/Desktop/for_zkp/train/58_J.bmp"
            string_val: "/Users/zkp/Desktop/for_zkp/train/28_C.bmp"
            string_val: "/Users/zkp/Desktop/for_zkp/train/13_3.bmp"
            string_val: "/Users/zkp/Desktop/for_zkp/train/13_R.bmp"
            string_val: "/Users/zkp/Desktop/for_zkp/train/56_3.bmp"
            string_val: "/Users/zkp/Desktop/for_zkp/train/56_R.bmp"
            string_val: "/Users/zkp/Desktop/for_zkp/train/45_X.bmp"
            string_val: "/Users/zkp/Desktop/for_zkp/train/45_9.bmp"
            string_val: "/Users/zkp/Desktop/for_zkp/train/35_0.bmp"
            string_val: "/Users/zkp/Desktop/for_zkp/train/35_Q.bmp"
            string_val: "/Users/zkp/Desktop/for_zkp/train/26_L.bmp"
            string_val: "/Users/zkp/Desktop/for_zkp/train/13_E.bmp"
            string_val: "/Users/zkp/Desktop/for_zkp/train/56_E.bmp"
            string_val: "/Users/zkp/Desktop/for_zkp/train/45_O.bmp"
            string_val: "/Users/zkp/Desktop/for_zkp/train/35_F.bmp"
            string_val: "/Users/zkp/Desktop/for_zkp/train/7_N.bmp"
            string_val: "/Users/zkp/Desktop/for_zkp/train/7_8.bmp"
            string_val: "/Users/zkp/Desktop/for_zkp/train/7_Y.bmp"
            string_val: "/Users/zkp/Desktop/for_zkp/train/9_A.bmp"
            string_val: "/Users/zkp/Desktop/for_zkp/train/33_6.bmp"
            string_val: "/Users/zkp/Desktop/for_zkp/train/33_W.bmp"
            string_val: "/Users/zkp/Desktop/for_zkp/train/15_5.bmp"
            string_val: "/Users/zkp/Desktop/for_zkp/train/15_T.bmp"
            string_val: "/Users/zkp/Desktop/for_zkp/train/50_5.bmp"
            string_val: "/Users/zkp/Desktop/for_zkp/train/50_T.bmp"
            string_val: "/Users/zkp/Desktop/for_zkp/train/43_I.bmp"
            string_val: "/Users/zkp/Desktop/for_zkp/train/9_7.bmp"
            string_val: "/Users/zkp/Desktop/for_zkp/train/9_V.bmp"
            string_val: "/Users/zkp/Desktop/for_zkp/train/20_J.bmp"
            string_val: "/Users/zkp/Desktop/for_zkp/train/15_C.bmp"
            string_val: "/Users/zkp/Desktop/for_zkp/train/50_C.bmp"
            string_val: "/Users/zkp/Desktop/for_zkp/train/19_Y.bmp"
            string_val: "/Users/zkp/Desktop/for_zkp/train/19_8.bmp"
            string_val: "/Users/zkp/Desktop/for_zkp/train/5_L.bmp"
            string_val: "/Users/zkp/Desktop/for_zkp/train/19_N.bmp"
            string_val: "/Users/zkp/Desktop/for_zkp/train/31_U.bmp"
            string_val: "/Users/zkp/Desktop/for_zkp/train/31_4.bmp"
            string_val: "/Users/zkp/Desktop/for_zkp/train/52_V.bmp"
            string_val: "/Users/zkp/Desktop/for_zkp/train/52_7.bmp"
            string_val: "/Users/zkp/Desktop/for_zkp/train/17_V.bmp"
            string_val: "/Users/zkp/Desktop/for_zkp/train/17_7.bmp"
            string_val: "/Users/zkp/Desktop/for_zkp/train/31_B.bmp"
            string_val: "/Users/zkp/Desktop/for_zkp/train/41_K.bmp"
            string_val: "/Users/zkp/Desktop/for_zkp/train/52_A.bmp"
            string_val: "/Users/zkp/Desktop/for_zkp/train/17_A.bmp"
            string_val: "/Users/zkp/Desktop/for_zkp/train/22_H.bmp"
            string_val: "/Users/zkp/Desktop/for_zkp/train/22_I.bmp"
            string_val: "/Users/zkp/Desktop/for_zkp/train/31_C.bmp"
            string_val: "/Users/zkp/Desktop/for_zkp/train/41_J.bmp"
            string_val: "/Users/zkp/Desktop/for_zkp/train/52_6.bmp"
            string_val: "/Users/zkp/Desktop/for_zkp/train/52_W.bmp"
            string_val: "/Users/zkp/Desktop/for_zkp/train/17_6.bmp"
            string_val: "/Users/zkp/Desktop/for_zkp/train/17_W.bmp"
            string_val: "/Users/zkp/Desktop/for_zkp/train/31_5.bmp"
            string_val: "/Users/zkp/Desktop/for_zkp/train/31_T.bmp"
            string_val: "/Users/zkp/Desktop/for_zkp/train/5_Z.bmp"
            string_val: "/Users/zkp/Desktop/for_zkp/train/19_O.bmp"
            string_val: "/Users/zkp/Desktop/for_zkp/train/5_M.bmp"
            string_val: "/Users/zkp/Desktop/for_zkp/train/19_9.bmp"
            string_val: "/Users/zkp/Desktop/for_zkp/train/19_X.bmp"
            string_val: "/Users/zkp/Desktop/for_zkp/train/15_B.bmp"
            string_val: "/Users/zkp/Desktop/for_zkp/train/20_K.bmp"
            string_val: "/Users/zkp/Desktop/for_zkp/train/50_B.bmp"
            string_val: "/Users/zkp/Desktop/for_zkp/train/9_W.bmp"
            string_val: "/Users/zkp/Desktop/for_zkp/train/9_6.bmp"
            string_val: "/Users/zkp/Desktop/for_zkp/train/43_H.bmp"
            string_val: "/Users/zkp/Desktop/for_zkp/train/33_A.bmp"
            string_val: "/Users/zkp/Desktop/for_zkp/train/15_U.bmp"
            string_val: "/Users/zkp/Desktop/for_zkp/train/15_4.bmp"
            string_val: "/Users/zkp/Desktop/for_zkp/train/50_U.bmp"
            string_val: "/Users/zkp/Desktop/for_zkp/train/50_4.bmp"
            string_val: "/Users/zkp/Desktop/for_zkp/train/33_V.bmp"
            string_val: "/Users/zkp/Desktop/for_zkp/train/33_7.bmp"
            string_val: "/Users/zkp/Desktop/for_zkp/train/7_X.bmp"
            string_val: "/Users/zkp/Desktop/for_zkp/train/7_9.bmp"
            string_val: "/Users/zkp/Desktop/for_zkp/train/7_O.bmp"
            string_val: "/Users/zkp/Desktop/for_zkp/train/45_N.bmp"
            string_val: "/Users/zkp/Desktop/for_zkp/train/35_G.bmp"
            string_val: "/Users/zkp/Desktop/for_zkp/train/13_D.bmp"
            string_val: "/Users/zkp/Desktop/for_zkp/train/26_M.bmp"
            string_val: "/Users/zkp/Desktop/for_zkp/train/56_D.bmp"
            string_val: "/Users/zkp/Desktop/for_zkp/train/45_8.bmp"
            string_val: "/Users/zkp/Desktop/for_zkp/train/45_Y.bmp"
            string_val: "/Users/zkp/Desktop/for_zkp/train/35_P.bmp"
            string_val: "/Users/zkp/Desktop/for_zkp/train/35_1.bmp"
            string_val: "/Users/zkp/Desktop/for_zkp/train/26_Z.bmp"
            string_val: "/Users/zkp/Desktop/for_zkp/train/13_S.bmp"
            string_val: "/Users/zkp/Desktop/for_zkp/train/13_2.bmp"
            string_val: "/Users/zkp/Desktop/for_zkp/train/56_S.bmp"
            string_val: "/Users/zkp/Desktop/for_zkp/train/56_2.bmp"
            string_val: "/Users/zkp/Desktop/for_zkp/train/58_K.bmp"
            string_val: "/Users/zkp/Desktop/for_zkp/train/28_B.bmp"
            string_val: "/Users/zkp/Desktop/for_zkp/train/28_4.bmp"
            string_val: "/Users/zkp/Desktop/for_zkp/train/28_U.bmp"
            string_val: "/Users/zkp/Desktop/for_zkp/train/1_I.bmp"
            string_val: "/Users/zkp/Desktop/for_zkp/train/37_E.bmp"
            string_val: "/Users/zkp/Desktop/for_zkp/train/47_L.bmp"
            string_val: "/Users/zkp/Desktop/for_zkp/train/54_F.bmp"
            string_val: "/Users/zkp/Desktop/for_zkp/train/24_O.bmp"
            string_val: "/Users/zkp/Desktop/for_zkp/train/11_F.bmp"
            string_val: "/Users/zkp/Desktop/for_zkp/train/37_3.bmp"
            string_val: "/Users/zkp/Desktop/for_zkp/train/37_R.bmp"
            string_val: "/Users/zkp/Desktop/for_zkp/train/54_0.bmp"
            string_val: "/Users/zkp/Desktop/for_zkp/train/54_Q.bmp"
            string_val: "/Users/zkp/Desktop/for_zkp/train/11_0.bmp"
            string_val: "/Users/zkp/Desktop/for_zkp/train/11_Q.bmp"
            string_val: "/Users/zkp/Desktop/for_zkp/train/24_X.bmp"
            string_val: "/Users/zkp/Desktop/for_zkp/train/24_9.bmp"
            string_val: "/Users/zkp/Desktop/for_zkp/train/49_C.bmp"
            string_val: "/Users/zkp/Desktop/for_zkp/train/39_J.bmp"
            string_val: "/Users/zkp/Desktop/for_zkp/train/3_K.bmp"
            string_val: "/Users/zkp/Desktop/for_zkp/train/49_T.bmp"
            string_val: "/Users/zkp/Desktop/for_zkp/train/49_5.bmp"
            string_val: "/Users/zkp/Desktop/for_zkp/train/39_N.bmp"
            string_val: "/Users/zkp/Desktop/for_zkp/train/3_X.bmp"
            string_val: "/Users/zkp/Desktop/for_zkp/train/3_9.bmp"
            string_val: "/Users/zkp/Desktop/for_zkp/train/49_G.bmp"
            string_val: "/Users/zkp/Desktop/for_zkp/train/39_Y.bmp"
            string_val: "/Users/zkp/Desktop/for_zkp/train/39_8.bmp"
            string_val: "/Users/zkp/Desktop/for_zkp/train/49_1.bmp"
            string_val: "/Users/zkp/Desktop/for_zkp/train/49_P.bmp"
            string_val: "/Users/zkp/Desktop/for_zkp/train/3_O.bmp"
            string_val: "/Users/zkp/Desktop/for_zkp/train/11_B.bmp"
            string_val: "/Users/zkp/Desktop/for_zkp/train/24_K.bmp"
            string_val: "/Users/zkp/Desktop/for_zkp/train/54_B.bmp"
            string_val: "/Users/zkp/Desktop/for_zkp/train/47_H.bmp"
            string_val: "/Users/zkp/Desktop/for_zkp/train/37_A.bmp"
            string_val: "/Users/zkp/Desktop/for_zkp/train/11_U.bmp"
            string_val: "/Users/zkp/Desktop/for_zkp/train/11_4.bmp"
            string_val: "/Users/zkp/Desktop/for_zkp/train/54_U.bmp"
            string_val: "/Users/zkp/Desktop/for_zkp/train/54_4.bmp"
            string_val: "/Users/zkp/Desktop/for_zkp/train/37_V.bmp"
            string_val: "/Users/zkp/Desktop/for_zkp/train/37_7.bmp"
            string_val: "/Users/zkp/Desktop/for_zkp/train/1_Z.bmp"
            string_val: "/Users/zkp/Desktop/for_zkp/train/28_F.bmp"
            string_val: "/Users/zkp/Desktop/for_zkp/train/58_O.bmp"
            string_val: "/Users/zkp/Desktop/for_zkp/train/1_M.bmp"
            string_val: "/Users/zkp/Desktop/for_zkp/train/28_Q.bmp"
            string_val: "/Users/zkp/Desktop/for_zkp/train/28_0.bmp"
            string_val: "/Users/zkp/Desktop/for_zkp/train/58_9.bmp"
            string_val: "/Users/zkp/Desktop/for_zkp/train/58_X.bmp"
            string_val: "/Users/zkp/Desktop/for_zkp/train/26_I.bmp"
            string_val: "/Users/zkp/Desktop/for_zkp/train/35_C.bmp"
            string_val: "/Users/zkp/Desktop/for_zkp/train/45_J.bmp"
            string_val: "/Users/zkp/Desktop/for_zkp/train/56_6.bmp"
            string_val: "/Users/zkp/Desktop/for_zkp/train/56_W.bmp"
            string_val: "/Users/zkp/Desktop/for_zkp/train/13_6.bmp"
            string_val: "/Users/zkp/Desktop/for_zkp/train/13_W.bmp"
            string_val: "/Users/zkp/Desktop/for_zkp/train/35_5.bmp"
            string_val: "/Users/zkp/Desktop/for_zkp/train/35_T.bmp"
            string_val: "/Users/zkp/Desktop/for_zkp/train/7_K.bmp"
            string_val: "/Users/zkp/Desktop/for_zkp/train/33_E.bmp"
            string_val: "/Users/zkp/Desktop/for_zkp/train/43_L.bmp"
            string_val: "/Users/zkp/Desktop/for_zkp/train/9_2.bmp"
            string_val: "/Users/zkp/Desktop/for_zkp/train/9_S.bmp"
            string_val: "/Users/zkp/Desktop/for_zkp/train/50_F.bmp"
            string_val: "/Users/zkp/Desktop/for_zkp/train/20_O.bmp"
            string_val: "/Users/zkp/Desktop/for_zkp/train/15_F.bmp"
            string_val: "/Users/zkp/Desktop/for_zkp/train/33_3.bmp"
            string_val: "/Users/zkp/Desktop/for_zkp/train/33_R.bmp"
            string_val: "/Users/zkp/Desktop/for_zkp/train/9_D.bmp"
            string_val: "/Users/zkp/Desktop/for_zkp/train/50_0.bmp"
            string_val: "/Users/zkp/Desktop/for_zkp/train/50_Q.bmp"
            string_val: "/Users/zkp/Desktop/for_zkp/train/15_0.bmp"
            string_val: "/Users/zkp/Desktop/for_zkp/train/15_Q.bmp"
            string_val: "/Users/zkp/Desktop/for_zkp/train/20_X.bmp"
            string_val: "/Users/zkp/Desktop/for_zkp/train/20_9.bmp"
            string_val: "/Users/zkp/Desktop/for_zkp/train/19_K.bmp"
            string_val: "/Users/zkp/Desktop/for_zkp/train/5_I.bmp"
            string_val: "/Users/zkp/Desktop/for_zkp/train/41_N.bmp"
            string_val: "/Users/zkp/Desktop/for_zkp/train/31_G.bmp"
            string_val: "/Users/zkp/Desktop/for_zkp/train/17_D.bmp"
            string_val: "/Users/zkp/Desktop/for_zkp/train/22_M.bmp"
            string_val: "/Users/zkp/Desktop/for_zkp/train/52_D.bmp"
            string_val: "/Users/zkp/Desktop/for_zkp/train/41_8.bmp"
            string_val: "/Users/zkp/Desktop/for_zkp/train/41_Y.bmp"
            string_val: "/Users/zkp/Desktop/for_zkp/train/31_P.bmp"
            string_val: "/Users/zkp/Desktop/for_zkp/train/31_1.bmp"
            string_val: "/Users/zkp/Desktop/for_zkp/train/22_Z.bmp"
            string_val: "/Users/zkp/Desktop/for_zkp/train/17_S.bmp"
            string_val: "/Users/zkp/Desktop/for_zkp/train/17_2.bmp"
            string_val: "/Users/zkp/Desktop/for_zkp/train/52_S.bmp"
            string_val: "/Users/zkp/Desktop/for_zkp/train/52_2.bmp"
            string_val: "/Users/zkp/Desktop/for_zkp/train/17_3.bmp"
            string_val: "/Users/zkp/Desktop/for_zkp/train/17_R.bmp"
            string_val: "/Users/zkp/Desktop/for_zkp/train/52_3.bmp"
            string_val: "/Users/zkp/Desktop/for_zkp/train/52_R.bmp"
            string_val: "/Users/zkp/Desktop/for_zkp/train/41_X.bmp"
            string_val: "/Users/zkp/Desktop/for_zkp/train/41_9.bmp"
            string_val: "/Users/zkp/Desktop/for_zkp/train/31_0.bmp"
            string_val: "/Users/zkp/Desktop/for_zkp/train/31_Q.bmp"
            string_val: "/Users/zkp/Desktop/for_zkp/train/22_L.bmp"
            string_val: "/Users/zkp/Desktop/for_zkp/train/17_E.bmp"
            string_val: "/Users/zkp/Desktop/for_zkp/train/52_E.bmp"
            string_val: "/Users/zkp/Desktop/for_zkp/train/41_O.bmp"
            string_val: "/Users/zkp/Desktop/for_zkp/train/31_F.bmp"
            string_val: "/Users/zkp/Desktop/for_zkp/train/5_H.bmp"
            string_val: "/Users/zkp/Desktop/for_zkp/train/19_J.bmp"
            string_val: "/Users/zkp/Desktop/for_zkp/train/50_P.bmp"
            string_val: "/Users/zkp/Desktop/for_zkp/train/50_1.bmp"
            string_val: "/Users/zkp/Desktop/for_zkp/train/20_8.bmp"
            string_val: "/Users/zkp/Desktop/for_zkp/train/20_Y.bmp"
            string_val: "/Users/zkp/Desktop/for_zkp/train/15_P.bmp"
            string_val: "/Users/zkp/Desktop/for_zkp/train/15_1.bmp"
            string_val: "/Users/zkp/Desktop/for_zkp/train/33_S.bmp"
            string_val: "/Users/zkp/Desktop/for_zkp/train/33_2.bmp"
            string_val: "/Users/zkp/Desktop/for_zkp/train/43_Z.bmp"
            string_val: "/Users/zkp/Desktop/for_zkp/train/9_E.bmp"
            string_val: "/Users/zkp/Desktop/for_zkp/train/50_G.bmp"
            string_val: "/Users/zkp/Desktop/for_zkp/train/15_G.bmp"
            string_val: "/Users/zkp/Desktop/for_zkp/train/20_N.bmp"
            string_val: "/Users/zkp/Desktop/for_zkp/train/33_D.bmp"
            string_val: "/Users/zkp/Desktop/for_zkp/train/9_R.bmp"
            string_val: "/Users/zkp/Desktop/for_zkp/train/9_3.bmp"
            string_val: "/Users/zkp/Desktop/for_zkp/train/43_M.bmp"
            string_val: "/Users/zkp/Desktop/for_zkp/train/7_J.bmp"
            string_val: "/Users/zkp/Desktop/for_zkp/train/35_U.bmp"
            string_val: "/Users/zkp/Desktop/for_zkp/train/35_4.bmp"
            string_val: "/Users/zkp/Desktop/for_zkp/train/56_V.bmp"
            string_val: "/Users/zkp/Desktop/for_zkp/train/56_7.bmp"
            string_val: "/Users/zkp/Desktop/for_zkp/train/13_V.bmp"
            string_val: "/Users/zkp/Desktop/for_zkp/train/13_7.bmp"
            string_val: "/Users/zkp/Desktop/for_zkp/train/35_B.bmp"
            string_val: "/Users/zkp/Desktop/for_zkp/train/45_K.bmp"
            string_val: "/Users/zkp/Desktop/for_zkp/train/56_A.bmp"
            string_val: "/Users/zkp/Desktop/for_zkp/train/13_A.bmp"
            string_val: "/Users/zkp/Desktop/for_zkp/train/26_H.bmp"
            string_val: "/Users/zkp/Desktop/for_zkp/train/28_1.bmp"
            string_val: "/Users/zkp/Desktop/for_zkp/train/28_P.bmp"
            string_val: "/Users/zkp/Desktop/for_zkp/train/58_Y.bmp"
            string_val: "/Users/zkp/Desktop/for_zkp/train/58_8.bmp"
            string_val: "/Users/zkp/Desktop/for_zkp/train/1_L.bmp"
            string_val: "/Users/zkp/Desktop/for_zkp/train/28_G.bmp"
            string_val: "/Users/zkp/Desktop/for_zkp/train/58_N.bmp"
            string_val: "/Users/zkp/Desktop/for_zkp/train/37_6.bmp"
            string_val: "/Users/zkp/Desktop/for_zkp/train/37_W.bmp"
            string_val: "/Users/zkp/Desktop/for_zkp/train/11_5.bmp"
            string_val: "/Users/zkp/Desktop/for_zkp/train/11_T.bmp"
            string_val: "/Users/zkp/Desktop/for_zkp/train/54_5.bmp"
            string_val: "/Users/zkp/Desktop/for_zkp/train/54_T.bmp"
            string_val: "/Users/zkp/Desktop/for_zkp/train/47_I.bmp"
            string_val: "/Users/zkp/Desktop/for_zkp/train/24_J.bmp"
            string_val: "/Users/zkp/Desktop/for_zkp/train/11_C.bmp"
            string_val: "/Users/zkp/Desktop/for_zkp/train/54_C.bmp"
            string_val: "/Users/zkp/Desktop/for_zkp/train/39_9.bmp"
            string_val: "/Users/zkp/Desktop/for_zkp/train/39_X.bmp"
            string_val: "/Users/zkp/Desktop/for_zkp/train/3_N.bmp"
            string_val: "/Users/zkp/Desktop/for_zkp/train/49_Q.bmp"
            string_val: "/Users/zkp/Desktop/for_zkp/train/49_0.bmp"
            string_val: "/Users/zkp/Desktop/for_zkp/train/39_O.bmp"
            string_val: "/Users/zkp/Desktop/for_zkp/train/49_F.bmp"
            string_val: "/Users/zkp/Desktop/for_zkp/train/3_8.bmp"
            string_val: "/Users/zkp/Desktop/for_zkp/train/3_Y.bmp"
            string_val: "/Users/zkp/Desktop/for_zkp/train/49_D.bmp"
            string_val: "/Users/zkp/Desktop/for_zkp/train/39_M.bmp"
            string_val: "/Users/zkp/Desktop/for_zkp/train/49_2.bmp"
            string_val: "/Users/zkp/Desktop/for_zkp/train/49_S.bmp"
            string_val: "/Users/zkp/Desktop/for_zkp/train/3_L.bmp"
            string_val: "/Users/zkp/Desktop/for_zkp/train/39_Z.bmp"
            string_val: "/Users/zkp/Desktop/for_zkp/train/37_B.bmp"
            string_val: "/Users/zkp/Desktop/for_zkp/train/47_K.bmp"
            string_val: "/Users/zkp/Desktop/for_zkp/train/54_A.bmp"
            string_val: "/Users/zkp/Desktop/for_zkp/train/11_A.bmp"
            string_val: "/Users/zkp/Desktop/for_zkp/train/24_H.bmp"
            string_val: "/Users/zkp/Desktop/for_zkp/train/37_U.bmp"
            string_val: "/Users/zkp/Desktop/for_zkp/train/37_4.bmp"
            string_val: "/Users/zkp/Desktop/for_zkp/train/54_V.bmp"
            string_val: "/Users/zkp/Desktop/for_zkp/train/54_7.bmp"
            string_val: "/Users/zkp/Desktop/for_zkp/train/11_V.bmp"
            string_val: "/Users/zkp/Desktop/for_zkp/train/11_7.bmp"
            string_val: "/Users/zkp/Desktop/for_zkp/train/58_L.bmp"
            string_val: "/Users/zkp/Desktop/for_zkp/train/28_E.bmp"
            string_val: "/Users/zkp/Desktop/for_zkp/train/1_8.bmp"
            string_val: "/Users/zkp/Desktop/for_zkp/train/1_Y.bmp"
            string_val: "/Users/zkp/Desktop/for_zkp/train/28_R.bmp"
            string_val: "/Users/zkp/Desktop/for_zkp/train/28_3.bmp"
            string_val: "/Users/zkp/Desktop/for_zkp/train/1_N.bmp"
            string_val: "/Users/zkp/Desktop/for_zkp/train/45_I.bmp"
            string_val: "/Users/zkp/Desktop/for_zkp/train/26_J.bmp"
            string_val: "/Users/zkp/Desktop/for_zkp/train/13_C.bmp"
            string_val: "/Users/zkp/Desktop/for_zkp/train/56_C.bmp"
            string_val: "/Users/zkp/Desktop/for_zkp/train/35_6.bmp"
            string_val: "/Users/zkp/Desktop/for_zkp/train/35_W.bmp"
            string_val: "/Users/zkp/Desktop/for_zkp/train/13_5.bmp"
            string_val: "/Users/zkp/Desktop/for_zkp/train/13_T.bmp"
            string_val: "/Users/zkp/Desktop/for_zkp/train/56_5.bmp"
            string_val: "/Users/zkp/Desktop/for_zkp/train/56_T.bmp"
            string_val: "/Users/zkp/Desktop/for_zkp/train/7_H.bmp"
            string_val: "/Users/zkp/Desktop/for_zkp/train/20_L.bmp"
            string_val: "/Users/zkp/Desktop/for_zkp/train/15_E.bmp"
            string_val: "/Users/zkp/Desktop/for_zkp/train/50_E.bmp"
            string_val: "/Users/zkp/Desktop/for_zkp/train/43_O.bmp"
            string_val: "/Users/zkp/Desktop/for_zkp/train/9_1.bmp"
            string_val: "/Users/zkp/Desktop/for_zkp/train/9_P.bmp"
            string_val: "/Users/zkp/Desktop/for_zkp/train/33_F.bmp"
            string_val: "/Users/zkp/Desktop/for_zkp/train/15_3.bmp"
            string_val: "/Users/zkp/Desktop/for_zkp/train/15_R.bmp"
            string_val: "/Users/zkp/Desktop/for_zkp/train/50_3.bmp"
            string_val: "/Users/zkp/Desktop/for_zkp/train/50_R.bmp"
            string_val: "/Users/zkp/Desktop/for_zkp/train/9_G.bmp"
            string_val: "/Users/zkp/Desktop/for_zkp/train/43_X.bmp"
            string_val: "/Users/zkp/Desktop/for_zkp/train/43_9.bmp"
            string_val: "/Users/zkp/Desktop/for_zkp/train/33_0.bmp"
            string_val: "/Users/zkp/Desktop/for_zkp/train/33_Q.bmp"
            string_val: "/Users/zkp/Desktop/for_zkp/train/19_H.bmp"
            string_val: "/Users/zkp/Desktop/for_zkp/train/5_J.bmp"
            string_val: "/Users/zkp/Desktop/for_zkp/train/52_G.bmp"
            string_val: "/Users/zkp/Desktop/for_zkp/train/17_G.bmp"
            string_val: "/Users/zkp/Desktop/for_zkp/train/22_N.bmp"
            string_val: "/Users/zkp/Desktop/for_zkp/train/31_D.bmp"
            string_val: "/Users/zkp/Desktop/for_zkp/train/41_M.bmp"
            string_val: "/Users/zkp/Desktop/for_zkp/train/52_P.bmp"
            string_val: "/Users/zkp/Desktop/for_zkp/train/52_1.bmp"
            string_val: "/Users/zkp/Desktop/for_zkp/train/22_8.bmp"
            string_val: "/Users/zkp/Desktop/for_zkp/train/22_Y.bmp"
            string_val: "/Users/zkp/Desktop/for_zkp/train/17_P.bmp"
            string_val: "/Users/zkp/Desktop/for_zkp/train/17_1.bmp"
            string_val: "/Users/zkp/Desktop/for_zkp/train/31_S.bmp"
            string_val: "/Users/zkp/Desktop/for_zkp/train/31_2.bmp"
            string_val: "/Users/zkp/Desktop/for_zkp/train/41_Z.bmp"
            string_val: "/Users/zkp/Desktop/for_zkp/train/31_3.bmp"
            string_val: "/Users/zkp/Desktop/for_zkp/train/31_R.bmp"
            string_val: "/Users/zkp/Desktop/for_zkp/train/52_0.bmp"
            string_val: "/Users/zkp/Desktop/for_zkp/train/52_Q.bmp"
            string_val: "/Users/zkp/Desktop/for_zkp/train/17_0.bmp"
            string_val: "/Users/zkp/Desktop/for_zkp/train/17_Q.bmp"
            string_val: "/Users/zkp/Desktop/for_zkp/train/22_X.bmp"
            string_val: "/Users/zkp/Desktop/for_zkp/train/22_9.bmp"
            string_val: "/Users/zkp/Desktop/for_zkp/train/31_E.bmp"
            string_val: "/Users/zkp/Desktop/for_zkp/train/41_L.bmp"
            string_val: "/Users/zkp/Desktop/for_zkp/train/52_F.bmp"
            string_val: "/Users/zkp/Desktop/for_zkp/train/22_O.bmp"
            string_val: "/Users/zkp/Desktop/for_zkp/train/17_F.bmp"
            string_val: "/Users/zkp/Desktop/for_zkp/train/5_K.bmp"
            string_val: "/Users/zkp/Desktop/for_zkp/train/19_I.bmp"
            string_val: "/Users/zkp/Desktop/for_zkp/train/43_8.bmp"
            string_val: "/Users/zkp/Desktop/for_zkp/train/43_Y.bmp"
            string_val: "/Users/zkp/Desktop/for_zkp/train/9_F.bmp"
            string_val: "/Users/zkp/Desktop/for_zkp/train/33_P.bmp"
            string_val: "/Users/zkp/Desktop/for_zkp/train/33_1.bmp"
            string_val: "/Users/zkp/Desktop/for_zkp/train/20_Z.bmp"
            string_val: "/Users/zkp/Desktop/for_zkp/train/15_S.bmp"
            string_val: "/Users/zkp/Desktop/for_zkp/train/15_2.bmp"
            string_val: "/Users/zkp/Desktop/for_zkp/train/50_S.bmp"
            string_val: "/Users/zkp/Desktop/for_zkp/train/50_2.bmp"
            string_val: "/Users/zkp/Desktop/for_zkp/train/9_Q.bmp"
            string_val: "/Users/zkp/Desktop/for_zkp/train/9_0.bmp"
            string_val: "/Users/zkp/Desktop/for_zkp/train/43_N.bmp"
            string_val: "/Users/zkp/Desktop/for_zkp/train/33_G.bmp"
            string_val: "/Users/zkp/Desktop/for_zkp/train/15_D.bmp"
            string_val: "/Users/zkp/Desktop/for_zkp/train/20_M.bmp"
            string_val: "/Users/zkp/Desktop/for_zkp/train/50_D.bmp"
            string_val: "/Users/zkp/Desktop/for_zkp/train/7_I.bmp"
            string_val: "/Users/zkp/Desktop/for_zkp/train/13_U.bmp"
            string_val: "/Users/zkp/Desktop/for_zkp/train/13_4.bmp"
            string_val: "/Users/zkp/Desktop/for_zkp/train/56_U.bmp"
            string_val: "/Users/zkp/Desktop/for_zkp/train/56_4.bmp"
            string_val: "/Users/zkp/Desktop/for_zkp/train/35_V.bmp"
            string_val: "/Users/zkp/Desktop/for_zkp/train/35_7.bmp"
            string_val: "/Users/zkp/Desktop/for_zkp/train/13_B.bmp"
            string_val: "/Users/zkp/Desktop/for_zkp/train/26_K.bmp"
            string_val: "/Users/zkp/Desktop/for_zkp/train/56_B.bmp"
            string_val: "/Users/zkp/Desktop/for_zkp/train/45_H.bmp"
            string_val: "/Users/zkp/Desktop/for_zkp/train/35_A.bmp"
            string_val: "/Users/zkp/Desktop/for_zkp/train/1_O.bmp"
            string_val: "/Users/zkp/Desktop/for_zkp/train/58_Z.bmp"
            string_val: "/Users/zkp/Desktop/for_zkp/train/28_2.bmp"
            string_val: "/Users/zkp/Desktop/for_zkp/train/28_S.bmp"
            string_val: "/Users/zkp/Desktop/for_zkp/train/1_X.bmp"
            string_val: "/Users/zkp/Desktop/for_zkp/train/1_9.bmp"
            string_val: "/Users/zkp/Desktop/for_zkp/train/58_M.bmp"
            string_val: "/Users/zkp/Desktop/for_zkp/train/28_D.bmp"
            string_val: "/Users/zkp/Desktop/for_zkp/train/54_6.bmp"
            string_val: "/Users/zkp/Desktop/for_zkp/train/54_W.bmp"
            string_val: "/Users/zkp/Desktop/for_zkp/train/11_6.bmp"
            string_val: "/Users/zkp/Desktop/for_zkp/train/11_W.bmp"
            string_val: "/Users/zkp/Desktop/for_zkp/train/37_5.bmp"
            string_val: "/Users/zkp/Desktop/for_zkp/train/37_T.bmp"
            string_val: "/Users/zkp/Desktop/for_zkp/train/24_I.bmp"
            string_val: "/Users/zkp/Desktop/for_zkp/train/37_C.bmp"
            string_val: "/Users/zkp/Desktop/for_zkp/train/47_J.bmp"
            string_val: "/Users/zkp/Desktop/for_zkp/train/3_M.bmp"
            string_val: "/Users/zkp/Desktop/for_zkp/train/49_R.bmp"
            string_val: "/Users/zkp/Desktop/for_zkp/train/49_3.bmp"
            string_val: "/Users/zkp/Desktop/for_zkp/train/49_E.bmp"
            string_val: "/Users/zkp/Desktop/for_zkp/train/3_Z.bmp"
            string_val: "/Users/zkp/Desktop/for_zkp/train/39_L.bmp"
          }
        }
      }
    }
    node_def {
      name: "TensorSliceDataset/Const_1"
      op: "Const"
      device: "/device:CPU:0"
      attr {
        key: "dtype"
        value {
          type: DT_INT32
        }
      }
      attr {
        key: "value"
        value {
          tensor {
            dtype: DT_INT32
            tensor_shape {
              dim {
                size: 2160
              }
            }
            tensor_content: "…"
          }
        }
      }
    }
    node_def {
      name: "TensorSliceDataset"
      op: "TensorSliceDataset"
      input: "TensorSliceDataset/Const:output:0"
      input: "TensorSliceDataset/Const_1:output:0"
      device: "/device:CPU:0"
      attr {
        key: "Toutput_types"
        value {
          list {
            type: DT_STRING
            type: DT_INT32
          }
        }
      }
      attr {
        key: "output_shapes"
        value {
          list {
            shape {
            }
            shape {
            }
          }
        }
      }
    }
    node_def {
      name: "MapDataset"
      op: "MapDataset"
      input: "TensorSliceDataset:handle:0"
      device: "/device:CPU:0"
      attr {
        key: "Targuments"
        value {
          list {
          }
        }
      }
      attr {
        key: "f"
        value {
          func {
            name: "tf_map_func_vFqbU35KnD8"
          }
        }
      }
      attr {
        key: "output_shapes"
        value {
          list {
            shape {
              dim {
                size: 28
              }
              dim {
                size: 28
              }
              dim {
                size: 1
              }
            }
            shape {
            }
          }
        }
      }
      attr {
        key: "output_types"
        value {
          list {
            type: DT_FLOAT
            type: DT_INT32
          }
        }
      }
    }
    node_def {
      name: "ShuffleDataset/buffer_size"
      op: "Const"
      device: "/device:CPU:0"
      attr {
        key: "dtype"
        value {
          type: DT_INT64
        }
      }
      attr {
        key: "value"
        value {
          tensor {
            dtype: DT_INT64
            tensor_shape {
            }
            int64_val: 10000
          }
        }
      }
    }
    node_def {
      name: "ShuffleDataset/seed"
      op: "Const"
      device: "/device:CPU:0"
      attr {
        key: "dtype"
        value {
          type: DT_INT64
        }
      }
      attr {
        key: "value"
        value {
          tensor {
            dtype: DT_INT64
            tensor_shape {
            }
            int64_val: 0
          }
        }
      }
    }
    node_def {
      name: "ShuffleDataset/seed2"
      op: "Const"
      device: "/device:CPU:0"
      attr {
        key: "dtype"
        value {
          type: DT_INT64
        }
      }
      attr {
        key: "value"
        value {
          tensor {
            dtype: DT_INT64
            tensor_shape {
            }
            int64_val: 0
          }
        }
      }
    }
    node_def {
      name: "ShuffleDataset"
      op: "ShuffleDataset"
      input: "MapDataset:handle:0"
      input: "ShuffleDataset/buffer_size:output:0"
      input: "ShuffleDataset/seed:output:0"
      input: "ShuffleDataset/seed2:output:0"
      device: "/device:CPU:0"
      attr {
        key: "output_shapes"
        value {
          list {
            shape {
              dim {
                size: 28
              }
              dim {
                size: 28
              }
              dim {
                size: 1
              }
            }
            shape {
            }
          }
        }
      }
      attr {
        key: "output_types"
        value {
          list {
            type: DT_FLOAT
            type: DT_INT32
          }
        }
      }
      attr {
        key: "reshuffle_each_iteration"
        value {
          b: true
        }
      }
    }
    node_def {
      name: "BatchDataset/batch_size"
      op: "Const"
      device: "/device:CPU:0"
      attr {
        key: "dtype"
        value {
          type: DT_INT64
        }
      }
      attr {
        key: "value"
        value {
          tensor {
            dtype: DT_INT64
            tensor_shape {
            }
            int64_val: 100
          }
        }
      }
    }
    node_def {
      name: "BatchDataset"
      op: "BatchDataset"
      input: "ShuffleDataset:handle:0"
      input: "BatchDataset/batch_size:output:0"
      device: "/device:CPU:0"
      attr {
        key: "output_shapes"
        value {
          list {
            shape {
              dim {
                size: -1
              }
              dim {
                size: 28
              }
              dim {
                size: 28
              }
              dim {
                size: 1
              }
            }
            shape {
              dim {
                size: -1
              }
            }
          }
        }
      }
      attr {
        key: "output_types"
        value {
          list {
            type: DT_FLOAT
            type: DT_INT32
          }
        }
      }
    }
    node_def {
      name: "RepeatDataset/count"
      op: "Const"
      device: "/device:CPU:0"
      attr {
        key: "dtype"
        value {
          type: DT_INT64
        }
      }
      attr {
        key: "value"
        value {
          tensor {
            dtype: DT_INT64
            tensor_shape {
            }
            int64_val: 100
          }
        }
      }
    }
    node_def {
      name: "RepeatDataset"
      op: "RepeatDataset"
      input: "BatchDataset:handle:0"
      input: "RepeatDataset/count:output:0"
      device: "/device:CPU:0"
      attr {
        key: "output_shapes"
        value {
          list {
            shape {
              dim {
                size: -1
              }
              dim {
                size: 28
              }
              dim {
                size: 28
              }
              dim {
                size: 1
              }
            }
            shape {
              dim {
                size: -1
              }
            }
          }
        }
      }
      attr {
        key: "output_types"
        value {
          list {
            type: DT_FLOAT
            type: DT_INT32
          }
        }
      }
    }
    ret {
      key: "repeatdataset"
      value: "RepeatDataset:handle:0"
    }
  }
}
versions {
  producer: 26
  min_consumer: 12
}
